traj_vae.pt (torch, 37519 bytes, 10 tensors)

encoder.hidden_fc.0.weight f4 [128, 24]
000000 c8 04 0e be e4 92 59 be ee 52 78 bd bd 4d 7c 3e
       -0.13869011 -0.2124744 -0.060625963 0.2463903
000010 ec be 48 be f3 4c 9f bd 90 cc 66 bd c6 63 05 be
       -0.19604081 -0.07778349 -0.05634743 -0.13026342
000020 27 84 26 be ea bb 16 3e 38 84 35 be 39 fc 3d be
       -0.1626135 0.14720121 -0.17726219 -0.18553247
000030 a2 52 56 3e ee 0e 2c 3e 62 a5 3d be 55 ff ec 3d
       0.2092996 0.1680257 -0.1852012 0.11572138
000040 26 28 e2 bd e4 27 28 3d ca 44 c7 3d 05 b8 ff bd
       -0.11042814 0.041053668 0.09729917 -0.12486271
000050 65 03 9b 3e 0b a8 ee 3c 4c 2a cf 3d 9e 9c 00 3c
       0.30276027 0.029132864 0.10115489 0.00784984
000060 2d f3 ab 3d b2 a1 d8 bd da 99 04 be c0 cc 26 3e
       0.083959915 -0.10577716 -0.12949315 0.16289043
000070 33 2e 00 bd 8d 5d 16 3e 59 a0 3f 3e d6 5e 54 3e
       -0.03129406 0.14684124 0.18713512 0.20739302
000080 e7 8a 05 3d 10 9c 24 be 71 4b c9 3d 57 0e 69 3d
       0.03260317 -0.16075158 0.098288424 0.05689844
000090 6c 37 2f 3e 6e fd a1 bd 51 97 1d be 19 99 d2 3c
       0.17110986 -0.07909666 -0.15389754 0.025707768
0000a0 75 eb 63 bd 4b 0b ce 3c 22 5a bf bc 06 75 bd 3d
       -0.05564447 0.02515187 -0.023358408 0.09250836
0000b0 e7 0f a6 3d c7 d0 b1 bc 1a 36 1a be 74 74 2c be
       0.08108502 -0.021705998 -0.150597 -0.16841298
0000c0 af 83 3f 3c 11 a2 e7 bd cf 96 ce bd 6c 66 86 3e
       0.011689111 -0.113102086 -0.10087358 0.26250017
0000d0 c6 1d fd 3d 13 ef 75 bd cf c9 f0 3c 16 88 40 3e
       0.123591945 -0.060042452 0.029393105 0.18801913
0000e0 88 db 2d be 3f 2a 81 3e ec 49 3d 3e 78 ef 70 be
       -0.16978276 0.25227544 0.1848523 -0.2352885
0000f0 e5 9a 3a 3e d4 fc 2b 3e 3f 0c 9b 3d bb 34 17 be
       0.1822315 0.16795665 0.07570695 -0.14766209
000100 59 32 ac 3d 06 5c 14 bd ca 35 9f bd 13 a5 a6 3d
       0.084080406 -0.036220573 -0.07773931 0.08136954
000110 a6 37 f2 be 12 b2 12 3e 07 b5 99 3e be 4b 54 bc
       -0.4730808 0.14325741 0.30020925 -0.0129575115
000120 e1 32 83 3d 4c 55 1b 3c d5 03 8d 3e 84 4f 25 be
       0.06406189 0.009480786 0.27541986 -0.16143614
000130 13 42 35 be fc 67 e7 ba fa d4 0d be f8 0d 39 be
       -0.17700987 -0.0017654891 -0.13850775 -0.18071735
000140 17 ea 93 3e 35 bc 47 bd fd dc be be 8a 77 b3 3d
       0.28889534 -0.048763473 -0.37277976 0.08763035
000150 9e ad 80 3e 4e 19 9c be e4 3e 9f 3e ce d1 ac 3d
       0.2513246 -0.30488056 0.3110267 0.084384546
000160 c3 3b d1 bc 9a 0a 48 3e 70 45 99 3e 74 eb 2f be
       -0.025541192 0.19535294 0.2993579 -0.17179662
000170 13 cb 15 be 92 03 3b 3e f5 b5 5c be 89 e6 88 bd
       -0.14628248 0.1826308 -0.21553786 -0.06684596
000180 22 3d 1d 3e 5b 67 3f be 08 c1 83 be c7 28 b6 3d
       0.15355352 -0.1869177 -0.2573321 0.088944964
000190 75 da 11 bd a1 22 fd 3c 55 73 5f 3e d5 f8 95 3d
       -0.035608727 0.030900301 0.2182134 0.073228516
0001a0 b3 d8 7b be 20 4b 1a 3e dd af 07 3d 01 1e 98 be
       -0.24594383 0.1506772 0.0331267 -0.2971039
0001b0 52 ed 03 3e 64 f9 09 be 2e 30 02 be 5f 3e 7a 3d
       0.128835 -0.13474041 -0.12713692 0.061094638
0001c0 b4 42 12 3d 51 db a1 bd f2 01 c9 bd 32 9f 46 3e
       0.035708144 -0.079031594 -0.09814824 0.19396666
0001d0 64 2f 42 be 20 5e 82 bd 3b df 1f 3e dc 46 15 3e
       -0.1896339 -0.06365609 0.156125 0.14577812
0001e0 47 d7 06 bc 55 c5 1e 3e d0 f7 18 bd 75 a9 05 be
       -0.008230037 0.15504964 -0.037345707 -0.13052924
0001f0 d4 4d 27 3d 38 75 28 be a2 c1 31 be c4 bf f0 bc
       0.040845707 -0.16450965 -0.17359021 -0.029388316
000200 81 5e bf 3d 4f 60 29 3e 5f c8 71 3e 87 f7 53 3e
       0.09344197 0.16540645 0.23611592 0.20699893
000210 9e 17 95 3e f0 4e 7a 3d ec 2f 1a bb fe c4 8e 3d
       0.2911958 0.061110437 -0.0023527099 0.06971167
000220 14 b6 91 bd e1 54 e2 bc 26 51 97 3e 96 8e ac 3d
       -0.07114807 -0.027628364 0.295541 0.084256336
000230 b3 fa cf be ac 6b b6 3e 00 83 4e 3d c8 27 12 3c
       -0.40620956 0.35629022 0.0504179 0.008920617
000240 2c dd f1 bd 3a a8 f5 3c 54 a7 90 bd b8 e2 6f 3d
       -0.11809763 0.029987443 -0.07063165 0.058565825
000250 a2 b9 9c 3e 8c a2 79 3e ee 38 9e bd f6 2a 92 3e
       0.30610377 0.24378413 -0.07725702 0.28548402
000260 aa 1e 6d bc d8 e8 19 3e be a9 45 3e fb 24 70 3e
       -0.014472643 0.15030229 0.19303033 0.23451607
000270 8a 1a 82 3e a0 70 66 3e 17 b2 9b bd 51 e1 1a 3c
       0.25410873 0.225039 -0.07602327 0.009453134
000280 9d 97 32 be c0 ff 0b be 44 42 82 3e c7 b7 02 3e
       -0.17440648 -0.1367178 0.25441182 0.12765418
000290 c8 cb c3 be 8a 1e b6 3e 83 74 e7 3d 1c a3 80 3d
       -0.3824141 0.35570174 0.1130152 0.06281111
0002a0 a5 aa 2d bc 6b 4f 09 be 23 39 1b 3e ee 98 c3 3d
       -0.010599767 -0.13409202 0.15158515 0.095506534
0002b0 5f 90 4d bd 5a 86 2d 3e 14 1c 63 be b5 06 0e 3d
       -0.05018651 0.16945782 -0.2217868 0.034674365
0002c0 50 af 8a 3d 48 cc 1c 3d a3 4e f4 be a2 3d ff 3d
       0.067717195 0.038280755 -0.47716245 0.124629274
0002d0 25 c0 dc 3d e0 6a dd be bf a8 dd bd 1e 7e f6 bd
       0.10778836 -0.43245602 -0.108232014 -0.12035774
0002e0 2e f1 9b be 80 4b 21 be b3 da 20 3e ff 95 4b be
       -0.30457443 -0.15751457 0.15708427 -0.19881438
0002f0 38 59 f9 bd d1 f5 2f 3e 32 30 7b be 9c b2 a8 3d
       -0.1217522 0.17183615 -0.24530104 0.08237192
000300 4a 6b 02 3d b8 e3 35 3e 7a a3 e0 3c a6 7c 70 3d
       0.0318406 0.17762649 0.027421702 0.058712624
000310 ad fc 0d bd f4 51 12 bd 9c cd 1c 3e 2c 46 16 3e
       -0.0346648 -0.035722688 0.15312809 0.14675206
000320 74 43 94 3a a7 0f 1b be 80 8f f8 bc 9f 5f 09 3c
       0.0011311607 -0.1514269 -0.030341864 0.008384614
000330 61 18 b6 3c ed c2 a0 be b4 e2 10 3e 96 c8 ac 3e
       0.022228422 -0.31398717 0.1414898 0.33746785
000340 64 9c c4 3b 71 4c b6 bc 7a f5 7d 3e 08 3d 47 be
       0.0060000885 -0.022253247 0.24800673 -0.19456875
000350 d0 66 10 be f4 62 5b 3e 7f 6f 37 be bb 87 35 be
       -0.1410172 0.21424466 -0.17913626 -0.17727558
000360 8a 86 41 be 61 1b 7b be f7 8d 05 3e b2 bf 0e be
       -0.18898979 -0.24522163 0.13042437 -0.13940313
000370 e0 85 49 bd 5b 56 e7 3d d3 15 c4 bc b8 8a 91 bd
       -0.04919994 0.11295768 -0.023936188 -0.071065366
000380 f4 0d 1b bd 69 19 0b be d7 27 a4 3d 6e d6 40 be
       -0.037855104 -0.13583912 0.08015411 -0.18831798
000390 37 a0 c7 3c 75 4e aa bd 60 ca 0d bd 90 d2 93 3d
       0.024368389 -0.08315746 -0.034616828 0.07217896
0003a0 60 ac 06 3e 9b b0 fb bd 29 29 8f be 76 71 e1 bc
       0.13151693 -0.12289544 -0.2796109 -0.027519923
0003b0 2d 49 e5 3d d7 c8 81 bd 96 ec 74 3d c1 ee 62 3d
       0.11195598 -0.06337135 0.05979594 0.055403475
0003c0 56 95 06 3f af d1 64 bc 09 db 84 3e a4 fc f7 3d
       0.5257162 -0.013966008 0.2594836 0.12108734
0003d0 c9 dd 0b 3e 7d e2 76 3d 4b 6f 04 3e 1b 26 2c 3d
       0.13658823 0.06027459 0.1293308 0.042028528
0003e0 b4 cc 9d bd 16 ce cd 3d 25 3d ad bd ab 13 a3 3e
       -0.0770506 0.100490734 -0.08458928 0.31850943
0003f0 25 e0 33 3e 73 56 1b bd 01 53 8f 3c 30 8c 3c bd
       0.17565973 -0.03792424 0.017495634 -0.04603213

encoder.hidden_fc.0.bias f4 [128]
000000 b1 6d 50 be 1f 8c 19 be 73 e1 80 3e 49 d3 e8 bd
       -0.20354344 -0.14994858 0.25172004 -0.113684244
000010 4d 5f e0 3c 25 39 bb 3d 4d a8 42 3d cf 75 2e 3d
       0.027389193 0.09141759 0.047523785 0.04259282
000020 c4 ba d9 3d 94 db 8f 3e 36 b9 b6 be 6f db 6b 3e
       0.10631326 0.28097212 -0.3568818 0.23032926
000030 6d 2f 53 be 3d 5e 89 3e da 3b da 3d 8e 1a 97 3e
       -0.2062356 0.2682971 0.10655947 0.29512447
000040 d5 6e 91 3e 0a ea 1f 3e b6 28 25 3e 9c c6 e8 3e
       0.2840487 0.15616623 0.16128811 0.45464027
000050 8b 29 19 3d b7 1c 3d 3e f9 84 e1 be 43 40 6c be
       0.037393134 0.18467985 -0.44046763 -0.23071389
000060 c2 f0 a0 3c a0 e2 1b be 0a c7 d2 3e da 37 be bc
       0.019646052 -0.1522317 0.4116748 -0.023219991
000070 22 80 8d 3d cd 46 49 3d 12 1e d2 be 01 35 87 3d
       0.06909205 0.049139787 -0.41038567 0.066019066
000080 03 03 a6 be 39 c8 9e 3e 26 00 ec 3d 14 c1 87 3e
       -0.32424173 0.31012133 0.11523466 0.26514494
000090 32 be 8a be 7c 83 6c 3d 2a 8b d1 3e cf 35 1d bd
       -0.27098233 0.05774258 0.40926486 -0.038381394
0000a0 3e c9 fe 3d d7 09 99 bd cc bc e7 bd 95 db c6 3e
       0.12440728 -0.0747258 -0.11315307 0.38839403
0000b0 3d 07 24 be f3 de 1a be 9e f1 42 3d 09 53 5e 3e
       -0.16018386 -0.15124111 0.047593705 0.21711363
0000c0 f7 05 f9 3e c1 b4 9b 3e 63 ac 83 be 02 cb a6 3e
       0.48637363 0.30411342 -0.25717458 0.32576758
0000d0 ee 78 a5 be 0d a0 08 3e cc 9b 8c bd 78 63 85 3e
       -0.32318825 0.13342305 -0.068656534 0.2605245
0000e0 c2 83 c8 3d 95 b6 4f 3e 55 e4 a1 3e 18 2e f8 bd
       0.09790756 0.20284493 0.31619516 -0.12118167
0000f0 03 aa 95 3e c4 9c 6a 3e 14 f3 ad 3d 7c e9 8d 3e
       0.2923127 0.22911364 0.08493629 0.27717197
000100 8a d4 15 bf 31 73 a0 3e b8 79 14 be c7 55 30 3d
       -0.58527434 0.31337884 -0.14499557 0.043050554
000110 00 57 c2 3d ce 96 dc 3e b9 30 a1 3e 05 4f 18 3f
       0.0948925 0.43083805 0.31482485 0.59495574
000120 77 22 f6 bc fb 30 99 3e 1c a7 40 be ce 85 b4 3e
       -0.030045731 0.29920182 -0.18813747 0.35258335
000130 b5 36 cb 3b 1b 75 dc 3e b8 3a 7b 3e 0c ad 66 3e
       0.00620159 0.43058094 0.24534118 0.2252695
000140 24 f4 c5 3d 08 6c 3f 3e d9 ba ac be 69 d6 87 be
       0.09665707 0.18693554 -0.33736303 -0.2653077
000150 3c f4 b7 be c5 67 ca 3c ff ef 00 3e bd 1f 70 be
       -0.35928524 0.024707684 0.12591551 -0.23449607
000160 ef f0 97 3e 3f 17 70 be 53 5f d4 3d 8f f8 ba 3e
       0.29676005 -0.23446368 0.10369744 0.3651776
000170 c7 bb 99 3e ed 71 a2 3d 14 56 81 be 45 3a 53 3e
       0.30026075 0.07931886 -0.25260985 0.20627697
000180 c4 f0 17 3e 74 d5 56 be fd ca 0e 3e 13 da 2d be
       0.14837939 -0.20979863 0.13944621 -0.1697772
000190 5c a5 54 3e d7 56 9b be e2 fa 9f 3b 1b a2 99 3e
       0.20766205 -0.3033969 0.0048822025 0.3000649
0001a0 8f f3 e1 bd bd 08 ba bd b2 33 3c 3e 45 a3 fa bd
       -0.11032783 -0.09083698 0.18379095 -0.122381724
0001b0 6c a7 f7 bd bf 0f ef be 56 13 83 3e fb f9 86 3e
       -0.1209248 -0.466917 0.2560069 0.26362595
0001c0 81 48 81 3e fc df 76 3e aa eb 3e 3e 5e 7a 1f bf
       0.2525063 0.24108881 0.18644586 -0.6229609
0001d0 9d ff 00 3e 8a 5e 71 be 55 5b ab be 81 2d 5d 3b
       0.12597509 -0.2357122 -0.33468118 0.0033749046
0001e0 db 68 7e 3e 7d a7 93 3d 54 18 40 bd e6 23 e3 3d
       0.24844687 0.0720968 -0.0468982 0.110908315
0001f0 f1 93 06 3e 27 df 96 3d b5 d1 5a be 09 d4 15 be
       0.13142373 0.07366782 -0.2136906 -0.14631666

encoder.mean_fc.weight f4 [5, 128]
000000 3d ec 2c 3c 3a 9c ba 3c 09 55 b3 3c 85 ad 27 3e
       0.0105543705 0.022779573 0.021891134 0.16374786
000010 c9 c9 ca bb bc 85 3b 3e 01 d0 5a 3e ae 73 56 3d
       -0.0061886054 0.18312734 0.2136841 0.052356414
000020 ce b1 62 3e d7 d9 05 be 13 b0 82 bf 5b 00 6e 3d
       0.2213814 -0.1307138 -1.0209984 0.058105808
000030 0f 08 c9 3c ad a7 7b 3d d3 80 18 bd 37 d5 0d 3d
       0.024539975 0.061439205 -0.03723223 0.034627166
000040 ad 8f 46 bc 1f 6a d1 3d 6d 01 ab 3c 5d fd a1 bd
       -0.012119216 0.10225319 0.020874703 -0.07909653
000050 3d ba 68 3d 2d e5 5a bd 75 17 c8 3e fa d2 d8 bd
       0.056818236 -0.053441215 0.39080396 -0.105871156
000060 72 0a 6c ba df d6 92 bc 7a ee 66 bc eb e0 ff bc
       -0.0009004242 -0.017924724 -0.014094943 -0.031235179
000070 a9 bc 4e 3d 8d 61 2c 3d 90 55 8a bf 42 8e d4 3d
       0.05047289 0.04208522 -1.0807362 0.10378696
000080 8d ec ee be e1 f5 cf 3c 7c bb fb bd 7e 15 8b 3d
       -0.4666485 0.025385799 -0.12291619 0.06791209
000090 07 14 e2 bc 81 51 ef bc 75 84 98 3e 83 cd 4c bd
       -0.02759744 -0.029213669 0.29788557 -0.05000068
0000a0 28 7a b3 ba db 5c 60 3e 93 6e 9b 3d cb 49 a1 bb
       -0.0013693022 0.21910422 0.0758945 -0.004922127
0000b0 60 60 21 3e 02 b7 ca 3d 0b 50 c5 bb 6f b2 60 be
       0.1575942 0.09898187 -0.0060215048 -0.21943067
0000c0 dd 74 90 bd 70 c4 45 bd 42 59 b8 bd 2a 17 74 3d
       -0.0705354 -0.04828304 -0.090013996 0.059592403
0000d0 89 ee d4 3d ae 51 1e be 21 55 8a 3e 42 66 09 be
       0.103970595 -0.15460846 0.27018073 -0.13417915
0000e0 67 76 87 bd f0 10 4b bc 18 6a 95 bc 7b 41 71 bd
       -0.0661438 -0.012394175 -0.018239066 -0.058900338
0000f0 a9 d5 83 be 64 29 8b be 47 66 0a 3d 25 18 40 bd
       -0.25748947 -0.27180016 0.033788946 -0.046898026
000100 d1 a0 2e 3e 53 ea 99 bd d5 bd 08 bd 32 1f 3d bd
       0.17053534 -0.07515397 -0.033384163 -0.04617233
000110 3e b0 d3 3d 4b 8f 4f 3f 2e 6d 5c bc 80 1d 59 bd
       0.1033635 0.8107802 -0.013453765 -0.05300665
000120 b1 14 1a bc 9d 0f d8 3d 43 6c bc be a3 3d 62 3c
       -0.009404347 0.10549853 -0.36801347 0.013808641
000130 cb 1a b8 bc 5c 09 bd bc bf 90 62 3d ff 11 7b bd
       -0.022473713 -0.023075752 0.055313822 -0.06129646
000140 a3 fe 8f 3d b6 8f b8 bb 3a da 10 bf 14 81 ba 3d
       0.0703099 -0.005632366 -0.5658299 0.09106651
000150 12 4c b3 3c 0f a5 cc 3a 72 6a 69 3e 67 97 eb bd
       0.02188686 0.0015613156 0.22794512 -0.11503487
000160 32 3c 52 bd 70 50 0b 3d d1 95 14 be a7 36 5b 3e
       -0.051326938 0.034012258 -0.14510275 0.21407567
000170 6d c8 5d bc 69 36 a5 bd 9c 53 61 bc b6 ad da bd
       -0.013536555 -0.080670185 -0.013752844 -0.10677664
000180 67 1d 3e be a1 a8 7e 3c ad e2 db 3d b2 86 5f be
       -0.18565904 0.015543134 0.10736594 -0.21828726
000190 68 74 10 be 84 44 9c 3d fe 0e ed 3d 65 be f8 3c
       -0.14106905 0.07630256 0.11575125 0.030364225
0001a0 41 87 2a be 5d 89 fe bd b5 e6 1c 3e 59 82 0e 3c
       -0.16653158 -0.12428544 0.15322383 0.0086980695
0001b0 de 7d 30 3e 69 83 a4 3e f1 9d 60 3c 74 7c e8 bd
       0.17235515 0.32131508 0.013709531 -0.113518625
0001c0 67 03 73 bd f2 1d 84 bd 7c df d6 3c fc 0b af bf
       -0.059329417 -0.06451024 0.026229613 -1.3675532
0001d0 b8 e1 24 3d 1c 51 20 3e 1d f7 c0 bd dd e7 56 be
       0.040254325 0.15655941 -0.09422133 -0.20986886
0001e0 73 5e 93 3e cc f5 62 3e f3 6c c5 bc fb ac 60 bd
       0.28782997 0.22164077 -0.024099803 -0.054852467
0001f0 24 27 8c 3c b3 b7 6a bd 27 cc 94 3d e8 8d 87 3d
       0.017108507 -0.057304095 0.072655015 0.06618863
000200 c6 01 1d bd 53 43 72 bc 9a 14 9e 3d a9 14 0c be
       -0.03833177 -0.014786559 0.07718773 -0.13679756
000210 f3 56 bc bc c4 33 81 3d 84 e3 01 3e c9 31 1b be
       -0.02299068 0.06308702 0.12684447 -0.1515571
000220 13 f6 0a bd bb df cc bd 2d c2 33 3e 9f 92 46 3d
       -0.03392608 -0.10003611 0.17554541 0.048479673
000230 f9 ce bc 3d 83 72 16 3f 46 7b e6 bc a2 9a 54 3d
       0.092191644 0.5876848 -0.028134953 0.05190528
000240 27 df 75 3c eb 4f ea 3b fe 47 4b bd f5 7e f2 bd
       0.015006817 0.0071506402 -0.049629204 -0.118406214
000250 06 29 91 3d f1 52 7d 3e 91 65 72 3b 92 66 36 3d
       0.07087903 0.24738671 0.0036986808 0.044531412
000260 2c 70 26 3c 34 63 fd 3c d4 70 2b bd ca 8b e6 bd
       0.01015858 0.030931093 -0.04185565 -0.112571314
000270 e5 da 40 3e 17 46 af be d7 47 d2 3c a7 52 e6 3d
       0.18833502 -0.34233162 0.025669022 0.112462334
000280 89 b7 c5 3e b7 09 28 3f 9b c4 b2 be 9c a5 0e 3f
       0.3861659 0.65639824 -0.34915623 0.5572145
000290 ef 8d e8 bd 0d 90 b9 be bf c1 39 3f 31 03 25 3c
       -0.11355197 -0.36242715 0.7256126 0.010071562
0002a0 e9 26 9c 3d f0 d4 87 bd 2b 6b da 3c 66 7b 41 3d
       0.07624609 -0.066324115 0.02666243 0.047236823
0002b0 68 4e 2d 3d 40 c5 be bd 54 7e b6 be 35 10 e4 bd
       0.042311102 -0.09314966 -0.35643256 -0.11135904
0002c0 e9 01 dc bc 50 f5 37 bd 55 e6 2b 3d 9c 1e b5 bc
       -0.02685638 -0.044911683 0.04196771 -0.022109322
0002d0 6f a5 bd bd 47 e6 14 bd 7d 1f 14 3e 33 e7 53 be
       -0.092600696 -0.036352422 0.14465137 -0.20693664
0002e0 b1 dc 7e be 6c 37 26 be fc e7 ed 3d 20 66 44 be
       -0.24888875 -0.1623208 0.11616513 -0.19179583
0002f0 6b 02 99 3c 5c c6 23 3e 5f e9 88 bd 59 6e dd 3d
       0.01867791 0.15993637 -0.06685137 0.10812063
000300 75 7b 0e 3c 9c 92 21 3f 95 52 e1 3b e7 3f 92 3e
       0.008696427 0.63114333 0.0068762996 0.2856438
000310 a2 b2 e1 3d 57 84 29 be cd c9 5e bd 70 cf fc bc
       0.110204 -0.1655439 -0.05439167 -0.030860633
000320 5f b4 e0 bc a6 bf e9 be 0f 94 2a bd dc be e1 bd
       -0.027429758 -0.4565403 -0.041645106 -0.11022732
000330 b1 d3 92 bd b2 9a e6 3b 9d 7b d9 bd 1a 33 bc be
       -0.07169283 0.007037484 -0.106192805 -0.36757737
000340 ae a3 26 3e ff fc bb 3d fb 54 3f be 2d 9c 9d bd
       0.16273376 0.091791146 -0.18684761 -0.07695804
000350 9b 3c e3 bd a8 87 04 3e f3 64 24 3c 76 15 a2 3d
       -0.11095544 0.12942374 0.010033834 0.079142496
000360 7c 38 e9 bc 97 67 b8 3c 14 1d 9e 3e 8c 60 7c bf
       -0.028469317 0.022510333 0.3088156 -0.9858482
000370 b4 44 1f bc d8 f2 6f bc f3 2a 51 be 4b 0e 64 3e
       -0.00972097 -0.014645301 -0.2042654 0.22271077
000380 7c c2 86 bc 4f ac 12 3e 3b 81 2e be d8 4e 69 bd
       -0.01645016 0.14323543 -0.17041485 -0.056959957
000390 61 53 9d bd fc b9 36 3c 4e c6 a0 be d1 9d 8f 3d
       -0.07681919 0.011152741 -0.31401294 0.07012523
0003a0 45 1f 88 be 90 8d 14 3e 5c ab d5 3c 74 0c 3c 3d
       -0.26586357 0.14507127 0.026082687 0.045910314
0003b0 f6 81 39 3e 54 ba 5d bb 7b 4e f2 bd 7d 1b ac 3d
       0.18115982 -0.0033832984 -0.11831375 0.084036805
0003c0 0f ab 42 bc 5a 16 25 3e fd f2 15 bb c5 38 13 3d
       -0.011881604 0.16121808 -0.0022880428 0.03594281
0003d0 6a 2b d4 3c 2e 87 1e bc 57 9b 31 be 86 6b 31 bd
       0.025899608 -0.009675784 -0.17344414 -0.043315433
0003e0 de 70 12 3d 74 5d 27 bd 7a 1c 82 bd e3 a8 eb bc
       0.03575217 -0.04086061 -0.06353088 -0.028767055
0003f0 77 f4 da 3d 92 3b 47 bd 42 60 7d 3d 02 64 21 3e
       0.10691159 -0.048640795 0.061859377 0.15760806

encoder.mean_fc.bias f4 [5]
000000 46 15 a2 bd 03 77 bc bd 13 6d 3d 3d db 79 08 3d
       -0.07914214 -0.09202387 0.0462466 0.033319335
000010 7d bf d5 3d
       0.10436914

encoder.var_fc.weight f4 [5, 128]
000000 96 5e b0 3e 81 06 db 3e b7 df ab be d9 bc 09 be
       0.34447163 0.427784 -0.33569118 -0.13450946
000010 c0 a6 bd 3d c8 af 62 be b5 55 69 be 65 c3 35 be
       0.09260321 -0.22137368 -0.22786601 -0.17750318
000020 a0 c7 c5 be 28 1a 16 bf d2 f6 4d 3f de 90 a6 be
       -0.38628864 -0.5863366 0.8045474 -0.325324
000030 c3 36 25 3e 27 71 09 be f3 e1 05 be 71 39 65 3e
       0.16134171 -0.1342207 -0.13074474 0.22385193
000040 c4 51 9d be 22 3d 07 bd ef 4c a9 3d 5e 2d f2 be
       -0.30726445 -0.033017285 0.08266627 -0.47300237
000050 21 a5 02 be f9 83 8e be a2 c6 7d 3f 82 87 a9 3e
       -0.12758304 -0.27835062 0.99131215 0.33111197
000060 12 ac d6 ba fd 69 31 3e d1 11 8d be 55 77 b0 3d
       -0.0016378185 0.17325588 -0.27552655 0.08616511
000070 4b 83 2b 3f 95 46 5f bd d6 c7 29 3f 65 0a 82 be
       0.6699721 -0.05451067 0.6632055 -0.25398555
000080 14 e1 81 3f 57 16 f2 be 76 b8 f6 3c 01 46 e2 3d
       1.0146813 -0.4728267 0.030117255 0.110485084
000090 6f aa 97 3e 5b c4 bc 3d a1 d8 2c bf ff 11 5b 3c
       0.29622218 0.09217139 -0.6751805 0.01337099
0000a0 ce 4c d5 be 1b 99 fb bd bb 82 8f 3e b3 53 10 bf
       -0.4166016 -0.12285062 0.28029427 -0.56377715
0000b0 04 1e fe 3d 8f 70 b2 3b b0 28 e5 3e ca 92 8d be
       0.12408069 0.005445547 0.44757605 -0.27651054
0000c0 21 33 52 bf 5b 8a b4 be 6d 9e f3 3e a2 1a 03 bf
       -0.82109267 -0.35261807 0.47581807 -0.51212513
0000d0 25 82 bb 3e df b1 29 be fd 78 84 bd 6b fd b7 be
       0.3662273 -0.16571759 -0.06468389 -0.3593553
0000e0 bf 36 31 be f3 14 c8 be 22 fc b7 be 77 b6 1f 3e
       -0.1730604 -0.39078483 -0.3593455 0.15596949
0000f0 ea 13 df be fc 34 82 be 08 bb af 3d c5 55 ae be
       -0.4356988 -0.2543105 0.08580595 -0.34049812
000100 d0 bc 21 3f 60 ee 27 bf 20 a5 b9 3e 1a 34 59 3c
       0.6317873 -0.65598106 0.36258793 0.013257051
000110 6f 04 a7 be fe 69 bf be 13 a0 33 bf 12 99 48 bf
       -0.3262057 -0.37385553 -0.7016613 -0.78358567
000120 33 01 ed 3c 7a b6 a7 be 9d 30 10 3f ba 05 d0 be
       0.028931236 -0.32756406 0.5632418 -0.4062937
000130 fe 82 3c 3e ef 1c 27 be bc a0 fe be 06 3f c3 be
       0.18409345 -0.16319631 -0.49732006 -0.3813402
000140 10 10 9c be 5a a1 39 be 6b 3a bc 3e b5 b8 99 3e
       -0.30481005 -0.18127957 0.3676332 0.30023733
000150 2a 3d b3 3e ba 34 9c 3e 08 16 a5 be d5 59 f5 3e
       0.35007602 0.30508977 -0.3224337 0.479201
000160 dc 98 d6 be 1c 2c 03 3f 82 fd 88 be e0 53 98 be
       -0.41913497 0.5123918 -0.2675591 -0.29751492
000170 b2 f4 04 3e 6a 1c 60 bc 7a 1f bc 3e 18 0d 93 be
       0.12983969 -0.013678649 0.36742765 -0.28720927
000180 f4 a9 a5 be 58 7e 04 3f c0 71 ca be 7e fe ad 3e
       -0.32356226 0.51755285 -0.3953991 0.33983225
000190 15 26 0b be 89 52 ae 3e 4a f0 be 3c 6e da a7 be
       -0.13588746 0.34047344 0.023307938 -0.32783836
0001a0 39 9e 23 3f 6e 55 d8 3e a0 85 86 be 6e a4 9c 3d
       0.63913304 0.42252678 -0.26273823 0.0764855
0001b0 2c e6 07 bd 52 87 61 3f bf 33 93 be 16 9b 87 be
       -0.033178493 0.8809711 -0.28750417 -0.2648551
0001c0 6b 5f a1 be d2 52 9b be 6b 6d 88 be 27 e0 b9 3f
       -0.3151811 -0.30336624 -0.2664598 1.4521531
0001d0 40 47 d0 be 49 cc d8 3e 18 59 e0 3e b7 c4 7b 3c
       -0.4067936 0.42343357 0.43817973 0.015366725
0001e0 ee cf 93 bb 6b a3 49 be 31 d4 e2 3e a1 a5 d5 be
       -0.004510871 -0.19691245 0.44302514 -0.41727927
0001f0 90 5c 33 be 3d 3a f3 bc 66 77 c7 3e 2b df bc 3e
       -0.17515779 -0.029690856 0.3895828 0.36889014
000200 a2 5a e5 3d bb ac cd 3d 8c 32 57 be 82 a6 f0 bd
       0.111989275 0.10042711 -0.21015376 -0.11750509
000210 96 3c 20 3e 8a 8f 81 be 3f 32 6c be 5e d5 06 be
       0.15648112 -0.25304824 -0.23066042 -0.1316733
000220 ae da 6c be 73 1e 8b 3d c1 7a 8c 3e bb 4e 48 be
       -0.23130295 0.06792917 0.27437404 -0.19561283
000230 22 df bd 3d 6b 57 cb 3e bc c9 fa bc e5 6c c0 3d
       0.09271075 0.39715132 -0.030613773 0.0939577
000240 05 04 77 bd c8 a7 68 be 6b 72 72 3e 79 d0 7a be
       -0.060306568 -0.22720253 0.2367646 -0.24493589
000250 b4 20 4c be 9e a0 ef bd d5 a7 c6 3e ac b3 97 3e
       -0.1993435 -0.11700557 0.3879992 0.29629266
000260 76 41 b0 bd 88 84 c2 3d 15 85 0b be 83 96 35 3f
       -0.08606236 0.094979346 -0.13624986 0.7093279
000270 d7 e1 df 3e 8d 55 2b be d6 32 23 3e 76 00 af be
       0.4372699 -0.16731854 0.15937361 -0.3418004
000280 4f 5e 2a 3f 1d a4 fc bd 2f 00 0e 3f 76 44 77 3e
       0.66550153 -0.123359896 0.5546903 0.2414721
000290 76 03 4c 3e 1a 4a 64 3e 47 e5 89 3e a1 6a ca bc
       0.19923195 0.22293893 0.26932737 -0.024709048
0002a0 dd 3c 8d be 9d 65 76 be 01 d1 9e 3b 79 76 0a be
       -0.27585497 -0.240622 0.0048466926 -0.13521756
0002b0 23 35 ca bd a6 91 69 be 9a 6f 85 3e 29 b4 ef 3c
       -0.09873416 -0.22809467 0.26061708 0.029260712
0002c0 7e fb df be c0 77 4c 3d 3b ea ef bd 15 8e 95 be
       -0.4374656 0.04991889 -0.11714598 -0.29209962
0002d0 b3 19 54 3e 46 7c 0d 3d 32 07 6a be e5 63 7f 3d
       0.20712928 0.034542345 -0.22854307 0.062351126
0002e0 10 ba 73 3d cc 64 38 be 57 d7 6a bd 67 de da 3d
       0.059503615 -0.18007201 -0.05733427 0.10686951
0002f0 57 83 dd 3d df dd 91 3e f7 44 2a 3e 2e ff 0d be
       0.10816067 0.28489587 0.1662787 -0.13866875
000300 ce e1 8e 3e 34 79 2f bd 46 fd 3a 3e fe 2e e0 3e
       0.2790665 -0.042840198 0.18260679 0.43785852
000310 f6 d0 bd be a1 bb cc 3e 2a a7 86 be 49 12 bc be
       -0.37073487 0.399869 -0.2629941 -0.367327
000320 76 2b 4f bd 7c 9a 8b 3e 3d 1b e5 3e f3 85 2a be
       -0.050578557 0.272663 0.44747344 -0.1665266
000330 c1 0c 31 3e fb 3d 3c be fe 0e a9 be e1 45 88 bd
       0.17290021 -0.18383019 -0.3301925 -0.06653953
000340 0a 8a 75 be 0c 42 42 bd ae 9e 4b 3e 5f 5c 11 3d
       -0.23978439 -0.04742627 0.1988475 0.035488483
000350 99 b1 2a 3e 7e 0a 71 3f d3 c6 c0 be a6 75 7b 3e
       0.1666931 0.94156635 -0.3765169 0.24556598
000360 05 5d a6 bd 24 ee 5f 3f 74 6a c8 bd e7 59 75 3e
       -0.08123211 0.8747275 -0.09785929 0.23960076
000370 02 43 5b bd af d6 94 3d fa 54 7f 3e 98 33 79 bd
       -0.0535307 0.0726751 0.2493476 -0.06084022
000380 20 33 af bc 3b 29 73 3e f0 d4 80 be 0f 21 a3 3e
       -0.021386683 0.23746197 -0.25162458 0.3186116
000390 53 d4 79 3b 4b d2 56 3e 01 2e 98 bd 61 39 8a be
       0.003812094 0.20978658 -0.074306495 -0.26996902
0003a0 65 38 aa 3e f3 b4 3a 3e 4e 6d 3b be 18 af 05 3d
       0.3324615 0.18233089 -0.18303415 0.032637686
0003b0 60 91 8d be d8 e4 0e 3f a5 a7 2a be 79 d7 c1 bd
       -0.27649975 0.5581794 -0.16665514 -0.09464926
0003c0 95 69 3d bd e0 1c 5e be 67 47 cc bd 42 6a c0 3e
       -0.04624327 -0.21690702 -0.099745564 0.37581068
0003d0 01 b4 94 be 9c 2f c8 3d 48 a4 a8 3e ae d7 94 3e
       -0.29043582 0.09774706 0.32937837 0.290708
0003e0 83 e7 93 3e 5f 9c 8d be 22 eb a3 3e 12 9b 10 be
       0.28887567 -0.27658364 0.3201533 -0.14121655
0003f0 18 19 64 be 7c 0e 00 3d e5 1e 52 3e cf 79 46 3e
       -0.22275198 0.031263813 0.20519598 0.19382404

encoder.var_fc.bias f4 [5]
000000 6c 55 c2 be b7 08 2f be fe 52 c0 bc 52 1b 04 3e
       -0.37955797 -0.17093168 -0.023477074 0.12901047
000010 4b ff 2c bc
       -0.010558913

decoder.hidden_fc.0.weight f4 [128, 5]
000000 06 f7 dc 3e a5 be 66 be 3f 25 a1 bb f7 cf a5 3b
       0.43157214 -0.22533663 -0.00491777 0.0050601917
000010 91 b5 c9 bb 08 1c 06 bd b1 c7 4d bd 7f 6f c4 3c
       -0.0061556776 -0.032741576 -0.05023927 0.023978947
000020 b6 84 8e 3d b8 88 c7 3c d9 3a 80 3e 6e b0 cc 3d
       0.06958906 0.024357185 0.25044897 0.09994589
000030 e2 f0 a3 bb 7f 29 a3 3d bc 4e e0 bc e9 c0 18 be
       -0.0050030807 0.07966899 -0.027381293 -0.1491734
000040 f0 4e 05 3d 0f 05 c4 bc cf a4 d8 3c 4f 7f 20 bc
       0.032545984 -0.023928193 0.026445774 -0.009795978
000050 09 c2 5f bd e3 17 3e be 1c 20 30 3e 88 3c 8c bd
       -0.054628406 -0.185638 0.17199749 -0.06847483
000060 53 7d d2 3d 4e eb ed bd 93 e0 fd bd 99 a0 08 3d
       0.1027781 -0.116171464 -0.1239635 0.033356283
000070 df 8a 8a bd de 91 37 3d 5e 40 46 bf 08 82 bf bd
       -0.06764769 0.044816844 -0.77441967 -0.09350973
000080 a2 f8 68 3d b1 2f 9d bb 68 62 6a 3c 2c f2 0c 3f
       0.05687774 -0.004796945 0.014305688 0.55057025
000090 3a 59 5b 3c fd e9 d4 bc c5 fb 2c bb f4 15 37 bc
       0.0133879725 -0.02599048 -0.0026395184 -0.011174668
0000a0 79 53 1e 3e 99 d5 33 3d e6 29 08 3c 68 10 0a bd
       0.1546153 0.043904874 0.008310771 -0.033707052
0000b0 32 16 ff 3c 95 f5 43 be 99 17 68 be 68 53 9d bd
       0.031138513 -0.19136651 -0.22665252 -0.07681924
0000c0 bc 32 c1 bd d6 b9 19 3e d6 7f 3d 3d 82 58 8d 3c
       -0.09433505 0.15012297 0.046264492 0.017254118
0000d0 47 21 0c 3d e6 ff 30 bd ef 1e 91 3b 4e 4e 40 3e
       0.034211423 -0.043212794 0.0044287364 0.18779871
0000e0 e4 8f 7a bd 92 af 82 bd d4 2a c4 bc ca 06 eb bc
       -0.06117238 -0.06381144 -0.023946203 -0.02868976
0000f0 cc 08 81 be 5f 50 8e 3c 9c 01 6e 3e f3 ae 96 3b
       -0.25202024 0.017372308 0.23242801 0.0045984923
000100 07 be 54 3c a8 33 83 bc ba 41 2a bd d4 e1 a2 bd
       0.012984759 -0.016015843 -0.041566588 -0.079532295
000110 21 63 c5 bd d7 ae b6 bd 8b 5a 02 3e 20 c9 46 be
       -0.09638048 -0.08920067 0.12729852 -0.1941266
000120 1e cc 16 3e e0 7b ed bd f9 e2 80 bd e6 07 92 be
       0.14726302 -0.11595893 -0.062932916 -0.2852165
000130 85 68 38 be 1f 35 1b be b8 7b 99 3d 51 1c 27 3d
       -0.18008621 -0.15156983 0.074943006 0.04079849
000140 75 3e 62 3e ed d0 a6 bd 31 74 78 3b 1c 4c c3 ba
       0.22094138 -0.08145318 0.0037911052 -0.0014900002
000150 3e 24 9e bb 77 7f b6 bd f2 db 1c 3e 0e d3 f8 bc
       -0.0048260977 -0.08911031 0.15318277 -0.030374076
000160 cd 34 8f 3d 27 b9 b7 bd 03 9c e1 3d 70 ef 01 3c
       0.06992493 -0.08970862 0.11016085 0.0079306215
000170 f0 9a aa 3e f6 af d3 b9 8e 23 3b bd af 83 14 3e
       0.33321333 -0.00040376157 -0.045688204 0.14503358
000180 27 60 b5 bd 02 fc 67 3e 1b 8e 19 bb 52 0f a2 3b
       -0.0885623 0.22654727 -0.0023430649 0.004945674
000190 01 3e 1a be fe 5e 35 be 6e 4d 79 bd 2c 2f 7d bd
       -0.15062715 -0.17712018 -0.06086486 -0.061812565
0001a0 53 9b d6 3d 63 5f 2f 3d 1a 97 d2 3d 4c 56 ab bc
       0.104788445 0.042815577 0.102827266 -0.020915173
0001b0 d0 1e d7 bb 54 5a 21 3d aa 13 1b be c1 74 53 3d
       -0.0065649524 0.039392784 -0.1514422 0.051625017
0001c0 56 13 74 3e 66 62 38 3c 6e a8 ab 3c 78 26 bb 3e
       0.23835501 0.011253929 0.020954337 0.36552787
0001d0 57 3b 79 be e9 3f 2c 3d 31 03 b5 bb 6a 7a 62 3b
       -0.24339043 0.042053137 -0.005524062 0.0034557828
0001e0 8d 6e b9 bd 96 49 db 3d 3a cb 4b bd ea 0a 87 3d
       -0.09054289 0.10707395 -0.04975436 0.065938786
0001f0 3f d4 0a 3c 3a 65 80 3e 34 fd a6 3e b0 ef 0a 3d
       0.008473455 0.2507723 0.32615054 0.03391999
000200 22 3a 85 bc 9a 59 70 3c f4 4e 96 be ba c8 90 bc
       -0.016263071 0.0146698 -0.2935711 -0.017673839
000210 47 83 5e bd 27 c4 b8 bb 55 44 cc bb a7 e3 13 3e
       -0.054324415 -0.0056386176 -0.0062337318 0.14442311
000220 fe 09 ee bd 71 d2 05 be 14 8e 04 3d d7 88 45 bc
       -0.116229996 -0.13068558 0.03236206 -0.012056551
000230 95 e8 8d be 52 42 0e be 47 3a 29 3e 10 1b 0d 3d
       -0.27716509 -0.13892487 0.16526137 0.034449637
000240 4f a5 1a bd 1e bb 11 3d c5 06 66 bc 26 30 7f be
       -0.037755307 0.03557884 -0.0140397 -0.24920711
000250 b4 41 6e 3c 49 93 79 3c 44 8f 3c 3e 73 3e 50 3e
       0.014542032 0.015232869 0.18414026 0.20336322
000260 3c 2e 4f bd bb f1 bb 3d 16 5a 75 bd 94 dd 44 3d
       -0.050581202 0.09176966 -0.059900366 0.048062876
000270 89 4a 03 3e 49 9c 0a be 5c 74 41 3d 36 6f a6 bd
       0.12821402 -0.1353618 0.04723011 -0.081266806
000280 8d ff b9 bd 40 38 17 3e ff e5 1f 3d 27 88 0d 3c
       -0.090819456 0.14767551 0.0390377 0.008638418
000290 24 a4 43 3d 79 22 65 be bd bd 6e 3d 76 df 23 3e
       0.04776396 -0.22376432 0.058286417 0.16003212
0002a0 e6 d1 2c bd 03 b4 0e 3d 8c 74 b7 3e df 85 2c 3e
       -0.042192362 0.03483964 0.35831106 0.16847943
0002b0 90 3f d9 ba 8e 40 c4 3b 6e 25 86 bb 84 4d e8 be
       -0.0016574729 0.005989141 -0.0040938174 -0.4537164
0002c0 03 6d 9f 3e 4c a0 d2 3c e2 88 f1 3b d6 0c da 3b
       0.31137857 0.025711201 0.007371054 0.006654362
0002d0 55 a8 04 bf e1 3f 04 3e 5c b0 48 3c c7 53 4c bc
       -0.51819354 0.12914993 0.012249079 -0.012471146
0002e0 36 de 4d 3b b9 7c 5b bb 3c 5f cd 3d 0e 9b c1 bc
       0.0031412966 -0.0033491089 0.1002793 -0.023633506
0002f0 fb 15 d2 bd de ed 9a 3d 4f 25 48 be 65 1a ab 3c
       -0.10258099 0.07564901 -0.19545482 0.02088661
000300 9d 9f 5a 3e 34 1f c7 3c ce 34 d6 3a ed 73 91 bd
       0.2134995 0.024306871 0.0016342641 -0.07102189
000310 48 78 13 be 73 b4 7c 3e 3e fd 97 3c 3e cd 3d 3d
       -0.14401352 0.24678211 0.018553372 0.046338312
000320 1f 8c 88 3d 9c f1 0e be d3 38 f0 3d 2b db 0f 3d
       0.06667351 -0.13959354 0.11729588 0.035121124
000330 93 e3 18 3d 62 6a aa 3d e2 b7 bd 3e c4 84 4f 3d
       0.037326407 0.08321072 0.37054354 0.050663725
000340 24 75 91 3c 53 f4 27 3b 6a c5 15 bf 17 cd cb 3d
       0.017756052 0.0025627806 -0.58504355 0.09951227
000350 1b 5e 07 3d 17 fb 53 3c 71 53 85 bb 71 9d 9c be
       0.03304873 0.012938282 -0.004068785 -0.30588868
000360 cd c3 54 bd 73 f5 7b 3b 3b 2f a6 3b c0 61 b0 3a
       -0.051944543 0.003844586 0.0050715483 0.0013456866
000370 00 9b 59 bf 73 62 6a 3b e1 9a 82 3c 93 39 d5 ba
       -0.85002136 0.0035764247 0.015942993 -0.0016267769
000380 2f f1 51 3a f5 6d 6c 3d b2 24 91 3d b2 c7 46 bd
       0.00080086564 0.05772205 0.07087077 -0.048530288
000390 61 58 19 3d 9e f8 d7 bb 8c 18 cb 3c c3 53 88 3d
       0.0374378 -0.006590917 0.024791978 0.06656601
0003a0 be 9e 2b 3e a9 ea bd bd 94 61 de 3b 1d 50 1e 3d
       0.16759774 -0.092732735 0.0067865346 0.03865062
0003b0 ef 04 1f bd 63 c5 c0 bc a0 ee 0e 3d fc 13 25 bd
       -0.038823064 -0.023531621 0.03489554 -0.04030226
0003c0 45 48 6a 3f 4d 30 46 3c 72 83 64 bd c9 49 94 3b
       0.91516525 0.012096477 -0.05578942 0.0045253974
0003d0 d5 2a 0e bc 0e 75 8c be 88 0e f3 bc d9 31 d6 bc
       -0.008677204 -0.27433056 -0.029670015 -0.026146816
0003e0 03 20 35 3c f5 9c 5c 3c 03 60 92 3e 0b 97 88 3e
       0.0110549955 0.013465156 0.28588876 0.26677737
0003f0 7a 78 da bb 9f 65 79 3c be 1a 9b 3c d2 b4 cb bc
       -0.006667194 0.015221982 0.01893365 -0.024866495

decoder.hidden_fc.0.bias f4 [128]
000000 25 2d 06 be d8 65 bd 3e 9b 77 f7 be 07 4a 37 be
       -0.13103159 0.36991763 -0.4833344 -0.17899333
000010 5c 18 07 bf 04 11 52 3e 7f 5e d7 bd 56 5c 36 be
       -0.52771544 0.20514303 -0.105160706 -0.17808661
000020 6f 8b 92 be 60 64 a9 be 45 98 a4 3d 12 c1 bf be
       -0.28622004 -0.33084393 0.080368556 -0.37451988
000030 1e e5 f5 bd 67 52 ba be 96 54 da 3e fa e3 0b 3f
       -0.12006591 -0.36390993 0.4264266 0.5464474
000040 7e 19 76 bd 44 69 9a 3e 81 3f 09 bf 8a e5 84 be
       -0.060082905 0.30158436 -0.53612524 -0.25956374
000050 95 47 8c be f8 91 45 be cb d3 03 bf f5 5c a1 be
       -0.27398363 -0.19293964 -0.51495045 -0.31516233
000060 fb e2 f2 3e 27 8d 73 be eb ff d4 be 9f 2d f2 bd
       0.47438797 -0.23784314 -0.416015 -0.11825108
000070 53 93 01 3f 0a 2d a5 be 37 48 ac be 9b 29 b3 3e
       0.50615424 -0.32260925 -0.33648846 0.3499268
000080 e5 06 de be e6 eb f2 3e 07 4f dc bd 91 4b 8f 3e
       -0.43364635 0.474456 -0.10757261 0.2798734
000090 64 0b 96 3d 27 20 58 be b3 23 3f be 5b 39 f1 be
       0.07326391 -0.21106015 -0.18665962 -0.4711407
0000a0 ab 83 b0 be 71 29 01 bf 13 9a ed bd ff 08 f3 3d
       -0.34475455 -0.5045386 -0.11601653 0.1186695
0000b0 a0 aa 6a be 32 f0 94 3c 4c ed 54 3e 5a 84 80 3e
       -0.22916651 0.01818094 0.20793647 0.25100976
0000c0 93 6d 21 be 0f 1a cb be 9f d0 57 be ea 16 de be
       -0.15764455 -0.3966832 -0.21075676 -0.43376857
0000d0 8d ac 1b 3e 63 fa 09 3e b4 0e 16 3f 3e c3 9d 3e
       0.15202542 0.13474421 0.58616185 0.3081302
0000e0 24 22 19 3f ee 69 a0 3d a1 ef 0a bf d5 d3 28 3e
       0.5981772 0.078327045 -0.54271895 0.16487058
0000f0 0d 63 7d be 85 89 a6 3e 95 0c f1 3c b5 04 eb 3e
       -0.24744816 0.32526794 0.029424945 0.4590203
000100 11 cb 20 3c c4 b7 00 be 0d 08 9c 3e ea 60 d8 3a
       0.00981404 -0.12570101 0.30474892 0.0016508375
000110 00 03 b5 be 5c 32 a9 3e 1a 43 b9 bd 91 26 08 bf
       -0.3535385 0.33046234 -0.09046002 -0.5318385
000120 7f 6e 20 be 3f c3 14 be 8b 80 a4 3e 23 f5 1c be
       -0.15667151 -0.14527605 0.3212932 -0.15327887
000130 5e 9d dd be f5 60 02 bf 53 71 e0 3e 4c 6a 1c be
       -0.43284124 -0.50929195 0.4383646 -0.15274924
000140 97 aa 61 be 71 83 dc bd 04 74 00 bf 99 47 98 3e
       -0.22037731 -0.10767258 -0.50177026 0.29742125
000150 47 c2 ae be df c7 f2 3e 77 93 ca 3e 9e c4 c9 bc
       -0.34132597 0.47418115 0.39565632 -0.024629887
000160 82 9c f9 3d 9f 2b ac be cb 27 cc 3e 01 83 1d 3e
       0.121880546 -0.3362703 0.3987411 0.15382005
000170 9f 62 f4 be 71 c1 a0 3e ac cb da 3e 96 3a df be
       -0.47731492 0.31397584 0.42733514 -0.43599385
000180 b0 72 49 be 49 a6 03 3d b2 4e 83 be bf 26 b4 3d
       -0.19672656 0.032141004 -0.25645977 0.08796453
000190 0a 2e b0 3e fb 81 9a bd 23 23 b0 bd 3c ee fd be
       0.34410125 -0.07544323 -0.08600452 -0.4959582
0001a0 24 41 cb 3d ac 3f bf be d8 d2 d7 3e fe c3 0a 3e
       0.09924534 -0.37353265 0.4215305 0.13551328
0001b0 09 2f c0 be c9 26 1a bd d6 7d 0f 3e 18 7a 93 3e
       -0.37535885 -0.037634645 0.14012846 0.28804088
0001c0 03 cb ff be 34 8d 83 be f1 7b 23 3d bf 15 9b 3d
       -0.49959573 -0.25693667 0.03991312 0.07572507
0001d0 d6 9b 90 bb 6a 56 0e be 03 71 a0 be e2 b7 07 be
       -0.0044131083 -0.13900152 -0.3133622 -0.1325374
0001e0 b5 14 c5 bd 60 fd d9 bd 06 90 91 be 80 e4 30 3d
       -0.0962309 -0.106440306 -0.28430194 0.043186665
0001f0 38 d3 4e 3e 92 2a 25 bf cc 30 a6 3e 1c 0a ae 3e
       0.20197761 -0.6451808 0.32459104 0.33992088

decoder.decode_fc.0.weight f4 [24, 128]
000000 ca 55 68 be 7c 9c 56 be 99 b8 44 bc 5d 64 a4 bc
       -0.22688976 -0.20958132 -0.012006902 -0.020067388
000010 92 82 fb 3d 11 b6 df bc c8 01 2f 3e 47 1e 2b 3c
       0.12280764 -0.027308496 0.17090523 0.01044423
000020 da 67 9f bb 7f 39 8e 3d 0d 34 f7 bd b1 a9 21 bd
       -0.004864675 0.0694456 -0.12070475 -0.03946847
000030 01 bf b6 3b 8b 62 f4 3d 2d a9 0e bd c9 fd d2 bd
       0.0055769687 0.11932858 -0.034829307 -0.10302312
000040 1e 72 8c 3c 4c 82 10 be c7 ff 50 3d 71 c5 99 3d
       0.017144259 -0.14112204 0.05102518 0.07508362
000050 ee f7 fd bc aa 7d c7 bd 33 f2 0a bb 7b 2c ec bd
       -0.031002011 -0.097407654 -0.002120149 -0.115319215
000060 19 59 2f be b3 5f 45 be 6d 27 95 3d 51 55 f5 bc
       -0.17123832 -0.19274788 0.072829105 -0.029947909
000070 01 a9 66 bd 68 8a 4a 3e f3 5e b9 bc b7 a5 33 be
       -0.05631352 0.1977936 -0.022628283 -0.17543684
000080 b8 b8 b0 3d 41 7b 03 be 89 71 1a be 6e 5a ee bd
       0.08628982 -0.12839986 -0.15082373 -0.11638342
000090 f8 69 2f bd 42 dd 15 3e 41 42 ad 3d df 21 a4 3d
       -0.04282567 0.14635184 0.084599026 0.08014273
0000a0 d6 5b 22 3d 3d 0e 53 3d 1f 5b 80 3e ce 0f 03 bd
       0.039638363 0.05152725 0.2506952 -0.031997494
0000b0 38 7c 6f 3e 0b 95 88 bc 15 22 cb bd 5f d3 0b be
       0.2338723 -0.016672632 -0.0991861 -0.1365485
0000c0 e3 bd 14 3f 97 f7 bd 3c a4 80 7c bd 2e 30 36 3d
       0.58102244 0.02318935 -0.06164612 0.04447954
0000d0 ef 08 e2 bd 6c 0f 03 3d f5 2f 39 be 72 37 f5 bd
       -0.1103686 0.03199713 -0.180847 -0.11973466
0000e0 5c 66 65 be 4e ef a8 bb e6 89 16 3e ce 8c c0 bd
       -0.22402328 -0.0051554805 0.14701042 -0.09401856
0000f0 8e b8 0b be 02 48 14 be c0 8f a0 bd 3e 63 ca bd
       -0.13644621 -0.14480594 -0.07839918 -0.0988221
000100 fd 02 50 ba 13 08 3c bc 8b c5 03 be c9 83 71 3c
       -0.00079350156 -0.011476534 -0.12868325 0.014740893
000110 07 46 43 be 4b 02 ef bd 82 09 ff bc 13 7a 3f bc
       -0.19069682 -0.11670359 -0.031132463 -0.01168682
000120 2b 73 a1 bd 96 e9 17 3c a2 db 0f bd 48 68 15 bd
       -0.07883295 0.009272 -0.035121568 -0.036476403
000130 43 f8 08 3e e2 11 a7 bd 8b 7d 59 be 6f f5 81 3c
       0.13375954 -0.08157708 -0.21239297 0.015864102
000140 fb 66 0a bd 37 22 6c bd 2b 06 3b 3d 3d ac 2a be
       -0.033789616 -0.057649817 0.04566018 -0.16667266
000150 3d 4e f5 3d d6 14 74 be 29 8c 01 be 34 5f 92 bc
       0.119778134 -0.23836073 -0.12651123 -0.017867662
000160 d5 2e 37 3d 95 61 6b 3b 9b ce 33 be e5 9f 2a bd
       0.044722397 0.0035916318 -0.17559282 -0.041656394
000170 fb ce 1a 3e fd 1b 1e be 9c a9 d6 bd 42 10 1b 3d
       0.1511802 -0.15440364 -0.10481569 0.0378573
000180 68 89 55 3e eb 86 fb bb 66 3d 87 bd fe cc ac bc
       0.20853198 -0.0076759956 -0.06603508 -0.021093842
000190 df c2 00 be 30 88 5c bc 7f 4f 1d 3e 12 82 b9 3d
       -0.12574337 -0.013460204 0.15362357 0.09058012
0001a0 71 14 71 3d d7 cb 0f 3e cb ab 00 be 9a ed 25 be
       0.058857385 0.14042602 -0.12565534 -0.16203919
0001b0 7d 25 6b 3e 0a 25 de bd bd b0 29 be 77 92 1f be
       0.2296352 -0.108469084 -0.16571327 -0.15583216
0001c0 33 e9 95 3d a5 df b0 bc 93 4f 0e be ab f7 e3 bd
       0.0731987 -0.021591017 -0.13897543 -0.11131223
0001d0 68 8f b1 bd e8 98 88 3d b9 2e 72 3d 8a 6d b2 bb
       -0.08669931 0.066697896 0.05912659 -0.005445187
0001e0 d9 04 29 bd 71 9a fb bc ef 87 4d 3d e9 e9 b3 bd
       -0.04126439 -0.030713292 0.050178465 -0.08784849
0001f0 6a 65 06 be b2 aa 5a 3e c5 d1 a1 bd 36 c9 47 be
       -0.13124624 0.21354178 -0.079013385 -0.1951035
000200 43 8d 84 bd ff e1 20 bd 5e b7 8b 3c 71 47 c4 3b
       -0.06472256 -0.039278027 0.01705521 0.005989962
000210 57 99 e2 3b 99 6c ae 3c a7 3a e5 3d 7b 64 5f bc
       0.006915252 0.021292018 0.11192828 -0.013634796
000220 8b a0 1c 3d cc 74 03 3d a4 a8 3a bc 78 9a 15 3c
       0.038239043 0.032093808 -0.011392746 0.0091310665
000230 bd 5a 07 3c 51 0b 3f bb f2 b0 43 3c 32 d2 bf bb
       0.00826138 -0.0029151032 0.0119440425 -0.0058539147
000240 ae 25 ec 3b f2 39 17 3b 50 9d a1 3c 87 9b ca ba
       0.00720664 0.002307531 0.019728333 -0.0015457728
000250 fa a3 3c bd 1e 66 79 bc 81 d6 88 bb c1 3d e2 bc
       -0.046054818 -0.015222101 -0.0041759615 -0.027617337
000260 2d c1 63 3d a2 50 15 3d b3 26 af ba fa 92 80 bc
       0.05560415 0.03645385 -0.0013362974 -0.015695084
000270 c4 c1 37 bd 58 f5 23 bc 47 8a c8 bc f3 37 7f bb
       -0.044862524 -0.010007225 -0.024479998 -0.003894326
000280 04 32 dc 3c 5e 0e 4e 3d cf 17 b8 3b a2 98 ff 3b
       0.026879318 0.05030667 0.0056180726 0.0078001777
000290 44 00 d2 bc a9 08 47 bc 5a 13 35 bd a5 a2 63 3b
       -0.025634892 -0.012148061 -0.04420791 0.0034734395
0002a0 1c 0a 6c 3c 17 bf 97 bd c6 4a 50 bc fa f0 67 3c
       0.014406707 -0.07409494 -0.01271314 0.014156574
0002b0 5e 91 6e 3d 17 46 09 3d 72 a5 00 3c 87 56 bf bc
       0.0582441 0.03351411 0.007851945 -0.02335669
0002c0 83 d5 a2 bd 2a 2b 2f 3c dc 2c 4c 3d a4 25 61 3c
       -0.079508804 0.010691443 0.04984747 0.013741884
0002d0 02 0e 91 ba cf 38 07 3c 52 84 4a 3c cf 45 8c bd
       -0.0011066797 0.00825329 0.012360649 -0.068492524
0002e0 57 89 a2 bc cc 27 07 bd 7a 86 ec bc 93 14 b8 bc
       -0.01984088 -0.032996938 -0.028872717 -0.022470748
0002f0 55 b1 32 bc d0 05 b7 3a f9 e5 65 bc 08 de 16 bd
       -0.010906537 0.0013963524 -0.014031881 -0.03683284
000300 1e 7e cc 3c 78 3b e1 3c 2a 42 42 3c bb 76 a7 3a
       0.024962481 0.027494177 0.011856595 0.0012776473
000310 37 67 62 3c 95 08 62 3b a8 f7 af bb 5d 79 43 3d
       0.013818554 0.0034489979 -0.005370099 0.047723163
000320 2d d3 59 3d 79 6e 1d 3c 2d 90 74 bb 6e 39 ce 3a
       0.05317991 0.009608858 -0.003731738 0.0015733668
000330 21 c1 18 bd d2 79 da 37 fc 92 23 ba 3e bc 17 3b
       -0.037293557 2.6044352e-05 -0.0006239859 0.0023152973
000340 a7 7e 00 bb 06 11 d3 3c b8 58 b2 3c e7 e4 ae bc
       -0.001960674 0.025764953 0.02177082 -0.021349384
000350 82 8e 22 3c 5b 5e 16 3b 00 be c7 bc 4b 79 d0 bb
       0.009921672 0.0022944424 -0.024382591 -0.0063621155
000360 cb 84 46 bd 20 cd 32 3d 44 e1 24 3d 41 0b aa ba
       -0.048466485 0.043652654 0.040253893 -0.0012973325
000370 84 8e b9 bc 9c 1e 12 bb c4 e4 aa bc f7 5b 9c bb
       -0.022650965 -0.0022296077 -0.020861037 -0.0047717053
000380 b4 52 07 bd 3d 95 dd 3c f3 8c 47 3b 60 af 9c bc
       -0.033037856 0.027048701 0.0030449003 -0.019126594
000390 62 a5 89 bb 86 99 48 bc 1a bb a8 bc eb fd 7d bb
       -0.0042006234 -0.012243634 -0.02059703 -0.0038756083
0003a0 50 38 90 3b 1f 57 ca bb 20 a3 1b bd 4a d7 ce 3c
       0.004401244 -0.0061749364 -0.037997365 0.025249142
0003b0 18 43 85 3d fa c8 1c 3c 62 7a 5e 3c 5d 6b 64 bd
       0.06506938 0.009569401 0.013578983 -0.055766452
0003c0 cc 3a b5 3a 0e 5e f5 bb 79 0e bd bc be 06 61 3c
       0.0013826727 -0.007488019 -0.02307819 0.013734518
0003d0 5f 2a b8 3b 6e f6 78 3c 76 05 2d 3d 9d 2f f2 bc
       0.0056202854 0.015195472 0.042241536 -0.02956372
0003e0 2a bd 14 bd 83 21 f4 ba 1f dd 1d 3c bf b5 96 3c
       -0.036313213 -0.001862571 0.009635239 0.01839721
0003f0 27 8e 48 3c 46 43 88 3d 51 8a 4b bc 9b f4 72 bb
       0.012240923 0.066534564 -0.012423114 -0.0037072066

decoder.decode_fc.0.bias f4 [24]
000000 57 cf 00 be e9 0d 53 3d 4b 36 00 be 39 db 47 be
       -0.12579094 0.051526938 -0.12520711 -0.1951722
000010 82 8a b8 bd d4 e2 1d be bf 1e 79 bd ff 1d 38 3d
       -0.09010793 -0.1541856 -0.060820337 0.04495048
000020 b3 f6 10 be 80 e2 44 be 94 b9 b1 bc 74 04 d9 bd
       -0.14156608 -0.19227028 -0.021694936 -0.105965525
000030 15 e5 b1 bd 5b b1 65 3d 94 96 02 be b7 a4 0c be
       -0.08686272 0.056077342 -0.12752753 -0.13734709
000040 27 ee 51 bc 00 dc 23 be 22 48 d3 bb 62 0e 59 3d
       -0.012813128 -0.16001892 -0.006447808 0.052992232
000050 3c 8b 1c be 85 47 ce bd 65 2b ab 3c 45 5b b6 bd
       -0.15287489 -0.10072235 0.020894716 -0.08904127
