caches/cache_11_14_big/param2img1.pt (torch, 185131 bytes, 19 tensors)

main.0.weight f4 [16]
000000 00 00 80 3f 00 00 80 3f 00 00 80 3f 1e 49 74 3f
       1.0 1.0 1.0 0.9542407
000010 0b d4 80 3f b0 82 78 3f df 35 82 3f 19 a9 7d 3f
       1.006471 0.97074413 1.017269 0.9908615
000020 e0 b2 84 3f 36 9f 81 3f 6d ae 7a 3f 2d 97 64 3f
       1.0367088 1.0126712 0.979224 0.89293176
000030 c6 c6 88 3f 00 00 80 3f 00 00 80 3f a3 2d 6e 3f
       1.0685661 1.0 1.0 0.93038386

main.0.bias f4 [16]
000000 30 b9 5f 3b 0b d6 de 3d 79 69 15 be 0f 70 b5 bd
       0.003413748 0.10880669 -0.14591016 -0.08859264
000010 86 9e df bd 4f 58 be 3d 23 8e 06 bd e9 5c c7 bd
       -0.10918908 0.09294187 -0.032850396 -0.09734518
000020 86 54 04 bd b1 5d 88 3d c3 14 91 bd 21 e1 16 bc
       -0.03230717 0.06658495 -0.07084038 -0.009208948
000030 2c 73 ba bd 76 c5 4c bd fb 30 17 3e dc 36 8b 3d
       -0.091039985 -0.049993 0.14764778 0.06797573

main.0.running_mean f4 [16]
000000 00 00 00 00 00 00 00 00 c2 cc 4c 3e 2c 34 f1 3b
       0.0 0.0 0.19999984 0.0073609557
000010 93 d4 29 3c 4d f7 15 3b 00 ed 0b 3f 2c 34 f1 3b
       0.010365623 0.0022882998 0.5465851 0.0073609557
000020 93 d4 a9 3c 4d f7 15 3b 00 ed 0b 3f 2c 34 f1 3b
       0.020731246 0.0022882998 0.5465851 0.0073609557
000030 e4 be fe 3c 00 00 00 00 c2 cc 4c 3e 2c 34 f1 3b
       0.031096883 0.0 0.19999984 0.0073609557

main.0.running_var f4 [16]
000000 0b 25 fa 1d 0b 25 fa 1d 09 79 3d 24 81 a5 0d 3b
       6.621275e-21 6.621275e-21 4.1085363e-17 0.002161354
000010 48 41 8a 37 8c be 22 39 7a 63 ab 3d 81 a5 0d 3b
       1.648128e-05 0.00015520508 0.08368583 0.002161354
000020 48 41 8a 38 8c be 22 39 7a 63 ab 3d 81 a5 0d 3b
       6.592512e-05 0.00015520508 0.08368583 0.002161354
000030 6e 89 1b 39 0b 25 fa 1d 09 79 3d 24 81 a5 0d 3b
       0.00014833148 6.621275e-21 4.1085363e-17 0.002161354

main.1.weight f4 [20, 16]
000000 70 a9 8e 3d ee a9 1a bd 12 c7 07 be ee 64 22 3e
       0.069659114 -0.037759714 -0.13259533 0.15858814
000010 a7 31 ea 3c 79 f8 12 3d 0a 6f 15 3e cf 19 8e be
       0.02858813 0.035881493 0.1459314 -0.27754065
000020 92 eb 88 3e fe 90 c9 3d c9 ba c5 bc 39 39 22 3e
       0.26742226 0.09842108 -0.024136918 0.15842141
000030 b0 0b d8 3d 0f 25 f8 3d 0d 06 e3 be a9 0a 91 3d
       0.10549104 0.12116443 -0.44340554 0.070821114
000040 80 41 ef 3d ae 46 96 3d 87 55 ba 3e f3 a8 90 be
       0.11682415 0.073377 0.36393377 -0.28253898
000050 07 96 37 be a5 a4 26 3d 44 7e 6a bd a1 40 4f 3d
       -0.17928325 0.04068436 -0.057249323 0.050598744
000060 07 aa 87 3e 1a fb 85 be 1e f6 b1 3c 45 d2 d2 3c
       0.26496908 -0.26168138 0.021723803 0.02573503
000070 2a 14 47 3d e1 d8 06 be 31 33 90 be 47 26 c0 3d
       0.048603214 -0.1316867 -0.28164056 0.09382301
000080 c4 fa 27 3e cd 81 94 bd 13 35 b5 be a2 56 d3 bd
       0.16404253 -0.0725132 -0.35392055 -0.10319258
000090 39 64 22 be 26 da 44 be 18 25 33 3e e2 c2 dc 3b
       -0.15858544 -0.19223842 0.17494619 0.006737099
0000a0 4d 9c 73 3e 87 21 73 bc e7 cd 61 3e cd fc fe bd
       0.23790093 -0.0148395365 0.22051202 -0.12450562
0000b0 af 54 22 3e 54 0a a7 be f5 7c 53 3d a3 83 b8 3d
       0.15852617 -0.32625067 0.05163284 0.09009483
0000c0 88 08 45 3e 41 fe 0b 3e d7 57 0b bc b0 dc e1 3d
       0.19241536 0.13671209 -0.008504829 0.11028421
0000d0 ed 21 5d bd a2 6b a8 3d 1b 6b 61 bc d4 eb 17 3e
       -0.053987432 0.08223654 -0.013758446 0.14836055
0000e0 82 09 6e bd 37 c2 15 3e 8f 9d 5e 3e a5 fb 02 be
       -0.058114536 0.14624868 0.21739791 -0.12791307
0000f0 c0 dc 6d 3c 94 5b 8b bc 54 83 3e 3e 9f f2 47 bd
       0.014517963 -0.017011441 0.18604785 -0.048815366
000100 46 32 a3 3e e8 97 16 bd 32 e4 55 be d5 3c 25 be
       0.31874293 -0.036765963 -0.20887831 -0.16136487
000110 3a 09 3a be f1 99 9d 3d 1d f2 a3 3c 32 0d 89 bd
       -0.18167582 0.076953776 0.02001291 -0.0669197
000120 e4 75 bc 3d ab 38 ff 3d 32 ab 3d 3d e7 f4 7b 3e
       0.09202173 0.124619804 0.046305843 0.24605142
000130 56 e7 5f be f9 57 90 be 00 d8 d7 3e 87 d3 1f bd
       -0.21865591 -0.28192118 0.42156982 -0.039020088
000140 76 dc d6 3d 49 98 a7 bd 63 1d 91 3e 43 d5 80 bd
       0.10491268 -0.08183343 0.28342733 -0.062906764
000150 ce 60 9d 3d a8 fb 66 bd 44 75 31 be a9 93 2f be
       0.0768448 -0.05639234 -0.1732989 -0.17146172
000160 c6 9d 52 bd 78 de 3b 3d 20 cc b3 bc 42 ff 19 be
       -0.051419996 0.04586646 -0.02194792 -0.1503878
000170 a5 ff 38 3e 7e b0 3e 3c 01 06 45 be ca aa 39 be
       0.1806627 0.011638759 -0.19240572 -0.18131557
000180 db 56 02 bd 7f 93 aa be 27 30 68 3e 10 0a 57 be
       -0.031821113 -0.33315656 0.22674619 -0.20999932
000190 e5 9b b4 bd f8 73 18 be 44 2f 9d 3b 8e eb 66 3d
       -0.08818797 -0.14887989 0.0047968943 0.056376986
0001a0 db 9a 45 3e 29 13 91 3d 41 c2 60 bd d1 07 57 3e
       0.19297354 0.07083733 -0.054872755 0.20999075
0001b0 64 83 67 3e ba 6a 90 3d 52 6d 91 be 03 67 15 bd
       0.22608715 0.070516065 -0.28403717 -0.036475193
0001c0 c3 2f df 3d 9f 06 30 3e 65 0e c6 be b1 58 8f 3c
       0.10897782 0.17190026 -0.38682857 0.017498346
0001d0 39 f9 c4 bd 33 23 31 be 81 14 47 be 7a 61 61 3d
       -0.09617848 -0.17298584 -0.19441415 0.0550246
0001e0 71 69 90 3e bd 3e 6b 3e c6 0a c2 3d 35 f4 eb 3d
       0.28205445 0.22973152 0.09474711 0.11521188
0001f0 ff 9f 8a 3e e9 f9 a5 3d c2 ef 3a 3e 33 03 89 bd
       0.27075192 0.08104307 0.18255523 -0.06690063
000200 cc ab 41 3e 5e 58 f1 3d 5e d1 3d be b9 fe 97 bc
       0.18913192 0.11784433 -0.18536898 -0.018554078
000210 7f af 53 be 0d b4 b6 bd 4f 0c ad 3d c7 a1 b4 bd
       -0.20672415 -0.08921061 0.08449613 -0.08819919
000220 6e a7 bb 3d 4b d3 85 be 76 a6 3d 3b d4 09 da bd
       0.09162794 -0.26137766 0.002893833 -0.10646406
000230 fb 58 2e be c1 e9 da be e0 3b 54 3e b8 43 62 3e
       -0.17026131 -0.42756465 0.20725965 0.22096145
000240 5e dc a3 3d 8f 8b c7 be da af e6 3d 6e 4a 5e bd
       0.08001016 -0.38973662 0.1126401 -0.0542702
000250 2e 60 10 3e a4 72 6d be 27 0c f7 bc ce 9b 96 3e
       0.1409919 -0.23188263 -0.030157162 0.29415745
000260 f0 d8 20 be 07 de c0 bd 52 04 d1 bd b9 80 81 bc
       -0.15707755 -0.09417348 -0.10205902 -0.01580845
000270 02 e3 4e be 6f d6 08 bc 88 0b c2 bd aa 7e 24 3d
       -0.20203784 -0.008351906 -0.09474856 0.04015986
000280 45 03 e3 3d 2b 5b ab bb 48 6c c6 3d ae b0 0a 3e
       0.11084608 -0.005229374 0.09688622 0.1354396
000290 cb 36 97 bd f3 80 2e be 49 e3 ec bc ae 5b 25 3e
       -0.07383498 -0.17041378 -0.028916972 0.16148254
0002a0 bf 4b 1b be 64 da a8 3d bc 4e fe 3d 8b f8 0a bd
       -0.15165614 0.0824478 0.12417361 -0.033928435
0002b0 bf ec e7 3c 1d 3d 05 be 88 3b cf bd 53 61 2d 3e
       0.028311132 -0.13011594 -0.101187766 0.16931657
0002c0 32 5c 3b 3d 22 b1 3a be 97 37 c6 3d 13 92 74 3e
       0.04574222 -0.18231633 0.09678572 0.23883848
0002d0 8c 8a 11 3e 86 9c c3 3d 2f 92 87 3d 6f ac 4d 3e
       0.14213008 0.09551339 0.06619679 0.2008531
0002e0 14 b3 8d 3d 94 80 21 be 4f 16 17 3e 3d 59 ce bd
       0.06918922 -0.15771705 0.14754604 -0.100756146
0002f0 7a 45 d7 3d cb d3 14 3d aa 05 9d be f8 79 cb bc
       0.105112985 0.036334794 -0.30668384 -0.024838433
000300 10 17 00 3e 4c 2b 84 be 63 86 3f 3d 1f 17 d1 3d
       0.12508798 -0.25814283 0.04675902 0.10209488
000310 64 3e 8d bc 39 05 28 bd 14 b5 e4 3d 53 98 08 3d
       -0.017241664 -0.041020606 0.111673504 0.033348393
000320 d5 f4 0b be af 6e 55 be 22 2f 34 be d8 b1 46 3e
       -0.13667615 -0.20843004 -0.17596105 0.1940378
000330 b4 1f 87 3e 56 15 04 be 21 ad c8 be d7 19 33 be
       0.26391375 -0.12898764 -0.39194587 -0.17490326
000340 4d 20 22 be f1 18 38 3e 2e 01 c6 be c9 a1 39 bd
       -0.15832634 0.17978264 -0.38672775 -0.045320306
000350 4a 62 80 bd 7a 44 04 3e df 0f 7c bd ca be 86 3d
       -0.06268747 0.12916747 -0.061538573 0.06579359
000360 7f fa fc bc 0c 2b d2 bc e5 35 78 be 0d e6 60 be
       -0.030881165 -0.025655292 -0.24239309 -0.21962757
000370 75 c8 b3 bd 94 99 8b 3d 02 04 fa ba dc 9c e9 3d
       -0.087784685 0.06816402 -0.0019074681 0.11406872
000380 43 a1 c4 bd b6 f2 fd bd 13 6e eb bd ae f6 28 be
       -0.09601071 -0.12399809 -0.11495604 -0.16500351
000390 f9 f5 39 3d 25 f6 8a 3e d2 b7 75 3e ca 02 b1 bd
       0.045400593 0.27140918 0.23995903 -0.0864311
0003a0 23 02 a5 bd b6 03 25 bd be 4f 4c 3e 16 03 21 3e
       -0.08057048 -0.040286742 0.19952294 0.15723833
0003b0 bd 38 86 3e a7 e2 88 be 88 79 7d 3e cf 6a 89 bd
       0.26215163 -0.26735422 0.24753392 -0.06709825
0003c0 06 b2 cd 3c 32 33 35 bd 58 af 9f bd e2 9a 3f bc
       0.025109302 -0.044238277 -0.07797116 -0.011694642
0003d0 e7 df 63 3e 8d 8e a1 ba ae 30 86 3a 03 d2 31 3e
       0.2225338 -0.0012325809 0.0010237896 0.1736527
0003e0 7c ed a2 3e a4 39 31 be b0 ae cf 3d dc 36 49 bd
       0.3182181 -0.17307144 0.10140741 -0.049124584
0003f0 db 53 d5 bc aa 69 4a 3e a3 8f be be bc 8b 9e bd
       -0.026040962 0.1976687 -0.3721896 -0.07741496

main.1.bias f4 [20]
000000 f2 b9 a9 3d 5e 6b a8 3c 24 0c 06 be a7 dc 64 3e
       0.082874194 0.02055901 -0.13090569 0.22349797
000010 1f b6 51 3d 78 5d 2d be f5 71 a9 bd 23 45 8c 3e
       0.051199075 -0.16930187 -0.08273689 0.27396497
000020 2d 6a 5f 3e 08 a2 e9 3d c0 e2 56 3e 4a a4 00 3e
       0.21817847 0.11407858 0.20984936 0.12562671
000030 cf b6 e6 bd d3 ed 21 3e b4 e6 2d be 86 77 a2 3d
       -0.11265337 0.15813379 -0.16982538 0.079329535
000040 a3 d1 49 3e db bc 33 be d5 61 4a be 3b b0 2a bd
       0.19708876 -0.17552511 -0.19763882 -0.041671973

main.3.weight f4 [20]
000000 be a8 5f 3f 30 63 88 3f 48 bd 6b 3f 33 05 70 3f
       0.87366855 1.065527 0.92085695 0.93757933
000010 a4 dc 6a 3f 00 50 61 3f 23 79 78 3f 8a 81 72 3f
       0.9174292 0.88012695 0.9705984 0.9472891
000020 f7 ec 73 3f 24 e4 58 3f 73 8e 7e 3f 7b d2 6c 3f
       0.95283455 0.84723115 0.9943611 0.9250867
000030 29 4b 61 3f a6 58 6d 3f c5 25 6b 3f 0d a0 54 3f
       0.8800531 0.9271339 0.91854507 0.8305672
000040 f0 d2 7c 3f c4 0a 66 3f b0 f3 6e 3f 81 0a 8a 3f
       0.98759365 0.8986018 0.9334059 1.0784456

main.3.bias f4 [20]
000000 0d d4 36 be 50 d6 2d be f4 d8 7d 3e ec 91 a1 bd
       -0.17854328 -0.16976285 0.24789792 -0.078891605
000010 15 83 b5 bd 3f 08 f6 3d a3 23 4e be bb 15 ff bc
       -0.088628925 0.120132916 -0.20130782 -0.031138292
000020 e0 89 d2 bd 1b d2 1a be 48 4e d0 bc 33 25 8f bb
       -0.10280204 -0.15119211 -0.025427952 -0.004368448
000030 82 b2 c5 bd a5 75 13 be a1 e5 86 bc 05 2d 05 be
       -0.09653188 -0.14400347 -0.016466917 -0.13005455
000040 9e 2c f2 bd de e7 02 be e4 26 bd bd 9f c5 ab bd
       -0.11824916 -0.12783763 -0.092359334 -0.083873026

main.3.running_mean f4 [20]
000000 4f 6e 2d 3e f4 e3 90 3d 40 3f fe 3d cd 87 8d 3e
       0.1693661 0.070747286 0.12414408 0.2764267
000010 e5 e2 84 3e 0d 5e 6c 3d d8 db 11 3b 5d 6f d2 3e
       0.25954357 0.05770688 0.0022256281 0.41100588
000020 ab d9 cb 3e bb d9 2a 3e 88 c9 85 3e 86 ca 0d 3e
       0.39814505 0.1668462 0.2613032 0.13846788
000030 60 14 a0 bc e5 a9 a7 3e 0c b1 bd 3d 69 d6 04 3e
       -0.019540966 0.32746807 0.09262285 0.12972416
000040 d0 56 e7 3e ce 1f af 3d 72 92 0b 3d 84 93 20 3e
       0.4518342 0.08550988 0.034075208 0.15681273

main.3.running_var f4 [20]
000000 5d 79 9a 3d ef 3e d7 3c ba f5 eb 3d 50 9e 8a 3d
       0.075426795 0.026275126 0.11521478 0.06768477
000010 5f a1 9b 3d 15 50 c5 3d 9a 4b a2 3c 57 e8 2b 3e
       0.075991385 0.09634415 0.01981144 0.1678785
000020 ca 10 1e 3e a3 96 cc 3d 6d 84 09 3e d5 ef c0 3d
       0.15436092 0.09989669 0.13429423 0.09420744
000030 a9 fa 70 3c a3 b7 cc 3d 79 fd ab 3d 99 28 ba 3d
       0.0147082 0.099959634 0.083979554 0.09089775
000040 49 a8 94 3e ed cc 8d 3d 8b bd 0a 3d 4e 85 ac 3d
       0.2903464 0.06923852 0.03387217 0.08423863

main.4.weight f4 [2048, 20]
000000 30 fa 59 3e 34 dd 11 be f5 6b 5d bc 04 47 c6 bd
       0.21286845 -0.14244539 -0.0135145085 -0.09681514
000010 11 74 1b 3b 3b 3f 64 be d9 7c a7 3c 26 dc 8c 3a
       0.0023720304 -0.22289746 0.020445274 0.0010746762
000020 f7 05 f4 3d f7 1c e3 3d 6e 0a a8 bd be 03 fe bd
       0.119152 0.11089509 -0.08205114 -0.124030575
000030 61 7c 2d be 67 fd 61 3e 66 9f ca 3d ec 15 37 be
       -0.16941978 0.22069322 0.09893684 -0.17879456
000040 41 db 44 be c5 d8 80 bb 8b 9a 35 3b 25 4f 0f be
       -0.19224264 -0.003932091 0.0027710523 -0.13995035
000050 79 4c d5 3d 36 ea cb 3d dc c2 2c 3e 19 2b aa 3d
       0.104149766 0.099567816 0.16871208 0.083090015
000060 dd 08 5e be 3f f7 11 be 08 02 d6 3d b1 96 23 3d
       -0.21683069 -0.14254473 0.10449606 0.039938632
000070 58 f2 01 be 06 09 6a be fc fd 84 3c b0 da 3f be
       -0.12690103 -0.22855005 0.01623439 -0.18735766
000080 f7 51 38 3c 6a 2e 25 bd 8a f0 f0 bb c3 b0 c5 bd
       0.011250011 -0.040327467 -0.0073528932 -0.09652855
000090 b1 af f1 3d b2 14 a0 bd a4 83 f8 3d 2e 45 d1 3d
       0.118010886 -0.07816447 0.121344835 0.10218273
0000a0 2f 20 3f 3e 83 08 a6 3c 90 eb 00 3e 7f a3 92 3d
       0.18664621 0.02026773 0.1258986 0.07160091
0000b0 41 09 43 3e d6 32 7a bd 1a 8c 56 bd ba 3c 83 bd
       0.19046499 -0.061083637 -0.052379705 -0.06408067
0000c0 2c 72 72 bd 6b cb 00 3e 4f 28 a2 3d b6 6a 1a 3e
       -0.059190914 0.12577598 0.079178445 0.1507977
0000d0 6b eb d3 3d 76 51 b5 bd e5 6c 65 3d b5 4b fd bc
       0.10347637 -0.08853428 0.056012053 -0.030919889
0000e0 2a e3 df 3c 56 96 2c bd 6c c5 02 3e a0 32 07 3e
       0.02733 -0.04213556 0.12770623 0.13202906
0000f0 91 16 8a 3c ea 42 2e be 9d 06 2c 3d 96 03 e9 bd
       0.016856464 -0.17017713 0.041998494 -0.11377637
000100 61 8d 2e 3c 3c 25 71 be bb 75 f1 bd e5 e1 15 3d
       0.010653825 -0.2354936 -0.117900334 0.036592383
000110 2a 1a 63 3e 45 cf a7 bd 26 41 35 3e 10 2f a5 bc
       0.2217795 -0.081938304 0.17700633 -0.020164043
000120 eb 68 2a 3e 1e 73 d7 bd 24 14 4b be 72 10 09 be
       0.16641586 -0.10520004 -0.19831902 -0.1338518
000130 04 64 4c bd 84 1a 65 be 36 22 29 3d db 27 6a bd
       -0.04990007 -0.22373396 0.04129239 -0.057166915
000140 92 c9 3b be 98 49 ef 3d 73 a2 64 be 8d 34 af bd
       -0.18338612 0.11683959 -0.22327594 -0.08554945
000150 cb 1c 5e 3e 22 0d ce bd 80 af f4 bd f0 b4 21 3e
       0.21690671 -0.10061099 -0.119475365 0.15791678
000160 50 93 e0 bd 9d e6 c9 bd 15 67 9b bd 80 f5 a3 bd
       -0.10965598 -0.09858439 -0.07588021 -0.0800581
000170 7b 1d 12 be f6 e5 63 3c 5e 3d 17 be d0 78 75 bc
       -0.14269058 0.013909807 -0.14769503 -0.014982417
000180 73 59 3c be 4d e0 28 3d 87 23 84 bd f3 52 27 3e
       -0.18393497 0.041229535 -0.06452089 0.16340236
000190 2d e7 25 be cb f7 fa 3d 06 f3 89 bd cb 42 dd bd
       -0.16201468 0.12254294 -0.06735806 -0.108037554
0001a0 aa ca f2 bb 64 7f 1d 3d a0 58 1f 3e ba 88 12 3d
       -0.0074094133 0.038451567 0.15561152 0.035774924
0001b0 1c 79 5f be ec a1 83 3e b3 a6 ad bd 7a 3e 3a be
       -0.21823543 0.25709474 -0.08479061 -0.18187895
0001c0 5e 33 0a be c7 29 c0 3c b5 cd 0c 3e be 18 28 3d
       -0.13496158 0.023457421 0.13750346 0.04103922
0001d0 cd 8e 09 3e 88 1a 0d be 67 27 42 bd 82 15 81 3d
       0.1343338 -0.13779652 -0.04740086 0.063029304
0001e0 ea f7 00 3e 52 b8 08 be 8f 71 cc bc 2d 67 3c be
       0.12594572 -0.13351563 -0.024956493 -0.18398733
0001f0 4d 68 5b be 48 fd ca bd 8f 27 24 be 8c ea 0d be
       -0.21426506 -0.09911591 -0.16030715 -0.13859004
000200 cf 2e 1e be c1 b0 6f bd 1e 93 18 be 17 77 0a 3d
       -0.15447544 -0.058518175 -0.14899871 0.03380498
000210 48 a4 52 3e 4b 5e 25 be 53 34 0c 3e 64 13 1c be
       0.20570481 -0.16149251 0.13691835 -0.15241772
000220 df 24 17 3e 0f ab e3 bb b6 7a 91 3d 3d d2 f8 bd
       0.14760159 -0.006947882 0.071034834 -0.12149475
000230 69 37 92 bd 2e 4e 1c 3e 90 a5 9d 3d 94 e5 fb 3c
       -0.07139475 0.15264198 0.07697594 0.03074912
000240 68 ee b8 3d 53 c5 47 3e e7 c4 45 3d 05 4f 35 3d
       0.090298474 0.19508867 0.048283484 0.044264812
000250 1d 93 3a be f0 e6 72 3e df ad 49 3e e9 6e bb 3d
       -0.18220182 0.23720908 0.19695233 0.09152014
000260 62 a7 30 3e 18 e4 7e 3d 96 43 f3 bd 38 f3 b2 bc
       0.17251351 0.062229246 -0.11878125 -0.021844491
000270 c3 44 f6 3d b9 27 e7 3c e1 f2 4e be 96 1c 2e bd
       0.12024834 0.028217183 -0.20209838 -0.04250773
000280 6a bd f3 3d 77 4d 03 3e 76 ca 41 3d f8 e3 e3 bd
       0.11901362 0.12822519 0.047312222 -0.11127466
000290 21 fb 50 3e 6f 30 e3 3c 67 1e 80 3d 01 14 3b 3c
       0.20408298 0.027733056 0.06255799 0.0114183435
0002a0 d5 98 ef 3d 9c 9d de bd 93 fc 8a 3c 52 f1 ca 3d
       0.11699072 -0.10869905 0.01696614 0.099093094
0002b0 ab 24 15 bd 40 4d f9 3d be 17 0a be 85 e6 46 bd
       -0.036411922 0.121729374 -0.1348562 -0.048559684
0002c0 34 d8 d4 bd a6 7f bf bd ce 4d 83 bd dc 2a 20 3e
       -0.103928 -0.09350519 -0.064113244 0.1564135
0002d0 62 63 78 3d 15 1e 7e bc bc f7 21 3e ef a9 23 3e
       0.060641654 -0.015510102 0.1581716 0.15982793
0002e0 ce 31 d4 3d 6f 15 27 3e 39 66 3d be 52 21 28 be
       0.10361062 0.1631677 -0.18496026 -0.1641896
0002f0 5d 86 93 3c e8 21 85 bd 09 52 ce 3c 04 7d 54 3c
       0.018008405 -0.06500608 0.025185602 0.012969259
000300 f8 55 63 3d 69 e6 5c 3e 04 44 66 bc 13 71 27 3e
       0.055501908 0.2157227 -0.014054302 0.16351728
000310 37 0b 88 3b 9d 8e 4a bd 21 d3 56 bd 5b b5 a4 bc
       0.0041517275 -0.049452413 -0.052447442 -0.020106008
000320 e3 45 39 3e 76 04 64 3e e9 01 6f bd cf bb 84 bd
       0.18093066 0.22267327 -0.05835143 -0.06481134
000330 72 e6 2b be e1 a7 f9 bd 3e 6c 43 3e 41 29 15 3d
       -0.16787127 -0.121902235 0.1908426 0.036416296
000340 9d 76 3e 3d e9 9f 8c 3d 21 83 02 3e 25 eb 9a bd
       0.046499837 0.06866438 0.12745334 -0.075643815
000350 47 9c 3e 3e 11 0e 45 bd 43 4d 6b be 83 ec 12 be
       0.18614303 -0.048109118 -0.22978692 -0.14348035
000360 d6 fd 13 3d 18 6a 5d 3e 30 6e 99 3b 04 d1 01 be
       0.03613075 0.21622503 0.004682325 -0.1267739
000370 ac e6 07 3c 46 11 83 bd c6 38 1f ba cf f0 87 3d
       0.008294743 -0.06399779 -0.00060738286 0.066377275
000380 44 18 08 be ad 3a c2 bc fd 2f 8b be 31 86 a0 bd
       -0.13290507 -0.02370962 -0.2718505 -0.07838095
000390 04 cd 70 be 6c b9 84 be a2 52 f8 3a a5 3b 46 3d
       -0.23515707 -0.25922716 0.0018945525 0.048396725
0003a0 64 b1 af 3d ad 1c 95 bd de 16 df bd b0 75 1e be
       0.085787565 -0.0728086 -0.108930334 -0.15474582
0003b0 75 11 74 3e 4d 8d 9a bc 0a 54 2a bc ae 35 e0 3c
       0.23834784 -0.018866206 -0.010396013 0.027369346
0003c0 06 5f 30 3e 0b a7 62 3e 7e 5a 43 3c 89 5d 55 bd
       0.17223749 0.22134034 0.0119234305 -0.052091155
0003d0 02 bf 37 3e 8a e6 0d be c7 30 57 bc 77 e8 7b bc
       0.17943957 -0.13857475 -0.013134188 -0.015375248
0003e0 fa a1 01 3e 92 9a 34 be 88 46 90 3d 29 46 12 be
       0.12659445 -0.17637089 0.07044703 -0.14284576
0003f0 39 6e e6 bd 70 58 a3 bd 49 a8 da bd 9d 6e 07 be
       -0.11251492 -0.079758525 -0.10676629 -0.1322579

main.4.bias f4 [2048]
000000 19 01 33 3d 0f f8 a1 3d f4 a6 62 be dd 37 3d 3e
       0.04370222 0.079086415 -0.22134 0.18478341
000010 99 e6 29 3c 8a fb 00 3e 4e 13 4c 3e ce 60 34 be
       0.01036992 0.12595955 0.19929239 -0.17615053
000020 2c fa 83 3d fc 10 3b 3d 77 b8 8e bd ce 97 40 3e
       0.06444201 0.045670494 -0.069687776 0.18807909
000030 bf c7 86 bd a4 1c 33 bd 52 cd e3 bd 10 2c 39 3e
       -0.06581067 -0.043728486 -0.11123146 0.18083215
000040 2d bd 54 3e c5 4f 6e 3e ae 68 26 be 59 ca 3c be
       0.2077529 0.23272617 -0.1625087 -0.18436565
000050 27 66 e0 3c 95 18 0b 3e e7 35 0e 3e 2a 68 33 3d
       0.02739246 0.13583596 0.1388775 0.04380051
000060 a0 e6 b7 3c 1f b6 0b bd 6d 95 ba bd f0 68 2c 3e
       0.022448838 -0.03410923 -0.09110532 0.16836905
000070 f9 a1 00 bd 95 36 1b 3d 2d 7b 89 3d 46 11 2a 3d
       -0.03140447 0.03789385 0.06712947 0.04152038
000080 a1 50 ad 3c 5b 0d 8d 3d 78 4e 39 3e eb 02 0a 3e
       0.02115661 0.06887313 0.1809634 0.13477676
000090 0e b2 28 be fc 97 36 3d 48 36 50 be c4 ae 56 be
       -0.16474172 0.044578537 -0.20333207 -0.20965105
0000a0 3e 8b b2 3d 53 49 04 be 70 85 c7 bb 61 b5 f9 3b
       0.087179646 -0.12918596 -0.006088905 0.007620499
0000b0 5a 74 82 bd cb 42 d0 3c 8c c3 db bd 77 b2 3b 3e
       -0.063698485 0.025422474 -0.10730657 0.18329798
0000c0 aa d4 d5 bd 8e c3 a2 3b ee 2c e9 bd 92 6a 4a bd
       -0.10440953 0.0049671596 -0.11385523 -0.04941804
0000d0 e1 99 ee 3c b4 da 88 bd d5 e3 ce 3d 84 bf be 3d
       0.02912611 -0.06682339 0.10102049 0.093138725
0000e0 75 18 18 3e 3b e0 73 3e ca e4 42 3e fc 7a 98 3d
       0.1485308 0.23816006 0.19032589 0.074453324
0000f0 b4 d1 4b be 53 b6 0f 3e 59 be 3a be 6a ff 00 3e
       -0.19904214 0.14034395 -0.18236674 0.12597433
000100 6e 6b b8 3b df ac 5e 3d 73 a3 c8 3d cf f2 67 3e
       0.005628041 0.05436408 0.097968005 0.22651218
000110 3e 50 01 3e 05 b2 63 3e 4d 6a 55 bd bc 55 8e 3e
       0.12628266 0.22235878 -0.05210333 0.27799785
000120 a0 ca 3f 3e 21 1f ff 3c 73 9b b4 3d a1 ee d4 bd
       0.18729639 0.031142773 0.08818712 -0.10397077
000130 ab a9 00 be bc f2 17 3d 08 a3 55 3e 96 d0 8c 3d
       -0.12564723 0.037096724 0.20862973 0.06875722
000140 b9 3f d7 3d e6 32 71 bd da 41 97 bd c4 e0 41 3e
       0.10510201 -0.05888643 -0.07385607 0.18933398
000150 5c e2 8a 3e 99 c7 db 3d e4 e9 ba bc 63 ba 46 3e
       0.27125823 0.107314296 -0.022816606 0.19407038
000160 25 40 57 3e 60 8d 6c 3e aa 9e 7e bd da 65 3e 3e
       0.21020563 0.23100805 -0.062163033 0.18593541
000170 f6 ef d7 3c c2 9c ee bd f2 77 ea bd b5 ba 03 3d
       0.02635954 -0.11650993 -0.11448659 0.03216048
000180 50 30 94 3e f9 2d 1f 3e 8a c2 27 be 14 1a ad bd
       0.2894311 0.15544881 -0.16382805 -0.0845224
000190 d9 7a 2d 3d b5 d8 9c 3d b1 48 48 3e f2 f2 06 be
       0.042353485 0.07658521 0.1955898 -0.13178614
0001a0 ce 7c 80 3e 05 b6 d7 3d ab b9 9c bd 84 94 95 3e
       0.25095218 0.10532764 -0.07652601 0.2921487
0001b0 78 14 c0 bd f8 79 b7 bd d1 39 d7 3d 56 05 11 3e
       -0.09378904 -0.089588106 0.105090745 0.14162192
0001c0 dc 22 e6 3d a4 f7 fa bc 52 2c 3d 3e 68 a2 59 bd
       0.11237118 -0.030635662 0.18473938 -0.0531334
0001d0 c1 94 97 3e 78 51 bd bd db c7 90 3e 7b fc 80 bd
       0.29605678 -0.092440546 0.28277478 -0.06298157
0001e0 f9 9a 1c bd b5 35 88 bd 46 3c 0d be 20 69 bd bc
       -0.03823373 -0.06650869 -0.13792524 -0.023121417
0001f0 0f bd 08 be 23 ef a6 bc 4f db 7b 3e f8 9b f2 3d
       -0.1335337 -0.020377701 0.24595378 0.11846155
000200 36 d6 d8 bd a4 c1 cb 3d c8 3c e5 bd 76 41 7a 3e
       -0.105877325 0.099490434 -0.11193234 0.24439034
000210 16 1c 4c 3c 3d 5f 9b 3d 80 4f 54 3e 06 db fe 3c
       0.012457868 0.07586525 0.20733452 0.031110298
000220 d3 90 8f 3e df dd eb bd 63 a2 13 3e 85 a3 8b 3e
       0.2804018 -0.11516928 0.14417414 0.27273193
000230 f3 2a 4a 3e 28 6f 34 3e 46 0b 55 3e b1 b6 01 be
       0.19742946 0.17620528 0.20805082 -0.12667347
000240 4a e7 06 be f2 67 91 3e a9 6a 24 3e f0 bd e0 bd
       -0.13174167 0.28399616 0.16056313 -0.10973728
000250 59 b4 97 bd 50 9f f7 bd c8 e6 08 3d a2 99 90 3e
       -0.074074455 -0.12090933 0.033423215 0.28242213
000260 a6 db ef 3b bd 9f 7e 3d ce a5 95 bd 10 0c 33 3d
       0.0073198853 0.062164057 -0.07307015 0.043712676
000270 83 db 0c 3e 36 69 6f 3e c1 e7 3f 3e 49 89 b1 3d
       0.13755612 0.23379979 0.18740751 0.08668763
000280 85 92 3e 3e 86 06 0c 3e 10 c1 eb bd 4b 95 ed bd
       0.1861058 0.13674363 -0.11511433 -0.11600741
000290 05 72 04 bc 86 28 84 3e 22 cf 04 3d 3a 73 fe bc
       -0.008083825 0.25812167 0.0324241 -0.031060804
0002a0 e4 46 f9 3d a8 f9 aa bd d2 f2 df 3d bf ca 64 3c
       0.121717244 -0.083483994 0.10934986 0.013964354
0002b0 fd 91 54 bc a1 09 3f 3e 30 7b 9e 3e 89 86 89 3e
       -0.012974259 0.18656017 0.3095336 0.26860455
0002c0 5a 59 52 3d d6 95 88 3e 65 d0 da 3d e8 d8 3a 3e
       0.051354744 0.26676816 0.10684279 0.18246806
0002d0 ad 20 85 3e ed a8 d1 bc a7 fa ad 3c a6 b1 76 3e
       0.26001492 -0.025593245 0.021237684 0.24091205
0002e0 b0 ab 99 3e 9f d0 e6 3d 04 52 43 3e b3 0f 9b 3e
       0.300138 0.1127026 0.19074255 0.30285415
0002f0 83 6c a3 3d cf e2 54 3e 4b c5 f0 3d 4e 28 e4 3c
       0.07979681 0.20789646 0.11756381 0.02785125
000300 0e f2 36 3e 72 6b 04 3e a0 0d cc bc 6e 2c 08 3e
       0.17865774 0.12931612 -0.02490884 0.13298199
000310 98 59 aa 3d df e6 93 3d 3e 1c 56 3e fa d5 4a 3e
       0.0831787 0.072217695 0.20909211 0.19808188
000320 8d 4f b3 3d 15 fa 18 3e 28 87 4d 3e 0d 31 a4 bd
       0.087554075 0.14939149 0.2007109 -0.08017168
000330 60 16 0c be 2c 9b 99 3d a2 81 c1 bd c9 f6 2f 3e
       -0.1368041 0.075003 -0.094485536 0.17183985
000340 57 3c b5 bd 61 35 48 3d 71 fd f8 bd 46 4a 20 3e
       -0.088493995 0.04887903 -0.12157715 0.15653333
000350 a0 ac 74 3e 7b 16 c3 3d b5 9d b5 3d 38 18 01 3c
       0.23893976 0.09525772 0.08867971 0.007879309
000360 4f 65 c5 3d c8 8c ca bd a9 0e 49 3e c3 6c 5d 3e
       0.09638464 -0.09890133 0.19634499 0.2162352
000370 a3 33 c0 3d 9b c6 83 3e f6 34 ab bd c2 d4 36 3e
       0.09384849 0.2573746 -0.08359711 0.17854598
000380 dc ff 06 3e 81 ce 51 3d 83 bd 28 3e 94 55 4c bb
       0.1318354 0.051222328 0.16478543 -0.0031178938
000390 61 c9 78 3e 43 b3 ac bd 56 c8 0a be 1e a1 fd 3d
       0.2429557 -0.08432629 -0.13552985 0.12384246
0003a0 e8 6a 91 3e b9 8b d4 3d e3 5b 37 bd 49 67 db 3d
       0.28401875 0.103782125 -0.044765364 0.107130595
0003b0 41 b5 06 be df eb 09 3d 61 76 84 3e ce e2 0b 3e
       -0.1315508 0.03367221 0.25871566 0.13660738
0003c0 94 7e 3c 3e 5b 6c 87 3e c3 c0 59 3d 43 c5 a7 bc
       0.1840766 0.26449856 0.053162348 -0.020479804
0003d0 49 fa 59 3c 12 ab 1d bd a6 bb 7e bc 09 11 5b bd
       0.013304302 -0.038493223 -0.015547669 -0.053483043
0003e0 c0 51 60 bd 5a c8 50 3c e6 54 63 bd 5c d5 69 3d
       -0.054765463 0.01274308 -0.055500887 0.05708824
0003f0 c3 87 3f 3e 61 04 d6 3d 2f 54 98 bc 55 05 7b bd
       0.18704133 0.10450054 -0.01859483 -0.061284382

conv.0.weight f4 [20, 1, 5, 5]
000000 33 2f b2 3d c8 25 d6 bd 4c 74 d7 bd 88 a7 3b be
       0.08700409 -0.10456425 -0.10520229 -0.18325627
000010 42 47 05 3a b8 20 31 bd ab 9e cd bd 33 16 3f be
       0.00050841656 -0.043244094 -0.10040029 -0.18660812
000020 91 7f 80 38 63 7f 06 be 28 9b 9f bd 6c 9d 10 be
       6.127277e-05 -0.13134532 -0.077932656 -0.14122552
000030 bd 88 a8 bd 4d 89 a2 bd 8b 05 65 be 52 e5 bd 3c
       -0.08229206 -0.07936344 -0.22365396 0.023180638
000040 2f b9 b6 bc ed f3 1c be 7e 31 f5 bd b5 c7 5a be
       -0.0223051 -0.15327425 -0.119723305 -0.21365245
000050 93 eb 05 be e0 31 a1 bd 3e ef 2f be 32 5e 17 be
       -0.13078146 -0.07870841 -0.17181107 -0.14782026
000060 3e 26 da bd 94 f7 72 bc 12 98 73 be 16 dc 59 3c
       -0.10651825 -0.014829535 -0.23788479 0.0132971015
000070 f1 7d 2d be 66 30 e9 bd d8 3b 29 be 75 5d a8 3d
       -0.16942574 -0.113861844 -0.16526735 0.082209505
000080 c2 b9 13 bd 55 c3 f2 bc ac 19 27 be 26 8a d7 3d
       -0.036065824 -0.029634157 -0.16318387 0.105243966
000090 e9 9c d6 3d 7f 29 01 3d 7f fb 86 3d 35 92 9b bd
       0.10479147 0.031533714 0.06590938 -0.07596246
0000a0 f9 f6 f1 3c 1c e5 9c 3c 76 3c b5 bc cc 66 52 3d
       0.029536711 0.019152217 -0.022123557 0.051367566
0000b0 1c e3 8f 3c 6b 3a d3 3c b2 93 3a bd f9 8d 84 bd
       0.017564349 0.025784692 -0.04555101 -0.06472392
0000c0 32 9a ad bd b2 da 56 3d ba 22 c5 3d f9 9f 12 3e
       -0.08476676 0.052454658 0.09625764 0.14318837
0000d0 1d c5 de bd 05 d8 0a be 69 10 26 3d 71 98 c6 bc
       -0.1087744 -0.13558967 0.040542994 -0.024242612
0000e0 81 39 8a bd 7e d5 6e 3d 25 fe 22 be 5f 2b 41 be
       -0.06749249 0.05830907 -0.15917261 -0.18864201
0000f0 26 b9 4e be d2 8c 34 be 13 5b 99 3d 2a f5 4e 3d
       -0.20187816 -0.17631844 0.07488074 0.050526775
000100 1b 57 bc bd 77 bd 96 bc c1 79 a4 3d 60 46 e2 3c
       -0.091963015 -0.01840089 0.08031035 0.027621448
000110 15 41 0f bd ac f2 43 3d 7d 8b 37 be 84 5a 9e bd
       -0.034974176 0.04783885 -0.17924304 -0.07732108
000120 93 a1 8e bc e9 b6 03 be d4 04 e5 bd 74 f0 e1 bc
       -0.017411029 -0.12862743 -0.111825615 -0.027580477
000130 cf 25 28 be 25 1b a5 bd 1a 01 ed bd 77 c3 4c be
       -0.16420673 -0.08061818 -0.11572476 -0.19996439
000140 77 4f e0 bd 1b 29 55 be d5 9d 5d be 78 7d ef 3c
       -0.10952657 -0.20816462 -0.2164224 0.029234633
000150 d5 fd 63 be 0c 33 3b be f7 eb dc bd b6 df 3f be
       -0.22264798 -0.18281192 -0.10787194 -0.18737683
000160 3f 86 67 bc 0a 88 67 be 62 84 80 3d 8f cc f0 bd
       -0.014131128 -0.22610489 0.0627525 -0.117577665
000170 fb 21 3b 3d db 96 75 be 53 2a be 3d 14 1e d6 3d
       0.045686703 -0.23983328 0.092854165 0.10454956
000180 1e cb c5 bc f6 55 19 be 23 22 6a bd dc 2d c9 bd
       -0.024144705 -0.14974198 -0.05716146 -0.098232
000190 bc 09 1f bd 02 40 90 3d 6c 0a 0a 3e eb 07 a1 bc
       -0.038827643 0.070434585 0.13480538 -0.019657096
0001a0 15 de 0a 3e 81 1c 4c 3e 3f c1 80 3e d8 6a 7d 3e
       0.1356128 0.19932748 0.25147435 0.24747789
0001b0 cb 7c 89 bc 0d 2b 00 3e 79 91 58 3e 1b 3a 81 3e
       -0.016783139 0.12516423 0.21149243 0.25239643
0001c0 78 b2 69 3e e8 ba 33 3c a3 60 02 3e ed cd 33 bc
       0.22821987 0.010969855 0.12732176 -0.0109743895
0001d0 98 61 f4 bc e8 9d 05 3e 75 8d ea 3c f3 6f 1a 3e
       -0.029831693 0.13048518 0.028631905 0.15081768
0001e0 4d 19 f5 bd 62 90 d3 bd b5 e5 95 bd e8 8b 45 3e
       -0.11967716 -0.10330273 -0.07319204 0.19291651
0001f0 a8 40 4d bd 97 c0 06 3e a9 15 6a 3e dd 96 1d 3e
       -0.05011049 0.13159405 0.22859825 0.15389581
000200 aa 46 f9 3d e8 a1 2f 3d ac c6 17 3e 50 2a 16 3e
       0.12171681 0.042879015 0.14821881 0.14664578
000210 53 08 0f 3e 97 f8 35 bc 4e 42 5e 3e 50 0e bd 3d
       0.13968019 -0.011106632 0.2170498 0.092312455
000220 80 98 45 3e 2a cf 80 3d 65 30 56 3e 3d bb 65 3e
       0.19296455 0.062895134 0.20916899 0.22434707
000230 93 c5 df 3d fe 00 0a bd 11 39 9c bc 7e 2a 23 3e
       0.10926356 -0.033692352 -0.01907018 0.15934178
000240 74 e7 11 3e ed db 91 3d 4e db 53 bd 4e b2 05 3e
       0.14248449 0.07122026 -0.051722817 0.13056299
000250 12 d6 26 3e 95 46 2f 3e 65 f4 3f be 6a ac 72 be
       0.16292599 0.17116769 -0.18745573 -0.23698583
000260 b5 53 16 3d 3d 37 fe bd 03 77 fd bc 85 53 da bd
       0.036700923 -0.124128796 -0.030940538 -0.10660461
000270 5a 0d 47 be e7 0d 58 be 9b 27 19 be fe bd 14 bd
       -0.19438687 -0.21099053 -0.14956515 -0.036314003
000280 ca e4 72 be 6a 21 bc 3d 97 5d 04 be 4e 20 bd bd
       -0.23720089 0.09186061 -0.12926327 -0.09234677
000290 40 03 a1 3c bd b0 52 be f5 7b 3c be fa 0e 48 be
       0.01965487 -0.20575233 -0.18406661 -0.19536963
0002a0 b4 27 95 3d 43 cf 1f bb 45 1b 98 3c 17 5e f2 3c
       0.072829634 -0.0024385012 0.01856769 0.029585881
0002b0 60 e0 04 be ad 9c 4a be 5e 36 7e be 80 7a cb bd
       -0.12976217 -0.1978633 -0.24825427 -0.099354744
0002c0 42 08 5a bb 9b 15 8d 3c 7e a1 2c be 9d 0c 94 3c
       -0.0033269082 0.017222216 -0.1685848 0.01807242
0002d0 29 69 45 be 51 4c 2a 3c 02 cf dc 3d 2a 30 48 3d
       -0.19278397 0.010394172 0.10781671 0.048874058
0002e0 7c 7d d0 bd 31 c1 e9 bd 30 6e 92 3c 00 b8 67 3b
       -0.10180184 -0.114138015 0.017874807 0.0035357475
0002f0 80 35 8d bd d3 02 53 bd 97 d9 9a bd 16 e2 d1 3d
       -0.0689497 -0.051516365 -0.07561033 0.102482006
000300 fa cb 00 3e ff 5f 65 3d 86 c3 d5 bd 60 e7 b0 bd
       0.12577811 0.055999752 -0.10437684 -0.08637881
000310 0e e1 67 be c6 6c 35 3e 71 fc 31 be b1 41 2b bc
       -0.22644445 0.17717275 -0.17381455 -0.010452674
000320 a4 e3 cd 3d 8f 0e 1f bc 75 d6 db 3d 3a 7c d0 ba
       0.10053185 -0.009708061 0.10734264 -0.0015906163
000330 9d bc 89 bd b7 5c 18 bc 85 6e 07 be 05 26 e0 bd
       -0.06725428 -0.009299449 -0.13225754 -0.10944752
000340 42 ac a6 3c a4 48 fd bd e9 51 da bb c0 4f 21 be
       0.02034581 -0.12367371 -0.0066625965 -0.15753078
000350 ad 10 8e bd 4b aa 54 be 85 fd fb 3c 3e 28 bc 3d
       -0.069367744 -0.20768087 0.030760536 0.09187363
000360 f1 c4 0c be 62 39 8c be cc 38 51 be 48 b4 82 be
       -0.13747002 -0.2738753 -0.20431823 -0.2552817
000370 25 f6 af bd 26 66 00 3e e6 17 ee bd 2e 71 06 be
       -0.0859187 0.12538967 -0.11625652 -0.13129112
000380 77 c7 75 bd a0 3b 3e 3e 17 99 44 3d 17 e8 dd bc
       -0.060004678 0.18577433 0.04799756 -0.027088208
000390 f3 87 01 3e df 9c 86 bd d6 c2 5b 3e 2a 34 a4 3d
       0.12649517 -0.065728895 0.21461043 0.08017762
0003a0 06 4e 53 3d 7a 1f 34 3e 81 b5 59 3d c2 43 6e 3e
       0.05158808 0.17590132 0.05315161 0.23268035
0003b0 a0 99 9a 3d 3f 0a 56 3e e2 7e 44 3e 6a e8 cc 3c
       0.07548833 0.20902346 0.19189027 0.025013167
0003c0 a5 e5 1b 3e aa 84 92 3d 10 32 18 3e 70 e3 a0 bd
       0.15224321 0.0715421 0.14862847 -0.0785588
0003d0 a6 1a 8a bc b8 2c 0f 3e 90 a6 0a be 74 09 26 3d
       -0.01685841 0.13981903 -0.13540101 0.04053636
0003e0 da 6a e9 3c 3a 0e f2 bd b5 50 3a 3d e0 b3 a0 3d
       0.028493334 -0.1181912 0.045487124 0.078468084
0003f0 7c 94 64 3d 14 33 66 be 93 75 70 be 81 46 a9 3d
       0.05580567 -0.22480422 -0.23482351 0.08265401

conv.0.bias f4 [20]
000000 3f b7 0c 3e 7d 5f 8c 3e 4c 0c 0e be e2 c9 aa 3d
       0.13741778 0.27416602 -0.13871878 0.08339287
000010 a1 23 00 bd 0a e2 f3 bc 6c af bf 3d 90 a8 a0 3e
       -0.03128398 -0.02977087 0.09359631 0.31378603
000020 27 a6 89 3d 4d 3a 95 bc 97 f4 cf 3d 59 cc 88 be
       0.06721144 -0.018216277 0.10154074 -0.26718405
000030 cd f4 04 3b d0 4d 32 be c3 82 f3 3c 12 6e 22 3d
       0.0020287514 -0.17412496 0.029725438 0.039655752
000040 4e 5c cd bd 7d 77 d5 3d f4 f3 c1 bd c1 8b d1 3d
       -0.10027371 0.10423181 -0.094703585 0.10231734

conv.2.weight f4 [20]
000000 89 26 8e 3f 6a ce 75 3f 94 ee 7f 3f c9 5d 8f 3f
       1.110551 0.9601809 0.99973416 1.1200496
000010 4c 85 90 3f 4a 11 92 3f 8b a1 8e 3f 54 13 72 3f
       1.1290679 1.1411526 1.1143049 0.9456074
000020 20 d8 8e 3f 99 ff 83 3f e0 db 8d 3f 14 2b 8d 3f
       1.1159706 1.0312377 1.1082726 1.1028771
000030 ec 40 70 3f d2 52 6d 3f b7 ee 94 3f ff d2 95 3f
       0.9384906 0.927045 1.163535 1.1705016
000040 13 46 75 3f e7 70 8d 3f 64 e3 6e 3f c9 51 93 3f
       0.9581005 1.105008 0.9331572 1.1509334

conv.2.bias f4 [20]
000000 4f 7b f5 bd 47 95 3b 3e 9e 7a f5 3d 34 28 d0 bd
       -0.1198641 0.18318664 0.11986278 -0.10163918
000010 18 65 f6 bd 42 fc de bd b0 55 ce bd 4b 30 16 3e
       -0.12031001 -0.10887958 -0.10074937 0.1466686
000020 d7 be 06 be 93 7a ae 3d c9 a3 03 be dc 49 21 3e
       -0.13158737 0.08519473 -0.12855448 0.15750831
000030 98 b0 12 3e fd 0a 04 3e cd 88 00 be 64 e2 f9 bd
       0.14325178 0.12894817 -0.12552185 -0.12201384
000040 73 92 15 3e 5b 94 eb bd cf 7f d9 3d be 3a 1e be
       0.14606647 -0.11502906 0.10620081 -0.15452096

conv.2.running_mean f4 [20]
000000 8b c3 71 bd 70 c7 30 3e ef 4a 8b bd 27 f1 8b bd
       -0.059024375 0.1726358 -0.06801402 -0.068331055
000010 be 71 c2 3e 4f ce 0b 3f 2e 5e 96 bd c4 af 3e 3e
       0.37977403 0.54611677 -0.07342182 0.18621737
000020 8c 36 24 bd 14 33 af 3e 9c 49 72 bd 4e e2 e1 bd
       -0.040091082 0.34218657 -0.05915223 -0.11029492
000030 d8 5e 93 bc 63 eb a1 bd 27 1f b6 bd f5 aa c4 3e
       -0.017989561 -0.079062246 -0.088926606 0.3841168
000040 75 81 82 bd 88 0a 7f bd 4a 7c 5b bd c2 d6 37 bd
       -0.06372348 -0.062265903 -0.05358533 -0.044882543

conv.2.running_var f4 [20]
000000 f5 50 f0 3b 9f e2 a8 3c 39 69 1d 3b 52 da ed 3b
       0.0073338696 0.020615874 0.0024019016 0.007258692
000010 e8 a1 8f 3d f0 3e b5 3d a3 1e 03 3c f2 b6 dd 3c
       0.07013303 0.08849895 0.00800291 0.027064774
000020 85 bd cf 3b 62 fd 64 3d 04 25 0b 3c c6 d1 08 3b
       0.006339731 0.055905707 0.008492712 0.0020876988
000030 86 48 f9 3b 03 a1 f3 3a 6a 6e cb 3b 97 fa 5b 3d
       0.0076075224 0.0018587414 0.0062082307 0.053705778
000040 46 8e 1b 3b cf 5b cc 3b f1 59 46 3b 01 8c 1b 3c
       0.0023735925 0.0062365304 0.0030266012 0.009493829

conv.3.weight f4 [1, 20, 5, 5]
000000 ba 80 da 3d eb da ff 3d 5b 33 d4 3d 33 89 0b 3e
       0.10669084 0.12492927 0.10361358 0.13626556
000010 24 bf d7 3d a5 d6 84 3d bd a9 af 3d bf cf ef 3d
       0.10534504 0.06486253 0.08577297 0.11709546
000020 0d e6 f5 3d d4 53 08 3e 0b 9f 88 3d b5 59 99 3d
       0.12006769 0.13313228 0.0667096 0.074878134
000030 a2 e7 52 3d 61 a5 92 3d 70 28 ea 3d 19 f4 e6 3d
       0.051490434 0.0716045 0.11433494 0.11277027
000040 ff 8e 09 3e 01 ef 12 3e 56 fb c0 3d 38 86 ab 3d
       0.13433455 0.14348985 0.094229385 0.083752096
000050 e7 9e 50 3d ad 6f b2 3d 91 87 cb 3d 54 ea cb 3d
       0.05093279 0.08712707 0.099379666 0.09956804
000060 b0 33 d7 3d 6b 8a f2 bd e1 33 f1 bd 15 52 dc bd
       0.105079055 -0.118428074 -0.11777473 -0.107578434
000070 76 a6 31 be 2b 0b e3 bd 73 bd c6 bd 6c 97 03 be
       -0.17348656 -0.110861145 -0.09704103 -0.12850732
000080 52 98 12 be d4 d0 06 be ab 76 0c be 90 e5 5c be
       -0.14315918 -0.13165599 -0.13717143 -0.21571946
000090 f0 ed 05 be 6f 08 03 be 9e 95 04 be 22 fe 16 be
       -0.13079047 -0.12796186 -0.129477 -0.14745381
0000a0 a2 a3 23 be 81 22 cd bd 9e 61 e6 bd 37 56 e8 bd
       -0.1598039 -0.10016347 -0.11249088 -0.11344569
0000b0 1a 84 9c bd 2f 18 9c bd 2d b9 bf bd 29 9c 87 bd
       -0.07642384 -0.076218 -0.09361491 -0.06621582
0000c0 47 74 bb bd 8f dd ec bd 40 ee d1 bd 07 30 98 bd
       -0.091530375 -0.115656964 -0.10250521 -0.074310355
0000d0 50 a0 c6 bd a3 84 9d bd 62 ed 7b bd 0f 29 e0 bd
       -0.09698546 -0.07691314 -0.061505683 -0.10945331
0000e0 35 e9 02 be af 78 ea bd fa 83 30 be 85 42 15 be
       -0.12784274 -0.114488 -0.17237845 -0.14576156
0000f0 ef 13 05 be f5 cc 20 be 80 2d 26 be 0f 18 04 be
       -0.12995885 -0.15703185 -0.16228294 -0.12899803
000100 6f 1f 0b be 1a 3c c7 bd 60 db 12 be 59 de 0c be
       -0.1358621 -0.0972826 -0.14341497 -0.13756694
000110 54 cb f2 bd d9 fb a4 bd 85 bd e9 bd 8a 45 d1 bd
       -0.11855188 -0.08055849 -0.11413101 -0.10218342
000120 c5 af e7 bd da af 9a bd 0a 2c 7d bd 45 a0 d3 3d
       -0.11312822 -0.07553072 -0.061809577 0.10333303
000130 78 6e ef 3d b4 ab f1 3d 83 1e 95 3d 5a 84 8e 3d
       0.11690992 0.11800328 0.0728121 0.06958838
000140 35 cd f7 3d 26 66 9b 3d 56 7d f7 3d 22 cf 02 3e
       0.12099687 0.07587843 0.12084453 0.12774327
000150 82 f3 13 3e 9e 2f f6 3d 58 3b ee 3d 00 86 a0 3d
       0.1444836 0.12020801 0.11632413 0.078380585
000160 38 48 e8 3d 22 d2 f4 3d 7f f9 08 3e 7a e1 fa 3d
       0.113419 0.11954142 0.13376425 0.122500375
000170 8f e0 d8 3d 35 f4 b9 3d ed 61 18 3e cb 68 cd 3d
       0.10589706 0.09079782 0.14881106 0.10029753
000180 e9 8d 07 3e 9a ba b2 3d db 95 a3 3d 03 ef 0b 3e
       0.13237728 0.08726998 0.07987567 0.13665394
000190 91 e0 63 3d 57 fc 05 3e 40 7d bc 3d 2c fc b3 3d
       0.055634085 0.13084541 0.09203577 0.08788332
0001a0 0a 56 13 3e 5a 5a d3 3d 9e d4 0d 3e e8 4e 14 3e
       0.1438829 0.103199676 0.13850638 0.14483225
0001b0 a1 10 ef 3d c8 01 c0 3d b5 1f 91 3d e1 f9 08 3e
       0.116730936 0.0937534 0.07086126 0.13376571
0001c0 41 3f d1 3d f5 b5 df 3d 9c 5e 43 3e c7 b5 f8 3d
       0.10217143 0.109233774 0.1907906 0.12144046
0001d0 72 25 0a 3e 91 de e9 3d cc 50 23 3e 5d b8 c0 3d
       0.13490847 0.11419404 0.1594879 0.094101645
0001e0 30 52 2b 3d 2c e2 12 3d d7 24 0f 3e 8a f8 9c 3d
       0.041826427 0.035860226 0.13978897 0.076645926
0001f0 7d 0e 3d 3d 1e dd 00 3c 7d 65 5b 3d c0 80 c4 3d
       0.046156395 0.007865218 0.053563584 0.095948696
000200 b2 d9 98 3b a6 58 52 bd 70 60 26 3d 84 33 d2 3d
       0.004664623 -0.051354073 0.040619314 0.10263732
000210 3b da d0 3d b8 2e 08 3e 5b d3 8b 3d 1f 9c 1e 3e
       0.10197874 0.13299072 0.06827422 0.15489243
000220 df 6b 25 3e 2b ae 03 3e 83 07 be 3d 45 ef 20 3e
       0.16154431 0.12859409 0.092787765 0.15716274
000230 30 01 c6 3c 5c e9 16 3d e8 4e 02 3e 57 ad b0 3d
       0.024170488 0.036843643 0.12725413 0.08626812
000240 4c db 7a 3d 06 14 ba 3c 80 96 4b 3d aa 59 d1 3d
       0.061244294 0.022714626 0.049704075 0.1022218
000250 b3 70 bb 3c 3d bc 7b 3d a3 1f f0 3d 15 ba 05 3e
       0.022880888 0.061458815 0.11724784 0.13059266
000260 17 69 a7 3d 95 08 07 3e 95 78 89 3d f7 b0 8a 3d
       0.08174341 0.13186868 0.06712452 0.067720346
000270 6e 89 ba 3d c3 e8 0e 3e 9e 26 0c 3e 7b 62 17 3e
       0.09108244 0.13955979 0.13686606 0.14783661
000280 9e c5 8c 3d e6 f7 f0 3d d2 26 95 3d 7b 6f be 3d
       0.0687363 0.11766033 0.07282795 0.09298607
000290 2c 97 e5 3d f4 e0 c7 3d eb e8 07 3e cf 62 a6 3d
       0.11210474 0.09759703 0.13272445 0.08124315
0002a0 ec 99 19 3e 40 d6 0f 3e a0 d6 e1 3d 03 5a 89 3d
       0.15000123 0.14046574 0.110272646 0.067066215
0002b0 6e 8d 04 3e c3 76 e0 3d d4 07 84 3d d5 fa 99 bd
       0.12944576 0.10960152 0.064468056 -0.075185455
0002c0 ee 19 a6 bd ae 69 0a be 5a 74 f1 bd a5 be b3 bd
       -0.081104144 -0.13516876 -0.117897704 -0.08776597
0002d0 2e 13 ba bd 61 3a 12 be 91 48 c7 bd 6b a8 e0 bd
       -0.090856895 -0.14280082 -0.09730638 -0.10969623
0002e0 57 27 12 be d3 9f 25 be 23 60 2f be 66 cb a3 bd
       -0.1427282 -0.1617425 -0.17126517 -0.079977795
0002f0 bf c5 f2 bd 86 89 0f be aa e1 21 be b8 71 28 be
       -0.11854123 -0.14017305 -0.1580874 -0.1644963
000300 53 c7 e7 bd 6c 09 2b be b2 0b 12 be c0 7f 59 bd
       -0.11317315 -0.16702813 -0.14262274 -0.053100348
000310 da 36 0c be 94 63 de bd d1 d5 c5 bd 39 66 ad bd
       -0.13692799 -0.10858837 -0.09659923 -0.08466763
000320 f9 85 9a 3d 5d 35 b3 3d e4 56 17 3e 00 ef f7 3d
       0.075450845 0.087504126 0.1477924 0.121061325
000330 a8 4a 1d 3e 0e 97 11 3e 5b 8e fa 3d de 8b f9 3d
       0.1536051 0.14217779 0.122341834 0.12184881
000340 a8 0f 9a 3d 06 7a e2 3d 91 33 d0 3d 04 53 d7 3d
       0.075225174 0.110584304 0.101660855 0.10513881
000350 59 6e da 3d 83 c4 02 3e 20 2b 1f 3e c1 24 b0 3d
       0.106655784 0.12770276 0.15543795 0.0860076
000360 ec cc a0 3d c5 c6 9c 3d 15 b4 6a 3d 3b 14 03 3e
       0.07851586 0.076551 0.057300646 0.12800686
000370 ee b5 f2 3d bf 48 a0 3d f5 da 1e 3e a2 7f 02 3e
       0.118511066 0.07826375 0.15513213 0.12744
000380 98 cb ca 3d d3 33 db bd db da b7 bd ec 5f e0 bd
       0.09902114 -0.10703244 -0.0897729 -0.10955796
000390 2b 9f 5c bd 6e 34 d8 bd 5e 74 a5 bd 55 f4 bf bd
       -0.053862732 -0.10556875 -0.08078836 -0.093727745
0003a0 4f 37 9e bd 2a 3a 86 bd df 9e 0c be 89 b7 63 3d
       -0.07725393 -0.06554063 -0.1373248 0.055594955
0003b0 ea b4 90 3d 36 84 81 3d 90 75 be 3c c9 a5 76 3d
       0.070657566 0.06324045 0.023249418 0.0602167
0003c0 6b 22 8e bd 76 15 59 bd a1 84 82 bc 44 a7 60 bd
       -0.069401585 -0.052998982 -0.015932383 -0.054847017
0003d0 e4 35 ec bd 07 3b a5 bd 8c 13 ea bd d9 a7 53 bd
       -0.11533716 -0.08067899 -0.114295095 -0.051673744
0003e0 15 45 a7 bd 0a a8 00 be 52 0f bb 3d 91 8d 1d 3e
       -0.08167473 -0.12564102 0.091337815 0.15386035
0003f0 31 5c a2 3d 12 c6 01 3e 39 3e cf 3d c6 c7 1e 3e
       0.0792774 0.12673214 0.1011929 0.15505895
