caches/cache_11_14_big/param2img2.pt (torch, 185131 bytes, 19 tensors)

main.0.weight f4 [16]
00000000: 0000 803f 0000 803f 0000 803f 67db 693f
00000010: 7458 873f 5187 823f d3af 6f3f 2ef8 803f
00000020: 3dd8 883f 0819 8c3f e810 833f a330 733f
00000030: d16e 853f 0000 803f 0000 803f 429a 683f
1.0 1.0 1.0 0.91350406 1.0573869 1.0197545 0.9362766 1.0075738
1.0690991 1.0945139 1.0239534 0.9499609 1.0424443 1.0 1.0 0.9086038

main.0.bias f4 [16]
00000000: b2b2 c43d be6f b2bc f7a0 b23d f0c7 933d
00000010: 70aa 0abd 4df4 3fbd 9e04 4bbd 8e9e a63d
00000020: 3c7c a3bc 83ee 223d 6e3d 393d 74cf 26bd
00000030: 69be 253c 4592 04bd 4e5e 09be 87d5 373b
0.09604396 -0.021781798 0.08722108 0.072158694 -0.033853948 -0.046863843 -0.04956495 0.08135711
-0.0199567 0.039778244 0.0452246 -0.040725186 0.010116198 -0.032366056 -0.1341488 0.0028050856

main.0.running_mean f4 [16]
00000000: 0000 0000 0000 0000 c2cc 4c3e 2c34 f13b
00000010: 93d4 293c 4df7 153b 00ed 0b3f 2c34 f13b
00000020: 93d4 a93c 4df7 153b 00ed 0b3f 2c34 f13b
00000030: e4be fe3c 0000 0000 c2cc 4c3e 2c34 f13b
0.0 0.0 0.19999984 0.0073609557 0.010365623 0.0022882998 0.5465851 0.0073609557
0.020731246 0.0022882998 0.5465851 0.0073609557 0.031096883 0.0 0.19999984 0.0073609557

main.0.running_var f4 [16]
00000000: 1c8b 3d18 1c8b 3d18 3c71 3d24 81a5 0d3b
00000010: 4841 8a37 8cbe 2239 7a63 ab3d 81a5 0d3b
00000020: 4841 8a38 8cbe 2239 7a63 ab3d 81a5 0d3b
00000030: 6e89 1b39 1c8b 3d18 3c71 3d24 81a5 0d3b
2.449791e-24 2.449791e-24 4.1078755e-17 0.002161354 1.648128e-05 0.00015520508 0.08368583 0.002161354
6.592512e-05 0.00015520508 0.08368583 0.002161354 0.00014833148 2.449791e-24 4.1078755e-17 0.002161354

main.1.weight f4 [20, 16]
00000000: c576 e73d 1fea 68be 6c37 e03c 5b77 193d
00000010: bedb aa3d 0027 f6bd 81ee 3bbe 2416 0d3e
00000020: 2246 83be dcdb 2cbe d0e5 2e3d 3c19 3bbe
00000030: b294 95be 4a36 d7bd 2ad3 f33d 47f6 11be
00000040: 436d d5bc 2ee1 e13d e03f 163e fdb0 3c3e
00000050: b9e8 f23d bffb 7dbe 17aa 18be 948b 5bbe
00000060: 6f52 4bbe ae19 8abd 261a 62bd b924 513e
00000070: 62d2 03bd c6b2 f93c e756 c23d 8f0e 4f3e
00000080: d469 363e 06b0 bdbc b524 a3bd fc4a fb3d
00000090: a6a9 1cbe 57b5 3ebe 779e 1bbe 20f3 6dbe
000000a0: 7eb4 223c 0e7f 80bd c13f 67be f422 333e
000000b0: a964 4d3e aa9d 453c cbd4 98bc 39ff c6bd
000000c0: a112 5ebd 5572 49be a0c1 74be 2039 58be
000000d0: 03ed d3bd 139a 363d 109e 0c3e faa2 623e
000000e0: 00fd db3c 545b ef3d 4e81 78be fbfa 34be
000000f0: 09b0 9cbc 5db5 863e 8c15 553e 376f c03d
00000100: 18c3 2b3c 453b 55bc e726 d83d c916 c53d
00000110: 47a2 073e ca7c 41be 22e9 b6bd 52cc 61be
00000120: f791 8a3d 5a57 87be f7cb 6bbd 7531 933b
00000130: 59a1 b73d 0072 933e 710c a43c cc18 993d
00000140: 8e1f b03e 941d be3d 3883 923e d3a8 2dbe
00000150: abc5 903d e650 083e dfea 48be f550 6ebd
00000160: 6637 913e 607c 803e 946b 233c 18d2 c63d
00000170: 9a95 1d3e 52f4 233e 7f1b cdbe 225e 0f3e
00000180: 4715 a9bd 74a2 633e e4a4 9f3c a7bc 00be
00000190: 440d a33d 44e7 2f3e ba2c 41be 01bb edbd
000001a0: 5f46 e63d c45d 423e 6443 43be 26a1 ab3c
000001b0: 0fc9 a63e 4374 e5bd 951c ea3d 3a22 e53d
000001c0: bfbc 9e3e dee6 40be 2a19 7f3d 09c4 dd3d
000001d0: e141 9dbe da1d 8f3d c597 5abe 4795 de3d
000001e0: 18f8 aabe 9d0f 873e f528 1cbd dca3 9dbd
000001f0: b46d 15bb c0e5 a3bd ce59 d6bc a15e e5bc
00000200: cf73 11be 1d09 9b3e 6f50 2dbe 6265 d9bd
00000210: 3c1b 273e 748d ca3b fd4a 2fbe 9264 2b3e
00000220: 4dd9 18be 5c03 6cbd 27f0 8dbe 89b7 debd
00000230: e8ef 24be 3ff0 503e 616f 943e f4d1 57bc
00000240: 1d02 9c3e e6ce 2b3e c12f 983d 191b 8a3d
00000250: c73b 46be 1348 18be 50f7 4cbe d615 003e
00000260: 29b9 663e b79e 82bd b3b5 493c 4186 b63c
00000270: c42a 103e 9483 3a3e 4ed8 c8be ee7f 28be
00000280: 35a5 c23e b9dc 2fbe b347 c13e f7ef 91bb
00000290: 9b66 ce3d 412b 3cbe 48f3 b3bd add9 843e
000002a0: dfdc b43d 8323 e5bb f3b6 07be ed00 c6bd
000002b0: 9512 b0bd 10df 533e 7395 dcbe 085d 29be
000002c0: 61c9 8c3c 1b8e bcbd aee3 3b3e a7cf e3bd
000002d0: 8fa2 9bbe 8b0d 0dbe 33e3 303e 212a 153e
000002e0: 485c bdbd 149f 08be 580e 33be bd26 d53d
000002f0: 27bc f03d f79a 03bd cd46 c83d 4f9b 31be
00000300: f363 41bd 1eec 1fbe 8d67 3a3d 5172 0e3e
00000310: 5acf 60bd a7a5 7d3e 767b 4c3e 1f96 e53d
00000320: 932c ac3e 4322 6a3e 3885 09bd 3ad4 43be
00000330: 0672 8d3e e867 09be 289d debe c62d dc3d
00000340: fd6f 72bd 8abe 01bc cee3 963e 8004 73bd
00000350: c17e 1f3d 9ed4 98be d71a c7bd da86 6bbd
00000360: 17ef ec3d 6c7c 97be 7360 913e abe4 023e
00000370: 62d3 49be 3f14 14be 57b8 213e eab4 fbbc
00000380: 7e73 b83d 28ef 293d 591c d63d 0b14 b3bb
00000390: dd9d 70bd f1df 13be b1b0 e0bd 3216 ae3d
000003a0: 5609 5ebe 9d98 c13d 8c76 413e 97f1 64be
000003b0: 5bf6 61be a16c e9bd 2987 683e 2cc3 203e
000003c0: 145a 58bd 82c2 3cbe bc16 62be 7788 553d
000003d0: 0dd5 0c3e 93a9 bebd 8974 29be afae 1e3e
000003e0: a884 203b cd18 283d 600b ef3d 3e56 90bd
000003f0: 8f32 8f3e 191a 623e f770 c83e bb3c e8bd
0.1130195 -0.2274556 0.027370177 0.037467342 0.08342694 -0.120191574 -0.18352701 0.13777977
-0.25639445 -0.16880745 0.042699635 -0.18271345 -0.29215008 -0.10508402 0.11905511 -0.14254104
-0.026053077 0.11029278 0.14672804 0.1842689 0.118607946 -0.24803065 -0.14908634 -0.21439964
-0.19855665 -0.06743179 -0.05520072 0.20424165 -0.03218306 0.030480754 0.094892316 0.20220397
0.17813808 -0.023155224 -0.07965986 0.122701615 -0.1529909 -0.18623863 -0.15197168 -0.23237276
0.009930728 -0.06274234 -0.22582914 0.17493802 0.2005793 0.012061516 -0.018656155 -0.097166486
-0.054216985 -0.1967252 -0.23901987 -0.21115541 -0.10347941 0.04458053 0.13732171 0.22132483
0.026854038 0.11687341 -0.24268076 -0.17673866 -0.019126909 0.26310244 0.20809 0.093962125
0.010483526 -0.013014619 0.10554295 0.096234865 0.13245498 -0.1889526 -0.08931185 -0.22050598
0.06766122 -0.2643383 -0.057567563 0.0044919797 0.089663215 0.28797913 0.020025464 0.07475433
0.34399074 0.09282985 0.28615737 -0.16958933 0.07068952 0.1331211 -0.19620846 -0.058182675
0.28362578 0.2509489 0.009974379 0.09708041 0.153891 0.1601117 -0.4006004 0.14000753
-0.082560115 0.2222994 0.019487806 -0.12571965 0.079615146 0.17178065 -0.18864718 -0.11607934
0.11243891 0.18981081 -0.19068676 0.020950865 0.3257527 -0.11203816 0.11431233 0.11188169
0.31003377 -0.18838069 0.062279858 0.10828406 -0.30714324 0.069881156 -0.21346958 0.10868316
-0.33392406 0.263791 -0.038124997 -0.07697269 -0.0022800984 -0.08002806 -0.02616587 -0.027999224
-0.14204334 0.3028039 -0.16925214 -0.1061504 0.16318983 0.0061814133 -0.1711845 0.16737583
-0.14926644 -0.05762039 -0.27722284 -0.1087485 -0.16107142 0.20404147 0.28991225 -0.013172615
0.30470362 0.16778144 0.07430983 0.0674345 -0.19358741 -0.14871244 -0.20016217 0.1250833
0.2253157 -0.06377929 0.012311387 0.022280814 0.14078814 0.18214256 -0.39227527 -0.16455051
0.38016668 -0.17174043 0.37750015 -0.004453655 0.10078164 -0.18375875 -0.087866366 0.25947323
0.0883119 -0.0069927587 -0.13253383 -0.09668145 -0.08597294 0.2069056 -0.4308277 -0.16539395
0.017185869 -0.09206792 0.18348572 -0.11123591 -0.3039746 -0.13774697 0.1727417 0.14566852
-0.09246117 -0.13341933 -0.1748594 0.10407779 0.11754637 -0.032130208 0.09779129 -0.17344402
-0.04721446 -0.15617415 0.04550891 0.13910796 -0.054885246 0.24770223 0.19968972 0.11210274
0.33627757 0.22864632 -0.033574313 -0.19123927 0.27626055 -0.13418543 -0.43479276 0.10750918
-0.05918883 -0.007918963 0.29470676 -0.059330463 0.03893924 -0.29849714 -0.09721916 -0.05750165
0.1156904 -0.29587114 0.28393897 0.12782542 -0.19709542 -0.14460848 0.15792976 -0.030725915
0.090064034 0.041487843 0.10454626 -0.005465036 -0.0587443 -0.14440896 -0.10971201 0.08500327
-0.21683249 0.09452937 0.18892878 -0.22357784 -0.22066633 -0.113976724 0.2270781 0.15699452
-0.05282028 -0.18433574 -0.22078985 0.052132096 0.13753147 -0.093096875 -0.16548361 0.15496324
0.0024493132 0.041039277 0.116720915 -0.070476994 0.2796826 0.22080268 0.39148685 -0.113397084

main.1.bias f4 [20]
00000000: 224d 6d3e e9b5 59bd f87d 74be b9d3 063e
00000010: c2cc 9e3d 1f3d 203e 3663 2a3e c063 8dbd
00000020: ddd6 9c3d 83b6 1e3e 8b6a 9f3e 6a89 643e
00000030: bfc1 d33c 878b 30be e725 bcbd a2ab f3bd
00000040: 3707 013e 564d 793e bc84 ff3d 5acd 2f3e
0.23173955 -0.053152 -0.23876178 0.13166703 0.07753898 0.15648316 0.16639408 -0.069037914
0.076581694 0.1549931 0.31135973 0.22318044 0.025849221 -0.17240725 -0.09186917 -0.11897971
0.12600408 0.24345908 0.12476489 0.17168179

main.3.weight f4 [20]
00000000: 0a51 783f bb2b 603f 3e7a 633f 0e60 773f
00000010: ff63 683f d206 743f 51ce 6d3f 41e3 673f
00000020: 3b89 7f3f ce15 713f 38c7 783f c47b 863f
00000030: 6c1e 673f fb50 793f fcf9 803f 2698 753f
00000040: 2402 7a3f 42a6 623f 17dc 6b3f c586 6b3f
0.96998656 0.8756673 0.888584 0.9663094 0.9077758 0.95322907 0.9289294 0.90581137
0.9981877 0.94173896 0.97178984 1.050652 0.90280795 0.9738919 1.0076289 0.95935285
0.97659516 0.8853494 0.92132705 0.92002517

main.3.bias f4 [20]
00000000: ec85 fbbd fadb 15be 126a 03be 5b79 e6bc
00000010: 9083 1d3d b1ec 29be 7c97 d0bd f200 ebbd
00000020: dbc9 9abd 3580 d1bd e1ee abbd 8b35 fabd
00000030: fede e23d 5923 9c3d fd50 a3bd 73ad 2ebd
00000040: c854 0c3d 154f b53d 814c e4bd e455 1fbe
-0.12281403 -0.14634696 -0.12833431 -0.028134039 0.038455546 -0.16594197 -0.10185143 -0.1147479
-0.07558032 -0.10229532 -0.08395172 -0.12217244 0.11077689 0.076239295 -0.07974432 -0.042645883
0.03426054 0.08852974 -0.111474045 -0.15560108

main.3.running_mean f4 [20]
00000000: 397f c03e 3c6e 003e fbf6 b03c 587f 023e
00000010: 6526 5d3e f249 cb3e c3bd b13e 697b 823e
00000020: e55a 223e 8072 963e 6fc4 ec3e e89a 903e
00000030: 20a9 a93e 251e 133e a5dc 153e 2549 273d
00000040: c003 be3d c683 9c3e 8f47 673e 20e8 683e
0.37597063 0.12542051 0.021602144 0.1274389 0.21596678 0.39704853 0.3471509 0.2548478
0.15854986 0.29384232 0.46243617 0.28243184 0.33136845 0.14366968 0.1463495 0.04084124
0.09278059 0.30569285 0.22585891 0.22744799

main.3.running_var f4 [20]
00000000: c1ff 763e 4de9 b43d 6c7b 323d 3ecd d13c
00000010: ecb7 f33d 7c83 903e c277 9b3e 9f54 5b3e
00000020: 6e66 cf3d ea20 983d 7aa3 8f3d e62f bd3d
00000030: 7e61 8d3e 8d7c 1b3e 3e85 ce3d 228b 083d
00000040: 71f7 6b3c b7bd d53d f749 dd3d eb92 d73d
0.24121 0.08833561 0.043574736 0.025610562 0.11900315 0.28225315 0.30364805 0.21418999
0.10126959 0.07428153 0.070136026 0.092376515 0.27613443 0.15184231 0.10084008 0.033335812
0.014402256 0.10436576 0.10805123 0.10526069

main.4.weight f4 [2048, 20]
00000000: 10e2 16be f4c1 953d 3996 ea3d 418e 72bd
00000010: 8be1 b5bc 72a5 1e3e 41b2 ab3c d37f 4f3d
00000020: 37a4 373b 8d54 5d3e f9a2 1c3c dfe6 5c3e
00000030: ce47 e2bc 805d f0bd 7bc2 86bd cd91 073c
00000040: b5cb 533d bd9f 9abd a840 11bd db98 8cbd
00000050: cb3a 55be 18ed eb3c 82bb f13d 65d0 e2bd
00000060: 4873 52be 4d7e d2ba 22dd dfbd ca55 0bbe
00000070: 5422 143d f62c 823d 4d12 e2bb ecb4 a93d
00000080: c4a0 863d bd7e ebbd f04e d4bd 1e31 77bd
00000090: ec9e 8ebe 6dd0 15be fbf7 eebd 5d25 4c3e
000000a0: af23 8d3c 71cc 9fbd b3ee 47be a6d4 2abe
000000b0: e085 563e ec2b cf3d 7775 87bc f1e6 b33d
000000c0: e3b1 1cbe f450 19be 11bb 67bd 8982 4dbd
000000d0: 3db5 90be 68d1 393d 89da 1bbd e0fa b33d
000000e0: 1932 0cbe 015f 833d 6e22 533d 92a8 32be
000000f0: aa47 52bd 3a24 f4bd d7ff 92bd ccb1 f93c
00000100: 4f27 e4bd cccb 18bd f49e 74bd 38b4 d5bd
00000110: c914 803e ab19 033e c14b da3d 9b0a b9bd
00000120: 3e22 eebd f140 383e 1c59 52bd 1dc9 82bd
00000130: fdd8 f5bd 79d3 86be c395 393e 9a74 303d
00000140: 9529 133d 2c90 243d 4fee 87bc dc73 a1bd
00000150: 297b 01be 76e6 22be 25a4 c83c 8ebe c8bd
00000160: abbe 37bd b635 f33d 3b5f 2a3e 4273 4cbe
00000170: 0756 cb3d e227 0dbe 12a1 eebd 0283 75be
00000180: 8bb4 893e 8ab9 253e 104b 343d aaa5 873d
00000190: fde8 fabd 7961 9fbd dfb3 aa3d b1f0 6abc
000001a0: 9a7e 7abe 4a11 0ebb 66ea 56bd 7232 00be
000001b0: e05d 8e3d 1548 d13d 159b abbd 1ea4 c73d
000001c0: 66ce 0ebe 596a 143e 9c7f afbc 9ffe 013e
000001d0: 6d86 b9bd fd8f b5bd f486 973d c070 0bbd
000001e0: 3d6b c4bd 468f 973d 68c5 aa3c 6bb1 c63d
000001f0: e6a3 2dbe 492e d8ba a044 023e f449 06be
00000200: 686c 593d cb80 e53d 06df 08be cc75 68bb
00000210: 59e2 85bc f22c 493c 250a 8b3d 8c65 30bd
00000220: 03f7 d23d ed43 353e ca7b cebc b1b2 29be
00000230: daad f63d c31b d23c 3229 2ebe f9f2 883c
00000240: 10ae 563e b4f3 b3bd 6499 213e a392 f13c
00000250: a634 91bd a83e 1abe 2cb8 38bc 39f1 a4bd
00000260: 54c3 ccbd 27de e2bd 2789 aebc c62c 953d
00000270: 829d 233e b67e 1f3d 395f 223c 5cb7 72bd
00000280: d742 ea3d eb28 36be afd6 aabd 8ff0 c4bd
00000290: 91ec 8ebc 286b 203d 1b8e 773e 53a8 ee3d
000002a0: c106 91bd 8280 e23d 8022 6dba 9124 783d
000002b0: 2927 93bd 4fac a03d cb39 743d 5868 053d
000002c0: 58b5 f03d bfef bbbc defa cabd 53bb af3d
000002d0: 26a1 dabc a22f 16be 1d31 d93d a20a 3cbe
000002e0: 4c20 433e 5cea 23be 4cc8 bb3d 85ac 013e
000002f0: 4366 0a3e 759e 82bc 8f25 58bd 47fc 863d
00000300: 2012 863d bf4e cdbb c905 afbd 6117 1cbe
00000310: a972 1bbc 31ff a8bd 89c1 0b3d 81d9 203e
00000320: 86ca dbbc 8fcf 843e 771e 01be b190 5cbe
00000330: 839e b1bd 4207 073e 1203 0cbe 84c8 7ebc
00000340: a7be 303e 0b1c c8bd d361 3a3d 3c7f a6bd
00000350: 5149 07be 79e1 83bd 4377 453c f965 d43d
00000360: 3fab 11be fdbd 963d ad89 90bd c834 953d
00000370: ecc2 bf3d 6592 b1bd 9d00 9dbc b47b efbd
00000380: e792 613e 0259 5f3d 83bf c33c 4cd1 dd3d
00000390: 50d2 663d 300b a8bc 209c debd cc6f 173e
000003a0: 554b e0bd 4368 2abe 6e23 b1bd 7f2b 023e
000003b0: 090f 803d bfe5 9fbc 50cd f7bd 76b4 bb3d
000003c0: fc23 42bd 8fbc 4abc 0e5f 9a3d a1a0 953d
000003d0: d452 653b 9b98 5bbc c7ad ca3d 6b4c 783e
000003e0: 05f2 fbbd 3e62 f63d ae06 f0bb d032 253d
000003f0: 5a59 02be 6cc6 b53d f0a5 0abe 631b 3bbe
-0.14734674 0.07312384 0.11454434 -0.059217695 -0.022202274 0.154928 0.020959022 0.050659012
0.0028021464 0.21614285 0.00956034 0.21572445 -0.02762213 -0.11736584 -0.06580063 0.008274508
0.051707942 -0.07549999 -0.03546205 -0.06865092 -0.20823209 0.028799579 0.118033424 -0.11074904
-0.20551789 -0.0016059369 -0.109308496 -0.13606945 0.03616555 0.06356232 -0.0068991543 0.08286461
0.06573632 -0.11498783 -0.10366619 -0.060349576 -0.27855623 -0.1463029 -0.11668392 0.19936128
0.01722893 -0.07802666 -0.1952465 -0.16682681 0.20949507 0.10115799 -0.016535504 0.08784283
-0.15302233 -0.14972287 -0.056574885 -0.050173316 -0.28263274 0.04536572 -0.03805021 0.08788085
-0.13690986 0.06414605 0.051546507 -0.17447117 -0.051337875 -0.11920972 -0.07177704 0.030480288
-0.1114031 -0.03730373 -0.059721902 -0.104347646 0.25015858 0.1280276 0.1065898 -0.09035226
-0.11627625 0.17993523 -0.051354513 -0.063860156 -0.12004278 -0.26333216 0.18123536 0.04307995
0.035928328 0.040176556 -0.016593127 -0.078834265 -0.12644638 -0.15908226 0.024492333 -0.098019704
-0.04485957 0.11875479 0.1663789 -0.19965842 0.09928518 -0.13784745 -0.116518155 -0.23975757
0.26895556 0.16184059 0.044016898 0.06623395 -0.1225147 -0.07782263 0.08335089 -0.014339612
-0.24462357 -0.0021677786 -0.052469634 -0.12519243 0.06951499 0.10218827 -0.08379189 0.097481
-0.13945922 0.14493693 -0.021423154 0.12694786 -0.09058843 -0.08865354 0.07398787 -0.034043074
-0.095907666 0.07400374 0.020846084 0.097018085 -0.16957054 -0.0016493286 0.12721491 -0.13114148
0.0530819 0.11206206 -0.13366327 -0.0035470603 -0.016343283 0.012278782 0.06789044 -0.043065593
0.1030102 0.17701693 -0.025205512 -0.16572072 0.12044878 0.025648003 -0.17007902 0.01671742
0.20964837 -0.08786717 0.1578117 0.029488867 -0.0709012 -0.15062964 -0.011274379 -0.08053822
-0.099981934 -0.110775284 -0.021305634 0.072839305 0.15978053 0.0389392 0.009910398 -0.059256896
0.1143853 -0.17789046 -0.08341729 -0.096161954 -0.017446788 0.039164692 0.24175303 0.11653199
-0.07081366 0.11059667 -0.00090459734 0.060581747 -0.071852036 0.07845365 0.05962543 0.032570213
0.117533386 -0.022941468 -0.0991113 0.08580651 -0.02668817 -0.14666608 0.10605071 -0.18363431
0.19055289 -0.1600737 0.09169063 0.12663467 0.13515572 -0.015944699 -0.052770194 0.06591087
0.06546426 -0.006265491 -0.08546025 -0.15243293 -0.009487786 -0.08251799 0.034120116 0.15707971
-0.02682997 0.25939605 -0.12609278 -0.2153957 -0.08672812 0.13186362 -0.13673046 -0.015550736
0.17260228 -0.09770974 0.04550345 -0.08129737 -0.13211562 -0.0643949 0.01205236 0.10371012
-0.14225481 0.07360456 -0.070575096 0.07285458 0.0936335 -0.08670501 -0.019165331 -0.116935164
0.22028695 0.054528244 0.02389503 0.10830936 0.056352913 -0.020513147 -0.10869622 0.14788741
-0.109518684 -0.16641335 -0.08649336 0.12711905 0.06252868 -0.019518731 -0.12099707 0.091652796
-0.0473976 -0.012374057 0.075376615 0.07306028 0.0034991996 -0.013403083 0.09896427 0.24247901
-0.12302021 0.12030457 -0.007325015 0.04033166 -0.12729397 0.088757366 -0.13539863 -0.18272166

main.4.bias f4 [2048]
00000000: 16d8 323d 34e1 00be 1b6e 163d ae1c 293e
00000010: 14d8 44be 7498 163e 620f 03be f77a 5fbe
00000020: 09f7 bf3d adfa f73d 15cd 58be cb78 8bbe
00000030: 41f1 adbd 8924 d9bd 5065 dbbd c963 da3c
00000040: a593 be3c 88c7 3cbd abc2 08bd fb5d 513d
00000050: 5eeb fdbd 2386 2fbe ada3 39be ee3a cebb
00000060: 603e ac3d 9723 da3d e535 5dbe bcff 37bd
00000070: ff68 cf3d 389a 3bbe 21cf 66be 4239 7fbe
00000080: be00 d8bc d2b2 cfbd e8bd 7dbd 2ddc 62be
00000090: 2117 873d 0d52 49be ebfc 99be 3b8a 17be
000000a0: da5c 13bc 4e25 91bd 7d3b 3bbd 7cea 3dbe
000000b0: f8c4 c3bc 92d8 8ebe ce1b e7bc 8286 bcbd
000000c0: 7ac3 573d 4776 eebd f9b0 fabd 45cf dc3d
000000d0: 6aa9 e53d 73ac 94be 88d4 e23d 68c5 65be
000000e0: 7334 23be afc2 38bd 8520 2bbe 6b17 72bd
000000f0: ec57 61bd afc8 9abd da8d 45be 1617 4ebe
00000100: 5c81 1cbe 3f7b 183e d951 4ebe a6e4 4bbe
00000110: ca5e 63be 7866 933d 4144 323e a3d4 1a3e
00000120: 392d 72be 5e4d 0dbe 7b94 373d 240b 73be
00000130: eba0 8b3d a4aa 44bd c3e2 ce3d 2ee2 10be
00000140: 67dd 263c 48dd 6dbe c269 98bd dee2 873d
00000150: cef1 9a3d 725a 54be 7dff 40be f682 db3d
00000160: ce78 5abd ff56 8fbe ac48 95bd 27fd 32bd
00000170: aaee 993d 1dc4 b73d acf4 3ebe ce4d fabd
00000180: 2a36 cbbd ad8d 10be cdb5 073e 40a6 d33d
00000190: 2ed2 1d3b 10e7 17be 7508 ae3d 2d68 7fbc
000001a0: 5fca 49be 303a 4abe a4c0 cf3c ef5e fabd
000001b0: 072b a93c b85d 193e ad5f af3d fa71 973b
000001c0: 71ad 43bd 9ace 2abd 7452 cb3d f226 24be
000001d0: dea9 85be 038f 64be 6e31 913c 9cb2 27be
000001e0: 325d 81be 5ea4 013d a02a 44be abc7 50be
000001f0: 00cf bcbd af75 b03c 4fc3 23bb 2ec2 14bd
00000200: 1177 97bd b538 1abe 37e6 9a3d 77c5 573d
00000210: c1d1 d23d 8bc7 453d 8a72 5c3e 912a 043e
00000220: da86 833e b307 04bd 70bb b4bd bb65 7a3d
00000230: 703f 643e fe5b be3b ad3b 893e 7b82 893e
00000240: 733b 783e 0aa3 4c3d 7f6d 02bd 1c49 adbd
00000250: 87d4 323e f09b 0fbd 0754 d4bd 9785 b7bd
00000260: ad54 ca3d 2628 293e 5703 8f3d f3b3 69bc
00000270: 7761 f73d 2880 183e 8e5e 523e 9436 02bd
00000280: 6eac 15bd 62c6 943e 4a68 663e 7564 063d
00000290: a726 2f3e f1ad d23c a38e b03b 0bef 153e
000002a0: b88f a13d c47b e83c d45b d23d 5d56 9f3c
000002b0: dbd0 893e 697f c63d ff49 ed3d 5f78 9b3e
000002c0: b660 123d 3bea 643e fdb7 f5bd aca8 713e
000002d0: 6b90 703e c400 ae3d 5f2c 993e 2b32 5b3e
000002e0: a1cb 4f3e 4251 5d3e fff5 433e 4952 123e
000002f0: db2e 193e e92a 9bbd a0b4 e83d 7489 d93d
00000300: cfb7 b33b 64a9 c03d 12a7 e83c 83ec b0bd
00000310: 6814 c2bc 2525 ebbd fd13 69bd 3e1a 583e
00000320: ecdd 4a3d 795b f03d 5dc0 2e3e 9bdb 8d3e
00000330: 1807 aabd 5da2 f0ba d851 483e 2768 9b3d
00000340: c90a 0c3e 6b57 9c3e b10f f23b 887a 423e
00000350: f95d 4d3e 8367 e8bd 7286 1a3e d9ae 5e3e
00000360: 4209 b53d e44c 963e fc08 323e a479 5ebc
00000370: faf2 fb3c 327e 743e 1b5d 34bd 9585 f5bb
00000380: 7024 523e 536d 5c3d 4da8 983e abf5 863e
00000390: 0355 a4bd 0ebb debd 24ab 603d 194f dc3d
000003a0: 9695 163e 17a6 933e ee2f 9cbd e034 4dbd
000003b0: 5482 303d 429d b5bc 7ab4 75bd 9b3c bf3b
000003c0: 9def 5c3e 2f6a 4b3d 46c7 6a3d b5f5 033e
000003d0: 701a 903e b7c0 8c3e f15c 90bd d65e 6b3e
000003e0: bf84 2f3e d5f7 523e 62b2 30bd 9763 e63d
000003f0: e20f 413d cb3c 583c fea4 373e 8f15 773e
0.043663107 -0.12585908 0.0367261 0.16514847 -0.19223052 0.14706594 -0.12798837 -0.21824251
0.0937329 0.121083595 -0.21171983 -0.27240595 -0.08493281 -0.10602672 -0.10712683 0.02665891
0.023263762 -0.046088725 -0.033388775 0.051115017 -0.12398408 -0.17141013 -0.18128844 -0.006293646
0.084103346 0.106513195 -0.2160259 -0.04492162 0.10127448 -0.18320549 -0.22539951 -0.24924186
-0.026367541 -0.10141529 -0.061948687 -0.22154303 0.06596208 -0.19660206 -0.30075774 -0.14798824
-0.0089943055 -0.070871934 -0.04571103 -0.1854648 -0.023897633 -0.27899605 -0.0282115 -0.09205343
0.052676655 -0.11643653 -0.12240786 0.10781721 0.11213954 -0.29037818 0.11075693 -0.22438586
-0.15937977 -0.04510754 -0.16711624 -0.059104364 -0.05501549 -0.075578086 -0.19292393 -0.20125994
-0.15283722 0.14890765 -0.2014841 -0.19911441 -0.22204128 0.07197279 0.1740885 0.15120177
-0.23650064 -0.13799044 0.044819336 -0.23734719 0.06817802 -0.048014298 0.10101845 -0.1414878
0.010184622 -0.23228943 -0.07442047 0.06635068 0.07565652 -0.20737627 -0.18847461 0.10718338
-0.053337865 -0.2799606 -0.07289252 -0.043698456 0.07516225 0.089729525 -0.18648022 -0.12221871
-0.0992244 -0.14116545 0.13252945 0.10334444 0.0024081576 -0.14834237 0.08497707 -0.015588802
-0.19706105 -0.1974876 0.025360413 -0.122251384 0.0206504 0.14977157 0.085631706 0.0046217414
-0.04777283 -0.041700937 0.09927836 -0.16030481 -0.2610616 -0.2232018 0.017723765 -0.16376728
-0.25266415 0.031650893 -0.19156885 -0.20388667 -0.092191696 0.02154049 -0.002498824 -0.036317997
-0.07395757 -0.15060695 0.07563441 0.05267855 0.10293914 0.048286002 0.21528068 0.12906863
0.2568882 -0.032233905 -0.08824813 0.061132174 0.22289824 0.005809306 0.26803342 0.2685736
0.24241428 0.049960174 -0.031842705 -0.0846121 0.17463885 -0.035060823 -0.103675894 -0.08961027
0.09879432 0.16519222 0.06983059 -0.014264095 0.12079137 0.14892638 0.20543882 -0.03179033
-0.036541395 0.29057604 0.2250072 0.032810647 0.17104588 0.025717707 0.0053880974 0.14641969
0.0788874 0.028379329 0.10271421 0.01945036 0.26917157 0.0969227 0.11586379 0.30365273
0.035736762 0.22354977 -0.119979836 0.235995 0.23492591 0.0849624 0.29916665 0.21405856
0.20292522 0.21613029 0.19136809 0.14289202 0.1495928 -0.07576544 0.113625765 0.1062192
0.005484558 0.09407309 0.028399978 -0.08638861 -0.023691371 -0.11481694 -0.056903828 0.2110376
0.049528047 0.11736197 0.17065568 0.27706608 -0.08302134 -0.0018358935 0.19562471 0.07588225
0.13675989 0.30535445 0.0073871245 0.18992054 0.20055379 -0.11347868 0.1509035 0.21746387
0.088396564 0.29355538 0.1738624 -0.013578806 0.030755509 0.23876265 -0.044034105 -0.007492731
0.20521712 0.053815197 0.29815903 0.26359305 -0.08024027 -0.108755216 0.054850712 0.10757274
0.147055 0.28837654 -0.07626329 -0.050099254 0.04309304 -0.022169713 -0.05998657 0.005836082
0.2157578 0.04966181 0.05731895 0.12886699 0.2814517 0.2749078 -0.07048977 0.22985396
0.17140482 0.20602353 -0.04313887 0.11249464 0.047134288 0.013198088 0.17934033 0.24129318

conv.0.weight f4 [20, 1, 5, 5]
00000000: c68e 82be 550d 913c a364 50be 7f62 f7bc
00000010: d6b5 24be 4938 ccbc 6f22 603c 57b1 4dbe
00000020: 28c3 68be 2036 2cbe a83a 2b3e 1d33 be3d
00000030: 6086 bbbd a250 01be 2280 d9bd 206f 993c
00000040: 3447 423d 0838 1e3e 80d7 6dbd 9d0e c8bd
00000050: 682b a63d b821 f9bd ce7c c03c 9e78 87bd
00000060: c220 8f3d 08d2 ac3d 126c 8cbd 869a 44bd
00000070: 5481 2f3e c225 983c 8f22 053d ba92 433e
00000080: 7f6f 853e 1731 c83d dc98 dd3d 6611 423e
00000090: ee04 e4bb 02a6 8b3d 9cca 9e3d a6d0 3a3d
000000a0: 6e23 cc3d 194b 1d3e ca53 1c3e 2757 4b3e
000000b0: 015a 183e 7259 0e3e 2873 e8bd 27ec dc3d
000000c0: 776a e93d 89e8 a2bd 7199 153c b542 bcbd
000000d0: 1bde b63d 0829 e53d 38d7 a9bd 03ec f13d
000000e0: 5343 2e3d d772 9c3d 8c54 003d 8a96 8a3d
000000f0: ecb1 393d db8d aebb 5258 c73c db52 7c3e
00000100: 5eaa 813e 9ac1 7abd 42bb 763d 1edf 273e
00000110: b127 b63d 0890 bd3d 2beb 95bd 9b7f e33b
00000120: f9e0 e5bd e18d 883c 5d3f c63d d2f3 fabd
00000130: d7b7 d1bd a335 7abe 0676 643d fbc1 0d3e
00000140: 4279 f03c fd83 46be 250d b7bd 97e3 74be
00000150: 6ac8 4c3c 5b88 00bd 5f64 2fbe 7983 bfbd
00000160: 8890 27be 1af6 70be 28cf febd 3a7e e1bc
00000170: f6f8 1bbd db42 8abe af99 51be e993 ce3c
00000180: cc70 30be 0bb7 a7bd 0c03 79be e81f 633d
00000190: 5790 0a3e 3dee 91bc 4b86 533e 5143 7e3e
000001a0: e177 2f3e ce7e 06bd b1c3 b3bc 8d0a a53d
000001b0: 1882 413d 10e6 4d3c 837e 21bd d39b 11be
000001c0: 61a2 0c3a c1a4 c6bd ebf6 88bd 98cc 14be
000001d0: 1394 25be 8efa d5bd a86d 3dbe 5e32 0c3c
000001e0: 0f4d 20bd 63e8 8dbe 8f76 e4bc 870d 90bd
000001f0: e0b3 36be 73df 15bd c684 443d d56e 5dbd
00000200: f448 cdbd 6bca acbd 9639 b7bd 71d1 8abc
00000210: 041c abbd 35c9 0dbe c9e1 09be 8953 6bbe
00000220: c9b8 7dbe de61 08be 7e4c edbd 15d9 c6bb
00000230: 4b72 debd c76b 74be f37a 22bc d127 2ebd
00000240: b81e 803d 8281 46be 52f3 4fbd 465f 08be
00000250: 8253 c2bd a24e 2ebe e58e 59bd 76f8 a3bd
00000260: 2351 18be f5fa 8abd b36d 9cbd c1b5 ff3c
00000270: 3351 ddbd 3a5b 0ebe 55b2 5ebe 7a9b 12be
00000280: d25e 4ebd 5656 9f3d 87ec 62be 4c95 3fbe
00000290: 3368 b3bd ef07 8ebd bd45 37bd 6889 aabd
000002a0: 8511 54be d486 9cbd c412 a1bd 3a09 81bd
000002b0: 9e08 d0bd 10ce f2bc 3cd1 ea3c 9860 d63d
000002c0: a04c 453c 00c6 d83d 39ae e63c e997 973d
000002d0: 2abf db3d a87b 023e d002 103e eea2 823d
000002e0: 0fc9 823d 007f 393e 26c7 2a3e 1466 873d
000002f0: 5bb1 043e af4f 2a3e 0dce ac3d 2cd7 ec3d
00000300: bb31 aa3d 7ee1 933d cb7e 843d 90f3 f13d
00000310: 75b5 863d a6e6 ea3c 76a9 8bbd d573 15bc
00000320: cc91 b93d 6d95 a73d 8629 623b 4fe7 043c
00000330: 1ea3 523c a418 e9bc 98a7 a63a 9ad6 823d
00000340: e4a6 103c 71d8 083e 9b2b 3a3e c763 0e3e
00000350: 9be6 3f3e 3478 213e 0ae4 7d3d ae86 0c3e
00000360: 0794 d23d d486 0b3d f636 f43b 397d 613d
00000370: 86b1 c03d 84e7 013e 9962 d23d 9a11 183e
00000380: aa36 de3d 9b67 5abc 9e2e e83c 258a b93d
00000390: 0ca7 2b3e 4240 e13d 1eeb b63d b383 bf3d
000003a0: 1fad 353e 7c1a 233d 1fef ba3d 15bf a5bc
000003b0: 5d79 753e 0dba 873e 905c 303e 018c 9dbd
000003c0: 58e7 f73d 2f72 523d 245e b53d 7af3 2c3d
000003d0: 508b a13d a7bb 7dbd b0f3 a23d b7d7 c43d
000003e0: 5d38 a0bd bb8b d73d f35d 123d 389c 733e
000003f0: 6d53 f73d 5955 f43d 7b3b 883d 4472 ecbc
-0.25499552 0.017706553 -0.2035089 -0.030198334 -0.1608499 -0.024929183 0.013680085 -0.20087181
-0.22730696 -0.16817522 0.16721594 0.09287093 -0.09156489 -0.12628415 -0.106201425 0.018729746
0.047431186 0.15451062 -0.058066845 -0.09768412 0.08113748 -0.121646345 0.023497012 -0.06614803
0.0698867 0.08438498 -0.0685655 -0.047998928 0.17139179 0.018572692 0.03250366 0.1909894
0.26061627 0.09774988 0.10820171 0.1895195 -0.0069585955 0.06818773 0.077534884 0.04560914
0.09967695 0.15360679 0.15266338 0.19857465 0.14878084 0.13901308 -0.11350089 0.1078723
0.1139726 -0.07954509 0.009130822 -0.09192411 0.08929082 0.11189467 -0.08293003 0.11812594
0.042544674 0.076390915 0.03133063 0.06766994 0.045335695 -0.005326969 0.024334107 0.24640982
0.25325292 -0.06121979 0.060237177 0.16393706 0.08894289 0.092559874 -0.07320245 0.006942702
-0.11224551 0.016669216 0.09680054 -0.12253536 -0.10240143 -0.24434523 0.05577662 0.13843529
0.029354695 -0.19386287 -0.08938054 -0.23914944 0.012498954 -0.03138004 -0.17128132 -0.09351248
-0.16363728 -0.2353138 -0.12441856 -0.02752601 -0.038079225 -0.27004132 -0.20468782 0.025217013
-0.17230529 -0.081892096 -0.24317569 0.05545035 0.13531624 -0.017813796 0.20656697 0.24830367
0.17135574 -0.032835774 -0.021943899 0.08058653 0.047243208 0.012567058 -0.03942729 -0.14219598
0.00053647725 -0.09699393 -0.06687721 -0.14531171 -0.16169767 -0.1044818 -0.18498862 0.00855693
-0.03913599 -0.2771636 -0.027888564 -0.0703383 -0.17842054 -0.03659005 0.047978185 -0.054060776
-0.1002368 -0.08437046 -0.089465305 -0.016945573 -0.08354953 -0.13846286 -0.13465036 -0.22981085
-0.24777521 -0.13318583 -0.11586855 -0.0060683587 -0.108616434 -0.23869239 -0.009917009 -0.04251844
0.06255859 -0.19385341 -0.050769158 -0.13317594 -0.09488584 -0.17022184 -0.05311479 -0.080063745
-0.14874701 -0.067861475 -0.07638111 0.031214597 -0.10806503 -0.13901988 -0.21747716 -0.14317122
-0.050383396 0.07780139 -0.2216054 -0.18709296 -0.08760109 -0.06935107 -0.044744242 -0.083269894
-0.20709808 -0.07642904 -0.078649074 -0.06300588 -0.101578936 -0.029639274 0.028664224 0.104676425
0.012042195 0.105846405 0.028159248 0.074020214 0.10729821 0.12742484 0.14063573 0.063787326
0.06386005 0.18114853 0.16677532 0.06611267 0.1295828 0.1663196 0.084377386 0.11564478
0.083102666 0.072207436 0.06469496 0.11814034 0.06577579 0.028674435 -0.068194315 -0.009121855
0.09061012 0.081827976 0.0034509613 0.008111789 0.012856273 -0.028454132 0.0012714742 0.06388588
0.008828852 0.13363816 0.18180697 0.1390525 0.18740313 0.1576851 0.061985053 0.13723251
0.1028214 0.03406413 0.007452841 0.055051062 0.0940886 0.12685972 0.10272712 0.14850464
0.1085027 -0.0133303655 0.028342541 0.09059552 0.16762942 0.10998584 0.08931564 0.093512915
0.17741822 0.03982018 0.0912764 -0.020232717 0.23972078 0.26509133 0.1722281 -0.07692719
0.12104672 0.051378425 0.088558465 0.042224385 0.078879 -0.061946537 0.07956636 0.09611457
-0.078232504 0.10524698 0.03573413 0.23790061 0.12076459 0.11930341 0.0665197 -0.02886308

conv.0.bias f4 [20]
00000000: 5be6 8dbd da80 e0bd 7273 1b3e 775d c03d
00000010: 8c23 423d 486c 1f3e 4b49 213e e5ec 093e
00000020: 65f7 45be cfaf 203e 1ef5 e7bd 1b4e 50be
00000030: 46fc 2bbe 0ffe edbd f1d2 b63d 6527 0ebe
00000040: 6639 2dbe ff45 343d 802f 823b 4656 763c
-0.069287024 -0.109620765 0.15180758 0.09392827 0.04739718 0.1556865 0.15750615 0.13469274
-0.19332655 0.15692066 -0.11326049 -0.20342295 -0.16795453 -0.116207235 0.08926953 -0.13882215
-0.16916427 0.044012066 0.0039729476 0.015035218

conv.2.weight f4 [20]
00000000: 7709 803f 73f2 903f 6143 893f 287c 9b3f
00000010: 6884 8c3f b5b8 963f 3937 983f 4ddd 8f3f
00000020: 2cee 8f3f a89d 8d3f aa3e 903f 380d 8f3f
00000030: d248 903f 3103 613f 8a83 653f 1cf8 823f
00000040: b539 8b3f 4aa9 6e3f 9936 933f 8398 843f
1.0002888 1.132399 1.0723687 1.2147264 1.0977907 1.1775118 1.1891853 1.1239411
1.1244559 1.1063738 1.1269124 1.1175909 1.1272223 0.87895495 0.8965384 1.0231967
1.0876986 0.93227065 1.1501037 1.0359043

conv.2.bias f4 [20]
00000000: 6629 113e ca77 10be ada8 073e e1aa 09be
00000010: a18c 193e c853 fabd ca27 0bbe 8d68 cc3d
00000020: f4d2 18be f3ac f03d 4127 febd ed4b 03be
00000030: 4e15 09be b0de f73d 9cc7 043e b6b6 02be
00000040: 7ac9 03be a9c3 fd3d 3d8f f1bd 3fed ef3d
0.14175949 -0.14108196 0.13247938 -0.13444091 0.14995052 -0.12223011 -0.13589397 0.09980879
-0.14924222 0.117517374 -0.12409831 -0.12821932 -0.13387033 0.12103021 0.1296677 -0.12765011
-0.12869826 0.12390835 -0.11794899 0.11715173

conv.2.running_mean f4 [20]
00000000: 9e6c 5ebd f667 973e ea09 c13e f751 87bd
00000010: 2720 e03c 72bf 3cbd 6e5a 1dbd 12d7 043f
00000020: 6d96 443e 2bb2 053f 3576 533e 12c6 3d3e
00000030: 7c0a 553e 412d 03bd acb8 6a3e b8cf ae3d
00000040: 809e 2d3d cd01 1f3e 90af ccbd 0906 f03c
-0.054302804 0.29571503 0.37702876 -0.066074304 0.027359081 -0.046081014 -0.03841632 0.5189067
0.19198008 0.5222499 0.20650561 0.18532589 0.2080478 -0.03202558 0.22922009 0.08535713
0.042387486 0.1552803 -0.099944234 0.029299753

conv.2.running_var f4 [20]
00000000: a9d5 6e3b 21b1 453d 89a3 0f3d 2ccb cc3b
00000010: 145d 823c 2e93 b83b 8bc0 a33b f524 1a3d
00000020: 1b7e e33c 57eb 3d3d 469c 003d 1908 233d
00000030: c6f4 0a3d ec44 e73b 1ea8 083d 38a4 cc3c
00000040: 3ba3 503c d62f b83c 4e87 8d3b e807 503c
0.003644327 0.048264626 0.03506807 0.006249806 0.015913524 0.0056327796 0.004997318 0.0376329
0.027770093 0.046367016 0.031399034 0.039802644 0.03392484 0.0070577767 0.033363454 0.02498065
0.01273423 0.022483747 0.004319108 0.0126971975

conv.3.weight f4 [1, 20, 5, 5]
00000000: 1ffe c2bd 8d87 bbbd 5d21 00be 6cc1 e7bd
00000010: 08df f6bd ef37 e5bd 063b 08be b38e 08be
00000020: 8bda b6bd 46d2 90bd 8867 c1bd bc1e 34be
00000030: 0e53 d2bd 3fed 1bbe 48dd b8bd cc45 9dbd
00000040: 0049 c4bd ace6 2abe 3c00 eebd 38a0 c6bd
00000050: 6273 13bd 4fea aebd 8a9a 12be 3f6f 22bd
00000060: 90ba a1bd 726d 723d 683f 753d 4604 9b3d
00000070: a5dc d33d fe9a 7a3d eb85 803d 3953 ce3d
00000080: 1a46 ff3d 3e48 f63d c1c0 503d 5232 f43d
00000090: b426 c03d 585c 1b3e f5ad 123e 6918 053e
000000a0: e720 a63d e439 103e 68f0 1c3e ee7d c63d
000000b0: 5879 d53d b547 9c3d 39bf cc3d d4cb 0a3e
000000c0: a079 973d 8b8c 1cbc 1fe7 09be 33f2 0ebe
000000d0: 6041 0cbe 1529 87bd c316 14be 7dfb bebd
000000e0: 714c e4bd 952b f6bd e7f1 64bd 0aea 9abd
000000f0: 5910 e6bd ea23 d6bd 3260 82bd bf8b c3bd
00000100: aef7 c2bd 6ab7 bdbd 7867 b5bd 317e e5bd
00000110: 2dd4 c9bd bfcb 0abe 6e1e 04be e296 bdbd
00000120: 1c6b 06be f7b1 dbbd b4f0 acbd a498 063e
00000130: a9ca fb3d 939f e23d f1e4 193e c9cd d23d
00000140: 5e7c f73d 06eb e43d 6c2b dc3d 3104 143e
00000150: 71ad 1e3e 029e 293e af14 893d 304a 933d
00000160: ed4d ff3d ceeb 093e cc32 183e 045b 153e
00000170: 20a7 d73d 0b02 023e 213b 233e f3d7 d53d
00000180: 2555 173e 9055 de3d 6bb0 b93d f2e8 e83d
00000190: b92a 85bc 0b44 4bbd 984d 803c 3c25 aa3c
000001a0: bcfe 6e3d 238d cebd 5fdf 9cbd 0df7 8dbd
000001b0: 2e70 aebd 1bdd b13c 40fb 29be ee58 14be
000001c0: f3be b2bd 8dc3 2fbe ef16 c3bd 8184 07be
000001d0: c9c5 04be e9bc e5bd 58f6 d1bd a884 1abe
000001e0: cde8 d9bd 7a78 abbd 585e 1cbe 20e9 bbbd
000001f0: 0fc1 0cbe fc6b 0b3e 1696 093e 6f23 083e
00000200: 89eb f43d 6769 e33d 08b5 e13d cbde f03d
00000210: 6928 0e3e 797b 133e 0a2d 183e 5914 d53d
00000220: c226 273e 7200 ba3d e1b1 f13d b285 d93d
00000230: 835f 0f3e 8d3f 273e 29b3 c33d 26be 133e
00000240: 0947 113e 2cdc b13d c0de a63d dff0 e53d
00000250: 1408 053e 2407 ea3d 7085 153e c596 003e
00000260: 969d 773d f247 ca3d 063f df3d ad0d e43d
00000270: ba3d e63d 566b 133e 423b 103e 2993 cc3d
00000280: 1715 ad3d 6964 0c3e a6a3 ea3d 809b f33d
00000290: 162b 9a3d f402 0b3e f494 c13d 833a 253e
000002a0: d99c 263e a282 dd3d ca66 0f3e 05bb ca3d
000002b0: c8de e93d 9381 213e 70ef 033e 1a05 a6bd
000002c0: 7102 0fbe c17c b4bd f35a bbbd 6272 f6bd
000002d0: 9171 00be 7cb7 10be 9181 93bd 8a35 18be
000002e0: ce6d 1abe 3126 ed3b 324d 113d f2a6 e03d
000002f0: 954c d73d 613a 29bc 8b83 66bd b233 e8bd
00000300: a241 2ebd 744a 01be 7adf e6bd 4fa6 e7bd
00000310: f67b dfbd eb3a e0bd d568 fcbd 720e c4bd
00000320: e390 953d a0ec d83d 2511 c83d 9489 b33d
00000330: b537 243d c0c0 bc3d 2716 a13d a1df 823d
00000340: 4305 ac3d 2ec7 f73d dd0f dd3d d9d6 1e3e
00000350: dbe0 cb3d d99c 133e 00c1 343e 1bc6 973d
00000360: d9ed ae3d 21ee ee3d 2c44 ec3d 54d9 093e
00000370: 751e 8c3a b100 b93c 7339 7c3d da2f c13d
00000380: 0be3 2f3d dcc0 07be aeee a8bd 5d85 c6bd
00000390: 214b 92bd 782f 09be 0cd8 a7bd dc0a 0fbe
000003a0: f8ab f1bd 2ddd cdbd 75d4 f4bd a769 44bd
000003b0: 87aa aabc 4b91 5c3d f2db 75bd c9da 49bd
000003c0: d420 acbd 01dc a3bd a6b8 c0bd e2b7 07be
000003d0: 6fbe e6bd bb10 cebd 77a4 f3bd d193 06be
000003e0: f7c8 f2bd 7834 fbbd 15e0 cb3d f1ad ef3d
000003f0: 6683 bc3d b69b 083e 3096 5c3d b9ff 983d
-0.09521126 -0.09156714 -0.12512727 -0.11316189 -0.120542586 -0.11192309 -0.13303766 -0.13335685
-0.089284025 -0.070713565 -0.09443575 -0.17589849 -0.10269748 -0.15227221 -0.09026581 -0.07679328
-0.09584236 -0.16689557 -0.116211385 -0.09698528 -0.03599871 -0.085407846 -0.14316764 -0.039656874
-0.07896912 0.059186406 0.059874922 0.075691745 0.10344819 0.06118297 0.06275543 0.10074467
0.12464543 0.12025498 0.050965074 0.1192366 0.09382382 0.15171945 0.14324172 0.12997593
0.081117444 0.14084584 0.15326083 0.09691988 0.10423535 0.076308645 0.0999741 0.13554317
0.07396245 -0.009554992 -0.13467072 -0.13959579 -0.13696814 -0.06599633 -0.14461808 -0.09325311
-0.111473925 -0.12020031 -0.05589476 -0.07564171 -0.11233587 -0.10456069 -0.06366004 -0.09548139
-0.095198974 -0.09263499 -0.08857626 -0.1120571 -0.098549224 -0.13554285 -0.12902233 -0.09257294
-0.13126796 -0.107273035 -0.08444348 0.13144165 0.12294514 0.110655926 0.1502874 0.10293157
0.12084268 0.1117764 0.107504696 0.14454724 0.1549585 0.16564181 0.06693398 0.071918845
0.12466035 0.13468859 0.14863127 0.14585501 0.105299234 0.12696092 0.15940525 0.1044158
0.14778574 0.108561635 0.09066852 0.11372556 -0.016255723 -0.049625438 0.015662 0.020769708
0.058348402 -0.100855134 -0.07659792 -0.06931887 -0.0851749 0.021711877 -0.1659975 -0.14487049
-0.08727827 -0.1716444 -0.095258586 -0.1323414 -0.12966074 -0.112176724 -0.102520645 -0.15089667
-0.10640106 -0.083725885 -0.15270364 -0.091753244 -0.13745521 0.13615412 0.1343616 0.13294767
0.11958987 0.11104088 0.11020857 0.117612444 0.13882603 0.1440257 0.14860931 0.10404272
0.16323379 0.09082116 0.11801506 0.106212035 0.14001279 0.16332836 0.095556565 0.14428005
0.14187254 0.086845726 0.08147955 0.11227583 0.12991363 0.11427143 0.14601684 0.12557514
0.06045302 0.09877004 0.10900693 0.11135421 0.11242242 0.14396414 0.14085105 0.09989006
0.08451288 0.13710178 0.11456995 0.11894894 0.07527749 0.13575345 0.09452239 0.16135602
0.1627077 0.10815932 0.14004055 0.098989524 0.11419445 0.15772085 0.12884307 -0.08106442
-0.13965775 -0.088128574 -0.091482066 -0.120335355 -0.12543322 -0.14132494 -0.07202447 -0.14864174
-0.1508095 0.007237219 0.03547401 0.10969342 0.10512654 -0.01032886 -0.056277793 -0.11337985
-0.04254306 -0.12626058 -0.112730935 -0.11311018 -0.109123155 -0.10948738 -0.123246826 -0.09573068
0.073030256 0.10592008 0.09768895 0.08766475 0.04009219 0.09216452 0.07865553 0.0639031
0.08399441 0.120985374 0.10794041 0.15511645 0.09954997 0.14415301 0.17651749 0.074108325
0.085414596 0.11666513 0.1153644 0.1346181 0.0010690229 0.022583338 0.061578225 0.09432955
0.042941134 -0.13257164 -0.082486495 -0.09693406 -0.07143236 -0.13397014 -0.081955045 -0.13968986
-0.118003786 -0.100519516 -0.119545855 -0.04795232 -0.020833267 0.0538495 -0.06002421 -0.049280915
-0.08404699 -0.08000947 -0.09410219 -0.1325374 -0.11266791 -0.10061785 -0.118966036 -0.13142325
-0.11854737 -0.12265867 0.0995485 0.117030986 0.0920475 0.13340649 0.053854167 0.0747065
