caches/cache_11_14_big/param2img0.pt (torch, 185131 bytes, 19 tensors)

main.0.weight f4 [16]
000000 00 00 80 3f 00 00 80 3f 00 00 80 3f 4d 40 71 3f
       1.0 1.0 1.0 0.9423874
000010 52 fc 8a 3f 69 67 8a 3f 4c 57 7c 3f 7b d6 70 3f
       1.0858252 1.0812808 0.98570704 0.9407727
000020 6e c8 7d 3f 3d 0e 80 3f c7 2a 7a 3f 0f 0f 83 3f
       0.99133956 1.0004345 0.97721523 1.023897
000030 83 20 80 3f 00 00 80 3f 00 00 80 3f cd 3b 76 3f
       1.0009922 1.0 1.0 0.96185

main.0.bias f4 [16]
000000 ac 1d 82 bd b1 bf a6 3d 1b df 44 3d 60 ce 1b bd
       -0.06353316 0.08142031 0.048064332 -0.03803861
000010 84 54 5d bd 73 8a 76 3d 40 19 66 3d 35 18 b1 bc
       -0.05403568 0.06019063 0.056176424 -0.021617988
000020 de d5 43 3d e5 02 a2 bd ba 2a 76 bc be ab 68 3d
       0.04781138 -0.07910708 -0.015024835 0.05680441
000030 9b b5 90 3d 16 0e 8f 3d b9 5f 1d 3d 79 09 0b bd
       0.070658885 0.069851086 0.038421366 -0.03394458

main.0.running_mean f4 [16]
000000 00 00 00 00 00 00 00 00 c2 cc 4c 3e 2c 34 f1 3b
       0.0 0.0 0.19999984 0.0073609557
000010 93 d4 29 3c 4d f7 15 3b 00 ed 0b 3f 2c 34 f1 3b
       0.010365623 0.0022882998 0.5465851 0.0073609557
000020 93 d4 a9 3c 4d f7 15 3b 00 ed 0b 3f 2c 34 f1 3b
       0.020731246 0.0022882998 0.5465851 0.0073609557
000030 e4 be fe 3c 00 00 00 00 c2 cc 4c 3e 2c 34 f1 3b
       0.031096883 0.0 0.19999984 0.0073609557

main.0.running_var f4 [16]
000000 4e f4 4d 13 4e f4 4d 13 3c 71 3d 24 81 a5 0d 3b
       2.599509e-27 2.599509e-27 4.1078755e-17 0.002161354
000010 48 41 8a 37 8c be 22 39 7a 63 ab 3d 81 a5 0d 3b
       1.648128e-05 0.00015520508 0.08368583 0.002161354
000020 48 41 8a 38 8c be 22 39 7a 63 ab 3d 81 a5 0d 3b
       6.592512e-05 0.00015520508 0.08368583 0.002161354
000030 6e 89 1b 39 4e f4 4d 13 3c 71 3d 24 81 a5 0d 3b
       0.00014833148 2.599509e-27 4.1078755e-17 0.002161354

main.1.weight f4 [20, 16]
000000 36 05 30 3e e5 0b c6 bd 81 05 18 be 64 71 06 bd
       0.17189488 -0.096702375 -0.1484585 -0.03282298
000010 37 c0 23 3e 88 06 81 bd 8c 6b 30 bc 72 b3 d0 3d
       0.15991293 -0.06300074 -0.010767829 0.101904765
000020 83 c2 07 be 86 c0 10 bb f3 0b f2 3b 97 16 a3 bd
       -0.13257794 -0.002208741 0.0073866784 -0.07963293
000030 ba 39 0a ba f3 29 1b 3c 91 35 64 be 2f 51 d3 3c
       -0.0005272884 0.009470451 -0.22286059 0.025795547
000040 c4 76 7b bb c5 45 3a be d8 ef d7 bb 6b 20 ed bc
       -0.003837035 -0.18190677 -0.006589871 -0.028946122
000050 b5 a0 92 bd fb b0 82 be d4 fd 89 3c de 63 91 bd
       -0.07159559 -0.2552565 0.016844667 -0.07099126
000060 d4 bb d9 bc 35 01 3c be 8b 76 33 3e d1 8d 7e bd
       -0.026578821 -0.18359835 0.1752569 -0.062146965
000070 5a 29 37 be 0a 53 05 3e 2c bc fd 3d f0 12 6e 3d
       -0.17886868 0.13019958 0.123894066 0.05812353
000080 04 00 4e be 02 ba b3 3d 20 78 75 be b8 62 13 bd
       -0.20117193 0.087757125 -0.23971605 -0.035982817
000090 c5 22 55 3b 1a ac 87 3c bf 5b 5b be d7 5c 15 bd
       0.0032521945 0.016561557 -0.21421717 -0.036465492
0000a0 0a 06 43 3e 7c b2 17 be 16 a3 ea bc 9a e7 13 be
       0.19045272 -0.1481418 -0.028642219 -0.14443818
0000b0 be e1 45 be 36 cf 71 3e 16 4c 33 3e 75 b5 3c 3e
       -0.19324395 0.23614201 0.17509493 0.18428595
0000c0 ee ff 97 3d f6 2e 69 3e cf 00 3c bd b6 4d 4a 3e
       0.074218616 0.2277182 -0.04589921 0.19756207
0000d0 f5 8a 10 3e c1 42 37 be 39 5f f9 3d e9 76 e2 bd
       0.14115508 -0.17896558 0.121763654 -0.110578366
0000e0 6c 0b cc bd ac 33 ec 3c 68 c7 9a be 06 49 bb 3d
       -0.09963116 0.028833233 -0.3023026 0.091447875
0000f0 9b b7 22 3e 09 06 e0 3c 7f 4c a2 3c 14 54 47 be
       0.15890352 0.027346628 0.019811867 -0.19465667
000100 d3 12 9e be 1e af a1 3d 59 01 5e 3e 64 66 67 3d
       -0.30873737 0.07894729 0.21680202 0.05649413
000110 38 9e b7 bd dc fa 9a 3e 69 05 66 3d b5 4d 45 be
       -0.08965725 0.30269516 0.056157503 -0.19267924
000120 fd 6d 39 3e b9 e2 b1 bd a8 91 b1 3d e2 24 29 3e
       0.18108363 -0.08685822 0.0867036 0.16517976
000130 3a 23 42 bd 6b 3f fd 3d 2b ac bd bb 30 c6 d2 3d
       -0.047396876 0.12365612 -0.0057883463 0.102917075
000140 1a 9d b8 3d 82 99 8e be 49 2c 21 be 23 7c 3c 3d
       0.0901434 -0.27851492 -0.1573955 0.046016824
000150 2c 1a 5d 3e 9a 8d a2 3e 09 81 c6 3b d4 5b 79 be
       0.21592015 0.31748658 0.0060578627 -0.24351436
000160 e9 96 1b be a2 4a 8e 3e c6 ff 3f be ef 9b 22 3e
       -0.15194286 0.27791315 -0.18749914 0.15879796
000170 cd 2b 51 be 3c b2 8a bd f0 41 e2 bd d4 b6 b8 3d
       -0.20426865 -0.06772277 -0.11047733 0.09019247
000180 5a 13 82 be 2a 88 88 3e 6d e2 ab 3e 64 19 bb 3d
       -0.2540539 0.26666385 0.33571187 0.09135702
000190 24 50 03 be ef 71 6e 3e c1 59 9b 3d 32 bf be 3d
       -0.1282354 0.2328565 0.075854786 0.09313811
0001a0 5b ad 6e be d0 4a 40 3e c0 f5 15 3e 8a 8c 5f 3d
       -0.23308317 0.18778539 0.14644527 0.054577388
0001b0 57 da 1f bd 3c 6e ff 3d 30 77 63 3e 5b f3 96 3d
       -0.039026584 0.124721974 0.22213435 0.07370635
0001c0 df 93 3b be 57 27 a5 3d d9 f2 66 3e 85 e0 2d be
       -0.18318127 0.08064144 0.22553577 -0.16980179
0001d0 df 0a 2c 3d a7 46 13 be 68 cd 6d be 0d f1 de 3c
       0.042002555 -0.1438242 -0.23222888 0.027214551
0001e0 65 bb 18 be 5b c1 64 bd 45 30 16 3d 19 d3 86 3e
       -0.14915235 -0.05584846 0.036667127 0.2633293
0001f0 67 df 42 3e 6c b3 3c 3e 5d e0 0c 3e 86 df aa bc
       0.19030534 0.18427819 0.13757463 -0.020858537
000200 d4 6b b9 3d fa 29 e0 bc 97 2e 06 bd f2 be 29 3e
       0.0905377 -0.027363766 -0.032759275 0.16576746
000210 71 89 20 3d 76 2d 3d 3d 5f 6e 1f 3e 29 9b fd bd
       0.039193574 0.046185933 0.15569447 -0.1238311
000220 7f 47 9e bd d3 3f f7 bd a1 66 8b 3d 7f 03 2d be
       -0.077284805 -0.120727204 0.06806684 -0.16895865
000230 33 17 6f 3d 91 b6 0e 3e c8 f8 be 3d 36 66 48 3e
       0.058371734 0.13936831 0.09324795 0.1957024
000240 09 94 85 be 4b fb 79 3d 37 16 4c 3e aa dc 41 3e
       -0.26089504 0.061030667 0.1993035 0.18931833
000250 24 10 d1 3d af 3e b2 bd a3 90 d1 3c 97 dc 93 3d
       0.10208157 -0.08703362 0.025581663 0.072198085
000260 32 06 90 be dd ae 89 3e 22 e5 b1 bd a9 7b ec bd
       -0.28129727 0.26891223 -0.08686282 -0.11547024
000270 e6 75 fc 3d 85 3c 0f 3e 0b 43 35 be eb e8 3e be
       0.12327175 0.1398793 -0.17701356 -0.18643539
000280 7c 7b dd 3d 04 60 60 bc c7 5c 53 3d 64 52 01 be
       0.108145684 -0.013694767 0.05160215 -0.12629086
000290 00 5c e0 3d 04 8a 93 3e f0 d9 52 bd 3d 9a c3 bd
       0.109550476 0.28816235 -0.051477373 -0.09550903
0002a0 e9 aa 1c be 17 63 2f 3e e0 4b 02 3e 26 c2 d1 3c
       -0.15299572 0.17127644 0.12724257 0.025605273
0002b0 3d 57 cc 3c 30 a3 ae 3e ae c2 ea 3c 2c 20 06 bd
       0.024943942 0.34108877 0.028657284 -0.032745525
0002c0 e4 49 90 be 50 1f 2e 3e a3 c0 ee 3d c5 47 8d bd
       -0.28181374 0.17004132 0.11657836 -0.068984546
0002d0 fc da 96 3e ec 8b c2 3d 44 1e 9d 3d 72 99 12 3d
       0.29463947 0.09499344 0.07671788 0.035790868
0002e0 62 29 9f 3e 73 81 27 bc df 5b 4c be 3f 26 fc 3d
       0.3108626 -0.010223734 -0.19956921 0.12311982
0002f0 ea 0c a3 3d f7 69 a7 3c 2a 6e 87 3e 75 24 da bd
       0.079614475 0.02043627 0.26451236 -0.10651485
000300 da 6e 82 3d da 12 12 be 91 99 0b 3d 4f e3 ca bc
       0.063687995 -0.14265004 0.034082 -0.024766592
000310 06 c8 8e be 1d 3e a9 3d 48 67 ab 3d f9 62 46 bc
       -0.2788698 0.082638 0.08369309 -0.012108558
000320 5a b1 ae bd 14 53 4f bd 2a bb 1c bd f1 be e2 bd
       -0.08529921 -0.05061634 -0.03826443 -0.110715754
000330 6f c2 64 be 57 78 14 3e b8 07 01 3e e0 b2 57 3e
       -0.22339796 0.14499031 0.126006 0.21064329
000340 65 5e b2 3e c1 95 9d be aa cf 7f 3d 21 d6 32 bd
       0.34837642 -0.30778316 0.062453903 -0.04366124
000350 0d 0a 64 3e 63 87 0a be a1 cc 03 3e 0d 3c b6 be
       0.22269459 -0.13528208 0.12871028 -0.3559269
000360 d7 76 ca bc 3d f9 02 3e 4f 2d 02 be 8e 2f ba bd
       -0.02471487 0.1279039 -0.12712596 -0.090911016
000370 fb f2 78 be b9 5e 6e be fa fd a5 bc af dc 73 be
       -0.2431144 -0.23278321 -0.020262707 -0.23814653
000380 f2 c5 a2 be 04 81 4a bb 3c c7 14 3e 0f 69 5f be
       -0.31791645 -0.0030899653 0.14529127 -0.2181742
000390 cf 9b 24 be 3c 06 c8 bd 1d bd 9c 3d 0a bc 01 3e
       -0.16075061 -0.09766814 0.07653258 0.12669387
0003a0 9d f1 a3 bb f1 ce cc bd fc f9 0d be 33 2f 19 3e
       -0.005003168 -0.100004084 -0.13864893 0.14959411
0003b0 36 86 b3 3d 0d 2f 45 3d 30 0e 85 3d 0a ea 88 3b
       0.08765833 0.048140574 0.06496847 0.0041782903
0003c0 f5 18 ed 3c d8 09 30 bd f5 b9 9b 3d c0 33 24 3e
       0.028942565 -0.042978138 0.07603828 0.16035366
0003d0 a7 38 9b be fb 8f ec 3d 34 e1 03 3e 56 0c 9b 3d
       -0.3031666 0.115508996 0.12878877 0.07570712
0003e0 26 a4 27 be af 70 21 bc 9a 1c b5 bd c4 a5 9e bd
       -0.16371211 -0.009853526 -0.08843346 -0.07746461
0003f0 4f 17 3d bc 02 d5 8f be 7e 5f ac 3d 29 c3 00 bd
       -0.011541202 -0.280922 0.08416651 -0.03143612

main.1.bias f4 [20]
000000 a2 c3 4e be c0 af d2 3d cb 98 61 be 44 d9 ae bd
       -0.20191815 0.10287428 -0.22030942 -0.08537534
000010 29 31 2a be be e2 b7 3d 36 49 4c 3e e7 3f 5e 3e
       -0.16620316 0.089787945 0.19949803 0.21704064
000020 b4 3c f1 3d 47 c8 2b 3e bc af c1 bd fc 8e bb 3c
       0.11779156 0.16775618 -0.09457347 0.022895329
000030 61 10 0d bd be 29 13 3c 3d af 75 3d 7f 12 33 3d
       -0.03443945 0.00898212 0.059981573 0.04371881
000040 30 71 e9 bd 81 4a dd 3d 1a 0e c6 3d 95 2f 82 3e
       -0.11398542 0.10805226 0.096706584 0.25426927

main.3.weight f4 [20]
000000 01 ce 68 3f d7 2c 73 3f 61 de 5b 3f d5 93 70 3f
       0.90939337 0.94990295 0.858862 0.93975574
000010 a6 f9 6e 3f e6 fd 83 3f 87 07 64 3f da 1b 74 3f
       0.93349683 1.0311859 0.89073986 0.95355
000020 8c 14 6a 3f b2 27 73 3f a3 fb 6b 3f 3f 13 6f 3f
       0.914376 0.94982445 0.9218084 0.9338874
000030 08 fd 6e 3f f9 6e 6c 3f 97 cc 71 3f 3f 22 6e 3f
       0.93354845 0.9235683 0.94452804 0.93021005
000040 02 2c 63 3f 56 0f 6e 3f f9 d3 67 3f c2 37 7a 3f
       0.88739026 0.9299215 0.9055782 0.9774133

main.3.bias f4 [20]
000000 59 fd 10 be b5 fe bc 3d 70 54 18 be da 25 fc bd
       -0.14159144 0.09228269 -0.1487596 -0.12311907
000010 1b 6f ba 3d f2 fa 0a be 84 9f 02 be 28 d0 a4 3d
       0.09103223 -0.1357229 -0.12756163 0.08047515
000020 59 ee bb 3c 56 a6 9c 3d ad c4 af bd 10 f6 3e bd
       0.022940801 0.076489136 -0.08582435 -0.046621382
000030 8a f3 e6 bd d9 40 c6 3a 0e 5c a0 bd 7c 23 9d bd
       -0.1127692 0.0015125527 -0.07830058 -0.07672784
000040 09 1b ac bd c5 3d 26 be 4c 7a dd bd 38 2f 28 be
       -0.08403594 -0.162345 -0.10814342 -0.16424263

main.3.running_mean f4 [20]
000000 6f cd 55 bd 31 15 86 3e be e1 39 bc a2 a7 5a 3d
       -0.05219787 0.26188043 -0.011345325 0.053382523
000010 36 1c 66 3d f9 90 7d 3e e5 3a be 3e 93 71 93 3e
       0.056179248 0.24762334 0.37154308 0.28797588
000020 6a 96 24 3e bd a2 3b 3e 8b 79 f6 3d 05 30 95 3e
       0.16073003 0.18323798 0.12034901 0.29138198
000030 97 ee 2b 3e be 5d 3d 3e f5 3e 23 3e c4 0b 2f 3e
       0.16790234 0.18492791 0.15941985 0.17094332
000040 a6 69 2e 3e 43 75 4f 3e 2d 2a 73 3e 35 d3 d8 3e
       0.17032489 0.20259576 0.23746558 0.42348638

main.3.running_var f4 [20]
000000 b9 14 44 39 c2 1c 29 3e c0 26 53 3c 6b dc a9 3c
       0.00018699736 0.16514876 0.012887657 0.020734986
000010 c8 98 da 3c bb 60 27 3e f1 e1 85 3e aa c9 81 3d
       0.02668418 0.16345493 0.26148942 0.063372925
000020 cc d5 2d 3d bc 84 db 3c 27 cd a3 3d 70 5c 35 3e
       0.04244022 0.026796691 0.07998114 0.17711043
000030 54 1e f9 3d b5 3e 49 3e 18 83 04 3d ec 11 c9 3d
       0.12163988 0.19652827 0.032351583 0.098178715
000040 8b 07 30 3e 8e 5e a2 3d 04 0e ab 3d a3 01 94 3e
       0.17190377 0.07928191 0.08352283 0.289075

main.4.weight f4 [2048, 20]
000000 39 7b b5 3c 0e cf eb 3d 07 8b b5 bd d9 b6 d0 3d
       0.022153484 0.11514102 -0.08864408 0.101911254
000010 f8 84 50 3d 79 f1 8e bd 1d 16 d2 bd 42 ac 0a 3d
       0.05090806 -0.06979651 -0.10258124 0.033855684
000020 75 99 d7 bd 2e a6 14 3d cf f2 47 3e e3 d0 72 3d
       -0.105273165 0.036291294 0.19526218 0.05928124
000030 d1 e7 63 bd cd fc c6 bd 89 43 5a be 4e 46 3c 3d
       -0.055641 -0.09716187 -0.21314825 0.045965485
000040 05 84 62 3d f5 f7 9e 3e 01 4a 9d 3c ae cb 77 bd
       0.055301685 0.3104855 0.019200327 -0.06049698
000050 c0 a3 5b 3c 0c 8d e6 bc fc 8f d1 3d f0 b0 b9 3c
       0.01340574 -0.028143428 0.10232541 0.022667378
000060 6d 64 ae bd 1c 6e 3e be e6 71 4f be cc 14 53 3e
       -0.085152484 -0.18596691 -0.20258293 0.20613402
000070 1c 6a 4e be 85 87 4e be 9a 40 b8 3d 69 13 35 be
       -0.20157665 -0.20168884 0.08996697 -0.17683186
000080 df 43 67 be 15 10 37 3e 80 97 e9 bd 73 68 5e be
       -0.22584485 0.17877229 -0.114058495 -0.21719532
000090 67 8f 9a be 01 44 51 3d f6 65 81 3d a0 63 67 3e
       -0.30187532 0.051090244 0.06318276 0.22596598
0000a0 4d d8 24 be 21 15 b9 3c 12 f6 4d 3e e3 54 fe bc
       -0.16098137 0.022593083 0.201134 -0.031046337
0000b0 89 21 c9 bc aa 11 99 3e fc 47 02 be 9b f5 35 be
       -0.024552124 0.2989629 -0.12722772 -0.17769472
0000c0 aa 53 29 3c 37 e6 a4 bd 2e 7b 07 bd 01 00 a0 3d
       0.0103348885 -0.080517225 -0.033076458 0.07812501
0000d0 a4 28 06 3e 88 ac b6 bd 5d 4f 77 bd 7b 82 da 3d
       0.1310144 -0.089196265 -0.06037842 0.106694184
0000e0 b8 74 17 be 34 e3 b4 3d da dc 6f bd 2f ac a9 bd
       -0.14790618 0.08832398 -0.05856023 -0.082847945
0000f0 fc 68 05 be 06 56 53 3c a1 9d 21 bc c7 05 be 3d
       -0.1302833 0.012898928 -0.009864242 0.09278446
000100 d2 b6 9d 3d 66 50 b9 bd c3 0e 22 3e 8d c7 8b 3e
       0.07700886 -0.09048538 0.15825944 0.27300683
000110 d7 74 ae bd 08 90 08 3e fe e6 a7 3d 57 66 d0 bd
       -0.08518379 0.13336194 0.08198355 -0.1017577
000120 22 d5 f1 3d 39 4e 94 3c 1e e9 81 bd 1f ef 37 3d
       0.1180823 0.018103706 -0.06343292 0.044905778
000130 6d 1a 08 be 11 cc 49 ba 36 25 8a 3e 55 9e 0f 3d
       -0.1329133 -0.000769795 0.26981515 0.035063107
000140 18 49 17 3c b9 b7 86 3d b4 ea 89 3d fb 7b 00 3e
       0.0092337355 0.06578011 0.06734219 0.12547295
000150 3c 12 28 3e 76 47 82 3c ef 89 96 bc d4 61 82 bd
       0.16413206 0.015903216 -0.018376319 -0.063663155
000160 2f d4 47 bd ab ee 88 bc dc 26 c1 3d 67 b4 3b be
       -0.04878634 -0.016715368 0.0943124 -0.18330537
000170 00 5a 2a bc 17 4c a9 3d 1d 5b bf 3d fe 0f 2e be
       -0.010397434 0.08266466 0.0934355 -0.16998288
000180 ac 4d 26 be 6f 2b 34 be c8 83 70 3e 01 e5 b3 3d
       -0.16240567 -0.17594694 0.2348777 0.087839134
000190 6a 0f 3b 3e d4 3c 44 be 28 88 56 3e d4 25 22 3d
       0.18267599 -0.19163829 0.20950377 0.039586857
0001a0 ab d4 d4 3c ee dd 6f 3d 15 18 a7 3b d7 88 2d be
       0.025980314 0.058561258 0.0050993063 -0.16946732
0001b0 e9 7b 6e 3d d3 19 fd bd f2 89 df bd 18 c1 e4 3d
       0.05822364 -0.12358441 -0.10914983 0.11169642
0001c0 14 d6 2f 3d 25 7c 84 3d f2 91 11 bd 4e 8d da 3d
       0.04292877 0.06468991 -0.035539575 0.10671483
0001d0 ca 87 8d bd e0 e4 48 3a fb ac 03 be 55 d1 c7 3d
       -0.06910665 0.00076634996 -0.12858956 0.09756724
0001e0 3f 9d f9 3d d2 d0 af 3d 07 aa ad bd 34 3f c3 3d
       0.121881954 0.08584751 -0.08479696 0.095335394
0001f0 77 a2 c0 bd 6a c3 e4 3d 0b 98 48 bd 6c 6c 43 bc
       -0.09405988 0.11170085 -0.048973124 -0.011927705
000200 b1 07 f3 bc 80 3c 0b bd 0a 84 e1 3d 8b cc 22 bd
       -0.029666753 -0.033993244 0.110115126 -0.03974585
000210 b9 28 2b 3e 40 59 02 ba f6 ed 19 3e ad cc e4 3d
       0.16714753 -0.0004972406 0.15032181 0.11171851
000220 02 10 95 be d9 96 28 be ac dd 60 be 92 b7 ab ba
       -0.29113775 -0.16463794 -0.21959561 -0.0013100973
000230 21 3f d6 3d ba 9a a5 3d a7 32 81 3d 44 67 2d 3d
       0.1046126 0.080861524 0.06308489 0.04233481
000240 bd 10 85 bc ce ef af 3d 31 c5 0f 3e 92 c8 17 be
       -0.016243333 0.08590661 0.14040066 -0.14822605
000250 a0 f1 f5 3d 3d 17 05 be fc f9 b8 3d 5f ee d3 3d
       0.12008977 -0.12997146 0.09032056 0.103482
000260 0d 66 a6 3d 40 5f 32 be 7e 26 ee 3d 5d 9e 4b be
       0.081249334 -0.17419147 0.116284356 -0.1988463
000270 24 8a 8b 3d c9 4b 24 be dc 88 d2 3d 34 bf 34 3d
       0.068134576 -0.16044535 0.1028001 0.044127658
000280 90 b6 68 bd 3c 91 13 be ce 6a 0a 3e 81 a3 a5 bd
       -0.05681473 -0.14410871 0.13517305 -0.080878265
000290 38 9c 1e be 06 9a b0 3c 83 00 78 3d a9 11 1a be
       -0.1548928 0.02155782 0.060547363 -0.150458
0002a0 e5 9f 8e bd 81 e3 c8 bd 04 4a 16 bc 7c 7b ce 3c
       -0.06964091 -0.09809018 -0.00917292 0.025205366
0002b0 5b c8 0a 3d 09 a3 5e be e7 d9 f0 3c f5 2e f6 3c
       0.03388248 -0.2174188 0.029400779 0.030051688
0002c0 95 44 6e be 3b f4 80 3e 05 e2 7a 3d af f8 2e 3e
       -0.2326835 0.25186333 0.061250705 0.17087053
0002d0 70 b8 bc 3d cb 16 b3 bd 92 cc b8 bd 2a b1 33 3e
       0.09214866 -0.08744582 -0.09023394 0.17548051
0002e0 19 ee 43 3e 48 91 88 3d ca 6b 13 be 29 3e 0f 3e
       0.19133796 0.06668335 -0.14396587 0.13988556
0002f0 68 ac 0e be c4 31 29 be 07 df 53 3d bd 86 10 be
       -0.13932955 -0.1652289 0.051726367 -0.14113899
000300 b0 76 04 3e 6a bf b7 bd 8f 4e 5e bc ca 14 2c bb
       0.129359 -0.08972056 -0.0135685345 -0.0026257508
000310 31 2a fe bd 5f c3 66 bd 80 7d 98 3d 32 cc af 3c
       -0.12410391 -0.056338664 0.07445812 0.021459673
000320 5d 8f ea 3d aa ed 79 3e 01 8d 08 be bd 51 38 3d
       0.114531256 0.24407068 -0.13335039 0.044999827
000330 6d 5c 8c ba 27 8c 33 bd bc 7b d4 3d 1e cd 33 be
       -0.0010708697 -0.04383483 0.10375163 -0.17558715
000340 08 56 ca bd 50 5d 18 3d a6 8a 85 bd 30 47 ee bc
       -0.098796904 0.037198365 -0.06520586 -0.02908668
000350 c8 85 73 3e ea fa 27 3c 06 36 fe bc 31 a3 12 be
       0.23781502 0.010252694 -0.03103162 -0.14320065
000360 f9 49 15 be 9a c6 27 3b 1b 4d 0a be 12 0a fa bd
       -0.14579 0.0025600553 -0.13505976 -0.12208952
000370 74 ab 02 3d cb 34 1a 3e 68 52 da bd 32 38 5f 3c
       0.03190179 0.15059201 -0.10660249 0.013624238
000380 b0 75 2a 3e a7 05 21 3e 41 c0 02 be 9b e3 fd bb
       0.16646457 0.15724812 -0.12768652 -0.00774808
000390 8c 6e 20 be 48 4d 2b be 30 f6 bb bd 83 7a 6a bd
       -0.1566717 -0.16728699 -0.09177816 -0.057245743
0003a0 03 91 6b 3e 6b 83 59 3d 40 6e 26 bd b6 c1 91 bc
       0.23004536 0.053103846 -0.040632486 -0.017792564
0003b0 97 ab cb bd 9b 49 f0 bd f2 c3 dc 3c 9a f1 61 3e
       -0.099448375 -0.11732789 0.026948903 0.2206482
0003c0 f0 10 22 3e 81 2d eb bd d6 60 c5 3d d2 f0 bf 3c
       0.15826774 -0.114832886 0.096376106 0.023430262
0003d0 d7 5e 44 3e 06 ed e7 bc bb d0 0c 3e b6 aa 8c 3d
       0.19176804 -0.028311264 0.137515 0.06868498
0003e0 9f fe 84 3d 53 43 1b 3e a8 07 13 be fb 32 83 3e
       0.064938776 0.15162401 -0.1435839 0.25624833
0003f0 e9 eb 98 3d da df 6d bd ac c7 30 3e e7 f8 a0 3d
       0.07466871 -0.05807481 0.17263669 0.07859974

main.4.bias f4 [2048]
000000 dc a3 1c 3d 5c ba 7f 3e 89 de 6a 3d f5 e2 80 be
       0.038242206 0.24973434 0.057341132 -0.25173154
000010 f9 db 1d be 7d 74 16 3e 9d 67 cd 3d e4 5f 12 be
       -0.15415944 0.14692874 0.10029528 -0.14294392
000020 5b 13 b7 3d 9c 77 56 be 70 32 cc bd c7 31 b2 bd
       0.08939239 -0.20944065 -0.09970558 -0.087009005
000030 5b 7d 25 be 8a 80 fe bd 5b 9e 96 be 75 74 cd bd
       -0.161611 -0.12426861 -0.2941769 -0.10031978
000040 a4 40 70 bd 60 5d 80 3c ed 9c 18 be 66 32 18 3d
       -0.058655396 0.015669525 -0.14903612 0.03715744
000050 e6 46 78 be 41 32 dc 3d 83 f0 a3 3d 35 a0 e2 bd
       -0.24245796 0.10751773 0.08004858 -0.11065713
000060 9d 45 39 3e 23 71 8c be 37 a6 05 be 20 20 1d be
       0.18092962 -0.27430066 -0.13051687 -0.15344286
000070 22 28 cb 3d bf ee 41 be 20 4b 5d be a3 9c 56 bd
       0.09919764 -0.1893873 -0.21610689 -0.052395474
000080 a9 c3 5f be 69 4f b5 bc da 9b 04 be 82 41 bf bd
       -0.21851982 -0.022132592 -0.12950078 -0.093386665
000090 84 bb 69 be 9e dd cb bd 1f c7 20 3d d2 05 10 bc
       -0.22825438 -0.099543795 0.039252397 -0.00879045
0000a0 cb ac 0f be 0b 18 b2 3d 8a 83 31 3a cc 75 f8 bd
       -0.14030759 0.08695992 0.0006771615 -0.12131843
0000b0 46 ba f3 3d d2 80 06 3c 20 50 2f be fd 87 9e 3d
       0.11900763 0.008209424 -0.17120409 0.077407815
0000c0 ec ac 52 be fd c1 df 3d 94 78 04 3d 89 9c 87 3d
       -0.20573777 0.10925672 0.032341555 0.066216536
0000d0 30 1f 1c be 22 46 1d 3e db 85 61 be 72 3a 25 3c
       -0.15246272 0.15358785 -0.22023718 0.010084735
0000e0 a7 c6 98 bd dc d9 5b be 60 62 f7 3d 2b 5c b8 bd
       -0.07459765 -0.21469826 0.120793104 -0.09001955
0000f0 d0 b2 f7 3d de d8 41 be 80 9b e4 bd 77 c1 6a be
       0.12094653 -0.18930385 -0.11162472 -0.22925363
000100 4a 0c ff bd fc 85 b4 bc 5c ed 1f be db 30 91 3c
       -0.12453516 -0.022036545 -0.15617889 0.017723491
000110 f9 32 85 3e 0d 2a 4a 3e a0 a6 85 bd 2a a9 f2 3b
       0.26015452 0.19742604 -0.06525922 0.00740542
000120 8c 7c 89 bd fd ac e1 3d e7 46 11 be 00 5c 02 3e
       -0.067132086 0.11019323 -0.14187203 0.12730408
000130 74 80 24 be 77 35 61 3e af c1 cf 3d 5d ef 6d 3e
       -0.16064626 0.21993051 0.10144364 0.23235841
000140 19 f1 41 3d 7c 0d f8 3c a1 d0 8a 3d 4c 67 99 3d
       0.04734907 0.030279867 0.06778074 0.074904054
000150 f7 2a 85 3e f3 d8 e7 3d ee 4b eb 3d 68 6d 0a be
       0.26009342 0.11320677 0.11489092 -0.13518298
000160 ca a5 fb 3d 15 b8 ed bc 2d 40 65 3e a3 8c 44 3e
       0.12287481 -0.029018441 0.22387762 0.19194274
000170 80 da 7f 3e 20 b3 95 bc 55 f0 47 3e 9d ff 00 3e
       0.24985695 -0.01827389 0.19525273 0.12597509
000180 96 ab ab bd 19 43 2e 3e 74 bc 18 3e 9a 4d 09 3c
       -0.08382337 0.17017783 0.14915639 0.008380318
000190 df 9e a6 bd 7c 6e 39 3e 1f e9 bb 3d 31 0f 0a bd
       -0.08135771 0.18108553 0.09175324 -0.033705894
0001a0 63 8a 48 3e 77 54 9d bd 42 1f fe 3d be 05 f5 3d
       0.1958404 -0.07682126 0.12408306 0.11963986
0001b0 07 b0 1c bc 18 9d 58 3e 41 d6 01 3e 61 a7 15 bd
       -0.009563453 0.21153677 0.12679388 -0.036536578
0001c0 4a ce 2a 3d d9 41 f6 39 e0 a8 08 bd a0 3e fc bc
       0.04170064 0.00046969837 -0.033364177 -0.03079158
0001d0 97 a4 0e 3e 24 80 44 be 99 1b 1b be 39 0d 84 3e
       0.13929974 -0.19189507 -0.15147246 0.25791338
0001e0 ee ce 3b be e2 27 4b 3d 06 7d 98 bd 62 e1 9d 3d
       -0.18340656 0.049598582 -0.07445721 0.07709004
0001f0 1d c5 88 3e d9 48 83 bd c5 4c 1f 3e 39 44 b7 3d
       0.26712885 -0.06410379 0.15556629 0.08948559
000200 fd 15 d6 bd 8f 92 28 be ea 62 35 3e dc 80 6d bd
       -0.10453413 -0.16462158 0.17713514 -0.057984218
000210 22 0c ca ba 62 eb 2e be ba e7 df bc ed d0 11 3c
       -0.0015414993 -0.17081979 -0.027332176 0.008899909
000220 23 bd 61 bd 6e 0a 05 3c a7 03 43 3e 26 7c 18 3e
       -0.055112015 0.008120162 0.19044362 0.14891109
000230 14 94 2c 3d 5e 82 16 be e9 f2 77 3d 6a 93 58 3d
       0.042133406 -0.14698169 0.06053439 0.05287496
000240 d9 11 83 3a 18 bc 84 be 9f 5a ed 3d 94 60 17 3e
       0.0009999826 -0.25924754 0.1158955 0.14782935
000250 d3 a2 d9 bb e6 37 58 be 5b 26 bb 3d 95 ea 38 bd
       -0.0066417246 -0.21115074 0.09138175 -0.04514559
000260 18 10 2e 3e 58 3b f6 bc f7 27 d9 3d f2 c2 4a be
       0.16998327 -0.030057594 0.10603326 -0.19800928
000270 9f 48 a0 bd 4c 2d 27 3d d0 a4 b8 3d 9f fe b8 3c
       -0.078263514 0.040814683 0.090158105 0.02258235
000280 e7 87 d3 bd f9 1d a1 3d 9a 5d 2a 3e 0c d1 56 bc
       -0.10328656 0.07867045 0.16637269 -0.013111364
000290 23 8b 5d bc f4 ec 91 bc 05 ef 29 be fe 0f 1a be
       -0.013521942 -0.017813183 -0.16595085 -0.15045163
0002a0 9c 96 8e bd 0c 4b 05 be 5e 01 d6 bd 2f 59 3b be
       -0.0696232 -0.1301691 -0.104494795 -0.1829574
0002b0 2f 10 44 bd 2f 10 89 3d 5d b3 7d bd 23 34 a0 bc
       -0.047866996 0.0669254 -0.061938632 -0.01955611
0002c0 98 a6 b2 bd 0e 3a fd 3d a8 a5 32 bd 5e 64 51 3e
       -0.087231815 0.12364589 -0.043615013 0.20448443
0002d0 9c ad d7 3c e6 d1 0a 3d 38 36 24 3d 52 0b cf bd
       0.0263279 0.03389158 0.04009077 -0.10109581
0002e0 f0 4c 90 3d 11 11 5f 3d 98 d9 df 3d 2d b5 ef bd
       0.07045925 0.054459635 0.109301746 -0.117044784
0002f0 29 83 39 be 34 35 96 bd ee 91 96 bd bc 3a 4d 3e
       -0.1811644 -0.073343664 -0.07352053 0.20041937
000300 3f 77 10 3e 8b fb 9a 3e 7d d9 65 be 87 70 1c bd
       0.14107989 0.30270037 -0.22446246 -0.038193252
000310 25 6e 76 3d 2a 24 03 3d 48 f7 01 be 8c 3f 86 3b
       0.060163636 0.03201691 -0.12691987 0.004096931
000320 d3 45 3f 3e ca 99 2a 3e 1f 7d 49 3e e1 8f fe 3d
       0.1867898 0.16660228 0.19676636 0.124297865
000330 76 0a c8 3d b3 ef a4 bc b1 1c 40 bd e2 f5 8a 3e
       0.0976762 -0.020133829 -0.046902362 0.2714072
000340 9a f4 fc bd c8 f4 24 3e f6 60 2b 3e fc 06 37 bb
       -0.123513415 0.16109002 0.16736206 -0.0027927747
000350 ed 13 a1 3d ba a0 76 3d 1a 27 4d 3e ac 41 05 3e
       0.07865129 0.060211875 0.20034447 0.13013333
000360 fb 87 4d 3e 61 65 98 3d 7e 07 27 3e d3 df 7a 3e
       0.20071404 0.074412115 0.16311452 0.24499445
000370 e9 67 05 3e 73 b7 0e be 4d dd 4c 3d d3 cc e3 bd
       0.1302792 -0.13937168 0.050015736 -0.111230515
000380 07 38 85 3d 07 eb 14 3e 06 f8 84 3e b7 be ad bd
       0.06504827 0.14542781 0.25970477 -0.084836416
000390 63 16 3f 3e 8e 20 5b bd 80 fc 32 3e e9 ac d5 3c
       0.18660884 -0.053497843 0.17479134 0.026083427
0003a0 e2 cd b0 3c e3 a1 44 bd 6f 9a 3f 3e 63 23 17 be
       0.021582548 -0.04800595 0.18711255 -0.14759593
0003b0 82 f8 04 be 18 e5 3a 3e 80 f3 82 3e df de 87 3d
       -0.12985423 0.18251455 0.255764 0.06634306
0003c0 c6 6f 91 3b d2 36 9d 3d cf 93 42 bd f4 d5 fa bd
       0.0044383733 0.07676472 -0.047504243 -0.122478396
0003d0 5d 0b 2c 3e d7 7d 49 3e 79 24 7f bc 4a bd 9e bd
       0.1680121 0.1967691 -0.015572661 -0.07750948
0003e0 96 86 ab 3d e0 bc 41 3e 02 38 9b 3d ac 28 c3 3d
       0.083752796 0.18919706 0.07579042 0.09529242
0003f0 93 8f 81 3e 66 ea 52 3e 02 6d cc 3c 64 e0 61 3c
       0.2530485 0.20597228 0.024954323 0.013786409

conv.0.weight f4 [20, 1, 5, 5]
000000 95 9c 7b be 6e 25 e2 bd 76 52 3d 3d b4 a0 e4 bc
       -0.2457145 -0.110422954 0.04622122 -0.02790866
000010 3e 11 a7 be a0 b5 0a be 0c 68 cf bd dc ec 25 be
       -0.32630342 -0.13545847 -0.10127267 -0.16203636
000020 68 b5 6a 3d 82 a8 7f bd 4c 1a aa bc 0c bd 2e bc
       0.05730191 -0.06241656 -0.020764492 -0.0106651895
000030 6d 87 a3 bd df 1b 18 3e ac 8e 0f be d2 04 ef bc
       -0.07984815 0.14854382 -0.14019269 -0.029177103
000040 6d 2f 06 3e d4 79 0f 3d f5 58 60 3d 15 83 a2 3d
       0.13104029 0.035028294 0.054772336 0.07935158
000050 34 67 16 be a3 3a df bc de d1 62 bc f4 42 52 3d
       -0.14687806 -0.02724964 -0.013843982 0.051333383
000060 8b 74 a8 bd f2 c8 0a 3e 44 84 5f 3c ee e0 35 3c
       -0.08225354 0.13553217 0.013642374 0.011100991
000070 a9 fe 24 3e d7 17 4b be 82 3a bc 3b bd 16 23 be
       0.1611277 -0.19833313 0.0057442794 -0.15926643
000080 3f f4 0f be be df 66 bd 98 8d 6c 3d 9a 65 c8 bd
       -0.14058016 -0.05636572 0.05775222 -0.09785004
000090 4a ed b5 bd d6 11 8b bc 13 92 9f 3d a5 28 0f be
       -0.0888315 -0.016976278 0.07791533 -0.13980348
0000a0 71 a0 37 be f2 87 2f be a0 33 a9 3d af b5 38 3d
       -0.17932297 -0.17141703 0.082618 0.045095142
0000b0 90 1d 13 be d6 ce 30 bc 9c fa d0 bd 64 92 28 3d
       -0.14366746 -0.010791501 -0.1020405 0.041155234
0000c0 b1 df 9c 3c 15 5c 67 3d 09 38 b2 bd b0 ed 86 3d
       0.019149633 0.0564843 -0.08702094 0.06588304
0000d0 f4 81 41 3c 29 cc 90 3e ed b9 25 3e 74 f2 96 3e
       0.011810768 0.28280762 0.16184206 0.29481852
0000e0 f2 9e 4c 3e 5d ff 73 bd 43 de ed 3d c7 ac 80 3e
       0.19982508 -0.059569705 0.11614659 0.2513182
0000f0 99 3f 06 3c fd 76 0e be 48 2c 4a 3e b5 5d d6 bd
       0.008193874 -0.13912578 0.19743454 -0.10467092
000100 70 d2 59 3d dc f8 3d bd 44 59 38 3e 77 61 e9 3d
       0.053179204 -0.04637991 0.18002802 0.11395543
000110 38 a2 7f bc ca 6e 0f 3e 9b 4a 20 3e 4b 75 01 bd
       -0.015602641 0.14007106 0.1565346 -0.031606
000120 94 78 31 be 24 cc 86 3d cb 0d 09 3e b9 d7 5a 3d
       -0.17331153 0.065819055 0.13384168 0.053428385
000130 55 46 3f bd 07 4b c7 3d 46 cd 24 3d 99 9c 16 bc
       -0.046697933 0.09731107 0.040234827 -0.009192609
000140 e4 fd 6a bd f8 59 e7 3d df 6c 02 3e 6b b4 54 3d
       -0.057371035 0.11296457 0.12736844 0.051929872
000150 a9 3f 3c bd 05 20 80 3d a2 7c 2e 3e b0 e7 1a 3e
       -0.04595915 0.06256107 0.17039731 0.15127444
000160 4a fe 4f 3e a1 79 24 3e fb a7 ed 3d 09 78 0a 3e
       0.20311847 0.16062023 0.11604305 0.13522352
000170 2a 11 ec 3d 46 fb 04 3e 82 d6 13 3e 00 f2 ed bc
       0.11526711 0.12986478 0.14437297 -0.029046059
000180 d5 75 1c 3e 53 6f 40 bd c7 42 02 bd 08 b4 ff 3d
       0.15279324 -0.046981167 -0.031801965 0.1248551
000190 84 44 44 3d 39 a6 70 3d 84 ba bc 3c 14 25 97 bd
       0.047916904 0.058752272 0.023038156 -0.07380119
0001a0 ce ff 59 3d da b5 98 3d ff 3b 70 3d d1 45 49 3e
       0.05322247 0.074565604 0.058650967 0.19655539
0001b0 18 f9 d0 bc be de 0f 3e 9b 14 1f bc 2c 37 8a bd
       -0.025509402 0.14049813 -0.009709503 -0.067488045
0001c0 60 e9 46 3e 65 a1 b9 3d e1 c0 b8 3d 36 cd e9 3d
       0.19424963 0.09063987 0.09021164 0.11416094
0001d0 8c 70 e4 bd b4 85 63 3c 7e 25 01 bd 1b 8d 9e 3d
       -0.11154279 0.013886858 -0.031529896 0.077417575
0001e0 1c 32 d5 3d 57 2f e0 bd 2b ea f3 3c 69 d0 2d 3d
       0.10409948 -0.10946529 0.029774746 0.042435084
0001f0 bd 71 1c be 2f 88 ad bd ae fe de 3d 5f 5b 19 bd
       -0.15277763 -0.084732406 0.1088842 -0.037440654
000200 55 be 00 bd 66 b1 5b be 0c 6b cf bd 74 31 0e be
       -0.031431515 -0.21454391 -0.101278394 -0.13886052
000210 fb e6 62 bd 38 9d ff 3b 5d ad 22 be 40 f7 b5 3c
       -0.05539606 0.0078007244 -0.15886445 0.022212625
000220 f8 d5 d1 3d 12 36 1d be ca cc e8 3d 6b ba 38 3e
       0.102458894 -0.15352657 0.113671854 0.18039863
000230 ea cf 84 bd 51 cb 20 3e 7a 12 d1 3c 04 b8 9d bd
       -0.06484969 0.15702559 0.025521506 -0.07701114
000240 25 2a 1c 3e 31 ee af bd f1 42 34 3e d5 93 a4 3b
       0.15250452 -0.08590353 0.17603661 0.0050225058
000250 9d 15 e7 bd 1c 3f 74 3d de f7 45 bc 17 66 46 bc
       -0.11283419 0.0596305 -0.012083022 -0.012109301
000260 13 96 0a 3d e7 d0 2a 3d e0 3e 9a 3d 6c d4 c0 bb
       0.03383453 0.04170313 0.07531524 -0.0058846977
000270 99 4d a4 3d 5c 02 fb 3d bd 3a bc 3d e9 4f 14 bd
       0.08022613 0.122563094 0.09190891 -0.03620902
000280 b7 dc 10 3d be 08 f9 3d 52 f1 11 3e b6 ca 2f bb
       0.03536674 0.121598706 0.14252213 -0.0026823706
000290 34 19 b6 3d a9 ad e1 3d 59 96 21 3e 94 49 e7 3d
       0.08891526 0.11019451 0.1578001 0.11293331
0002a0 d4 a0 93 bc da 3d 94 3d 99 f8 0f 3e a1 64 a4 3d
       -0.018021025 0.0723836 0.14059676 0.08027006
0002b0 cd 0c bc 3d 2a 3c 0a 3e 06 96 d5 3d 79 2f f6 bd
       0.09182129 0.13499513 0.10429005 -0.120207734
0002c0 f2 cb 38 3b 01 7f ea bc 1c 57 1f 3c 48 d5 17 be
       0.0028197733 -0.028625013 0.009725358 -0.14827454
0002d0 06 12 cc bd 03 e2 06 be 8d e7 97 bd 2e 82 09 be
       -0.09964375 -0.13172154 -0.07417212 -0.13428566
0002e0 26 1f 40 3d 44 ea 3d bd 25 79 0c be c6 97 c3 3c
       0.046904705 -0.04636599 -0.13718088 0.023876082
0002f0 72 46 b8 3d a6 7b 1d be b9 d7 ec bd e9 29 96 3d
       0.089978114 -0.153792 -0.11564583 0.073322125
000300 a4 de 15 be c9 67 b4 bd 4d a4 cf bd 03 01 fe 3c
       -0.14635712 -0.08808858 -0.1013876 0.031006342
000310 9b c9 81 3d cf 97 53 be 16 f6 65 3d bd 64 7d be
       0.06337281 -0.20663379 0.05614289 -0.2474546
000320 a9 26 2a bd 31 83 42 be e4 ab b8 3d 6e 34 04 bd
       -0.041540775 -0.18995358 0.090171605 -0.032276563
000330 75 fb e1 bc 1f d8 0b bd 96 08 0b 3e 14 a0 7a 3e
       -0.027585724 -0.034141656 0.13577494 0.24475127
000340 ec 78 44 bd 43 d2 99 3d 50 2f e3 bc 99 76 1c 3d
       -0.047966883 0.07510807 -0.027732521 0.03819904
000350 89 9c bc bd cc 01 95 bd 29 74 d4 3d 44 45 21 3e
       -0.09209544 -0.07275733 0.10373718 0.15749079
000360 c9 b0 0b be d6 8a e9 3d 8a b2 1d bd 30 33 97 bb
       -0.13641657 0.11403434 -0.038500346 -0.0046142563
000370 aa aa 76 bd d4 fb f4 bc 62 90 f2 3d 17 f4 fd 3c
       -0.06022135 -0.029905237 0.11843945 0.03100018
000380 80 71 31 be 75 54 41 bd 89 cf 80 3d e1 49 c8 3b
       -0.17328453 -0.047199685 0.06289584 0.0061123227
000390 5f 71 b9 3d 74 b1 8a 3d 5c f5 e5 3c 2a 73 58 3e
       0.09054827 0.06772128 0.028071098 0.21137682
0003a0 df 3c 87 3c 36 5f 38 bd e7 f1 f9 3d bc 61 85 3e
       0.016508518 -0.045012675 0.12204342 0.26051128
0003b0 af 4f 6e 3e 90 f9 72 3e 15 56 05 3e 4c 26 04 3e
       0.23272584 0.23728013 0.13021119 0.12905234
0003c0 cc d5 05 bd 97 35 67 3e b4 d6 1f 3e 4b 07 45 3e
       -0.032674596 0.22579037 0.15609246 0.19241063
0003d0 f5 e3 3d 3d aa 5e 18 3d e5 ef 82 bc 15 a8 45 3c
       0.046359975 0.037199654 -0.015983531 0.012064
0003e0 48 9e 1e bc 7b 34 ba 3d eb 38 bc bd a3 d2 b4 bd
       -0.009681292 0.09092041 -0.09190544 -0.08829238
0003f0 a6 73 4d bd 01 4c 82 bd c0 ee 89 bd 25 01 0b be
       -0.05015912 -0.06362153 -0.06734991 -0.13574655

conv.0.bias f4 [20]
000000 c7 b9 82 3e 20 67 7b bd ea 75 15 3c 7b 18 2e be
       0.25532362 -0.061377645 0.009122351 -0.17001526
000010 d2 bb 11 3e 4d f4 91 3e de 32 80 be 37 45 0c be
       0.14231804 0.285067 -0.2503881 -0.13698278
000020 63 0a 06 3e f5 98 c1 3d 57 66 4d 3e 8d 38 13 be
       0.130899 0.09453002 0.20058571 -0.14377041
000030 83 dd 06 3e dc 0c 1f be 81 e3 c4 bc cd a9 ad bc
       0.13170438 -0.15532249 -0.024034264 -0.021199131
000040 9b 6c 48 3e 2c 51 21 3e 51 d4 0b 3e 75 5b 34 3d
       0.1957268 0.15753621 0.13655211 0.044032533

conv.2.weight f4 [20]
000000 84 97 66 3f 9d 61 69 3f 01 9b 72 3f 18 55 94 3f
       0.90074944 0.9116457 0.9476777 1.1588469
000010 0b 2c 72 3f 78 c4 65 3f 02 b0 91 3f 47 9c 80 3f
       0.94598454 0.8975291 1.1381838 1.0047692
000020 1e 72 61 3f a8 62 90 3f 85 2f 98 3f 8e 7b 72 3f
       0.88064754 1.1280107 1.1889502 0.9471978
000030 88 df 8f 3f 89 14 7e 3f bf e1 8a 3f b3 f9 61 3f
       1.1240091 0.99250084 1.0850142 0.88271636
000040 72 67 6f 3f 63 4d 97 3f 84 6d 66 3f f2 89 64 3f
       0.9351722 1.1820492 0.9001086 0.8927299

conv.2.bias f4 [20]
000000 92 5d 2b 3e 77 58 04 3e 56 2e ed 3d 48 af 15 be
       0.16734913 0.12924372 0.115811035 -0.14617646
000010 29 6c 05 3e 9e 4b 24 3e 8c 59 10 be ac ed 14 3e
       0.13029541 0.1604447 -0.1409666 0.1454379
000020 6b c9 0c 3e 33 0c f9 3d 2c ee fb bd ce c2 24 3e
       0.1374871 0.1216053 -0.12301287 0.16089937
000030 d8 4c f0 bd 98 7d 1e 3e 60 ca 27 be b2 8e 10 3e
       -0.11733407 0.15477598 -0.16385794 0.14116934
000040 bc 1b fe 3d 54 67 ee bd 42 f3 0c 3e f9 d0 e9 3d
       0.12407634 -0.11640802 0.1376467 0.114168115

conv.2.running_mean f4 [20]
000000 cd d7 d3 3d 93 c5 0e bd 52 fe b2 3e 36 ae 55 3e
       0.10343895 -0.03485639 0.34959656 0.20867237
000010 52 be 9b 3e 0c 01 85 3e 78 ce e1 3d ad 9f b1 bd
       0.3041864 0.2597736 0.11025709 -0.08673034
000020 63 06 2f 3e 49 30 05 3f 2b b9 33 bd a7 4c b1 bd
       0.1709228 0.520268 -0.04387776 -0.086571984
000030 9d 92 02 bd 23 6f ba bd b0 f7 23 3d 7c db d1 3b
       -0.031878103 -0.09103229 0.040031135 0.0064043384
000040 9f d4 9f 3e 13 28 3f bd 5e b6 94 3e 53 aa 88 3e
       0.31216905 -0.046669077 0.29045385 0.26692447

conv.2.running_var f4 [20]
000000 7f 82 ad 3c 87 d7 71 3b 07 a2 90 3d 4c 18 12 3d
       0.02118039 0.0036902146 0.07062154 0.035667703
000010 bc e5 f8 3c 8d 20 0e 3d aa e4 9d 3c 8d 9b 02 3b
       0.030382983 0.03469901 0.019274075 0.0019929141
000020 f8 52 d8 3c 76 46 80 3d e4 81 d1 3b 1a cc f9 3a
       0.02640675 0.06263439 0.006393658 0.0019058019
000030 f8 d3 98 3b 41 e3 ed 3a 47 7d 91 3c 53 4a 3f 3c
       0.0046639405 0.0018149392 0.017759932 0.011675435
000040 96 c9 10 3d 9a 0e a1 3b e3 e5 07 3d c5 9f 45 3d
       0.035348497 0.0049150707 0.03317822 0.04824807

conv.3.weight f4 [1, 20, 5, 5]
000000 bc 8b c6 bd bf 8f cc bd d1 83 a5 bd db 08 e3 bd
       -0.09694621 -0.09988355 -0.080817826 -0.110856734
000010 bf 8a cb bd 8e 9c 14 be 75 28 2c be 06 14 fd bd
       -0.09938573 -0.14512846 -0.16812308 -0.12357335
000020 13 4c 16 be f1 a4 fd bd c1 b7 2c be f3 19 1a be
       -0.14677458 -0.12384976 -0.16866972 -0.15048961
000030 64 cd 5a be 81 1a 62 be 5a bf 49 be f2 b4 ec bd
       -0.21367413 -0.22080423 -0.19701901 -0.1155795
000040 cb 07 94 bd 70 02 dc bd eb 46 cb bd 0e fe b9 bd
       -0.07228049 -0.107426524 -0.09925636 -0.0908166
000050 20 7d 5b bd 72 e2 f9 bc d5 87 34 bd 50 0d 90 bd
       -0.053586125 -0.030503485 -0.044074852 -0.07033789
000060 44 77 0c bd 3d f1 c4 bd 95 a0 f4 bd b3 c5 0d be
       -0.034293428 -0.09616325 -0.11944691 -0.13844948
000070 4f 37 fe bd c4 7d a4 bd 41 32 b1 bd df 8d e4 bd
       -0.12412893 -0.080318004 -0.08652163 -0.11159872
000080 b1 df 38 be a8 86 df bd ff 46 0f be d6 d7 01 be
       -0.18054081 -0.109143555 -0.13991927 -0.12679991
000090 65 d7 12 be 0d ed 38 be ac 87 32 be 1d 9d 1d be
       -0.14339979 -0.18059178 -0.17434567 -0.15391965
0000a0 73 43 19 be f0 09 02 be df d4 27 be f9 92 a3 bd
       -0.14967136 -0.12699103 -0.16389798 -0.07987017
0000b0 15 e5 ae bd 76 02 df bd c0 3e 91 bd bd 6a ed bd
       -0.08539788 -0.10889141 -0.07092047 -0.11592624
0000c0 82 de f0 bd 49 9e 08 be bd db a9 bd 84 bc cb bd
       -0.1176119 -0.13341631 -0.08293865 -0.09948066
0000d0 06 b3 6c bd ed 1b a3 bd 10 24 03 be 90 33 d7 bd
       -0.057787918 -0.07964311 -0.12806726 -0.10507882
0000e0 f1 c1 dd bd 4e c1 8e bd ef 5b 32 be 5a d9 32 be
       -0.10828007 -0.06970464 -0.17417882 -0.17465726
0000f0 11 9b bf bd 46 cf c7 bd 5e 1c f7 ba a3 d9 7b bd
       -0.093557484 -0.09756331 -0.0018853059 -0.06148685
000100 d0 5d af bd bf f0 ce bd 0a ae d8 bd ac b9 cf bd
       -0.08562815 -0.101045124 -0.1058007 -0.10142836
000110 4d f3 f7 bd 11 b2 ef bd b2 a4 d9 bd 58 83 a7 bd
       -0.12106953 -0.11703885 -0.10627116 -0.08179349
000120 45 31 24 bd ed e3 f3 bd 3d 8c a1 bd 78 cd 3c 3d
       -0.04008605 -0.11908708 -0.078880765 0.046094388
000130 57 86 ee 3c 49 c4 69 3d 92 fe 7f 3d 29 a1 4e bd
       0.029116793 0.057071958 0.062498637 -0.050446663
000140 5f 32 be 3d ab 08 9f 3d a7 00 0f 3e 6f 69 1e 3e
       0.09286951 0.07765325 0.13965093 0.15469907
000150 67 f5 8f 3d d6 86 00 3e a1 11 3b 3e 3b 24 1a 3e
       0.07029229 0.12551436 0.18268444 0.15052883
000160 38 4e 18 3e c2 1b 30 3e b2 3d b8 3d 64 be 2a 3e
       0.14873588 0.17198089 0.089961424 0.16674191
000170 b7 5d 1f 3e 86 8f 0a 3e 2e 95 ae 3d 5f a5 dd 3d
       0.15563093 0.13531312 0.085245475 0.10822558
000180 a5 1a 48 3d 62 ce 14 3e c9 7c a2 3d e3 d5 0c 3d
       0.048853535 0.14531854 0.07933957 0.034383666
000190 2d 09 17 be ab 56 c9 bd 9a 8f be bd 62 dd df bd
       -0.14749594 -0.09830984 -0.093047336 -0.10930897
0001a0 b3 86 21 be 02 7c 11 be 02 d4 01 be d0 0d b4 bd
       -0.1577404 -0.14207461 -0.12678531 -0.08791697
0001b0 e7 52 e8 bd 7d 41 06 be 11 53 c7 bd 61 1f 14 be
       -0.11343937 -0.1311092 -0.097326405 -0.14465095
0001c0 b8 4a 0d be 07 e8 e5 bd 8d 1d cd bd 6d 78 00 be
       -0.13798034 -0.11225896 -0.10015402 -0.12545939
0001d0 52 64 1d be 09 7d 10 be 0b 6d ff bd 7b 37 9d bd
       -0.153703 -0.14110197 -0.1247197 -0.07676598
0001e0 a9 54 0b be 9c 3e 06 be 54 ce ea bd 43 04 21 be
       -0.13606514 -0.13109821 -0.11465135 -0.15724282
0001f0 b4 26 05 be 2a a5 11 be 30 56 27 be 95 85 28 be
       -0.13003045 -0.14223161 -0.16341472 -0.16457208
000200 ae 6c 2c be e5 50 0c be be cc f7 bd 5d c5 e6 bd
       -0.16838333 -0.13702734 -0.12099598 -0.11268113
000210 15 22 ea bd 8b df de bd 14 56 ad bd 7f a0 0f be
       -0.11432282 -0.10882481 -0.08463684 -0.14026068
000220 c4 1d e8 bd bd ca 18 be 97 45 2b be 3b bd 11 be
       -0.11333802 -0.14921089 -0.16725765 -0.14232342
000230 76 82 80 bd 38 80 df bd e1 27 db bd 44 18 ea bd
       -0.062748834 -0.10913128 -0.10700966 -0.114304096
000240 4e 6e bd bd 7a dc f6 bd aa 26 e5 bd 16 9b d2 bd
       -0.092495546 -0.12053771 -0.11189015 -0.102834865
000250 88 bf 88 bd 36 9a 57 bd 9e 75 91 3d ae c1 d3 3d
       -0.06677157 -0.0526373 0.07102512 0.10339676
000260 58 0f d4 3d 7b db f5 3d f1 03 a8 3d ed f2 04 3e
       0.10354489 0.12004753 0.08203877 0.12983294
000270 60 28 1b 3e f1 2a b5 3d fd 7f cf 3d c7 85 0c 3e
       0.1515212 0.08846081 0.10131834 0.13722907
000280 24 b1 22 3e aa bd c4 3d 11 ac 1d 3e b1 39 1d 3e
       0.15887886 0.09606488 0.1539767 0.15354039
000290 ca 72 03 3e fe 48 d2 3d 65 1e a6 3d 52 a1 04 3e
       0.12836757 0.102678284 0.08111266 0.12952164
0002a0 e6 6b ef 3d 44 e0 f8 3d a7 61 b0 3d bd 19 b6 3d
       0.11690502 0.1215215 0.08612376 0.08891628
0002b0 01 0f d3 3d 3e 96 94 3d 87 ff f1 3d cf 2b cb bd
       0.10305596 0.07255219 0.11816316 -0.09920465
0002c0 0f 1d cf bd 01 90 09 be 4c 7a 25 be aa 8a 8a bd
       -0.10112964 -0.1343384 -0.16159934 -0.06764729
0002d0 d4 ef d8 bd 41 36 0b be 66 c5 d2 bd b6 b9 cc bd
       -0.105926186 -0.13594915 -0.10291557 -0.09996359
0002e0 da 59 38 be e8 20 1a be 7a 36 3d be 93 7e 31 be
       -0.18003026 -0.15051615 -0.18477812 -0.1733344
0002f0 62 d2 1f be 86 2d 1a be 22 a3 cb bd 33 79 f8 bd
       -0.15607598 -0.15056428 -0.099432245 -0.12132492
000300 0b 52 d1 bd b5 29 ea bd e9 b6 9b bd 4f 23 8e bd
       -0.102207266 -0.11433736 -0.07603247 -0.06940328
000310 27 50 8b bd ad 8a af bd e1 b2 84 bd 19 1f d6 bd
       -0.06802397 -0.08571372 -0.06479431 -0.1045515
000320 27 ae ce bd ae 94 93 bd 80 c6 d1 bd 73 52 d1 bd
       -0.10091811 -0.07206093 -0.10242939 -0.10220804
000330 87 3f e6 bd b0 18 13 be 2e 6e e6 bd a1 c6 f8 bd
       -0.11242586 -0.14364886 -0.11251484 -0.121472605
000340 2f fc bf bd cf 7a 29 be 53 a9 15 be 61 29 e9 bd
       -0.09374272 -0.16550754 -0.14615373 -0.113848455
000350 4f a9 42 be 3d 44 2e be f4 e9 02 be bc 5d 10 be
       -0.19009899 -0.17018218 -0.12784559 -0.14098257
000360 c7 d8 36 be 8f 8f 25 be d4 7b cf bd 3a 63 1d be
       -0.17856131 -0.16168045 -0.1013104 -0.15369883
000370 c3 62 a6 bd ff 7c de bd 01 c1 cb bd 48 bd df bd
       -0.08124306 -0.10863685 -0.09948922 -0.109247744
000380 90 03 fb bd 07 79 ab bd 3d b7 a2 bd 4f f7 1b be
       -0.12256539 -0.083726935 -0.07945106 -0.1523106
000390 ba 7d b2 bd c0 0e 2c be 92 11 db bd 74 e5 cf bd
       -0.08715387 -0.16802502 -0.10696711 -0.101511866
0003a0 71 a6 a5 bd e0 0e 1a be 4c 13 de bd f1 bf 11 ba
       -0.08088387 -0.15044737 -0.10843524 -0.00055599125
0003b0 e4 be 80 3b 9a da c7 3d 2e 5e c3 3c b4 33 0b bc
       0.003929006 0.09758492 0.02384862 -0.008496214
0003c0 c8 af b6 bd 9b 87 e3 bd 6a 2b c1 bd 23 97 94 bd
       -0.08920246 -0.11109849 -0.09432109 -0.072553895
0003d0 ca 70 0e be d6 43 cf bd 50 05 d8 bd 90 8f d2 bd
       -0.13910213 -0.101203606 -0.10547888 -0.102812886
0003e0 19 96 db bd d9 53 f5 bd 21 02 8f 3d b0 b9 b5 3d
       -0.10721988 -0.11978883 0.06982828 0.08873308
0003f0 65 4b de 3d 8a b9 c4 3d 0b 67 d5 3d 91 58 bb 3d
       0.10854224 0.09605701 0.104200445 0.09147752
