caches/cache_11_14_big/param2img4.pt (torch, 185131 bytes, 19 tensors)

main.0.weight f4 [16]
1.0 1.0 1.0 0.99838614 1.0491815 1.0237132 0.95483863 0.93267006
1.0450019 1.0329089 1.0496233 0.99278855 1.0092288 1.0 1.0 0.98685247
00000000: 0000 803f 0000 803f 0000 803f 3c96 7f3f
00000010: 944b 863f 0909 833f 4e70 743f 77c3 6e3f
00000020: 9fc2 853f 5c36 843f 0e5a 863f 6427 7e3f
00000030: 692e 813f 0000 803f 0000 803f 5da2 7c3f

main.0.bias f4 [16]
-0.06258909 -0.068705425 0.06511834 -0.05939524 0.05382671 0.025656803 0.05761103 0.0034902084
0.04071167 -0.09262738 0.0033458127 0.051391643 -0.054965116 0.0045511336 -0.022341939 0.015091902
00000000: b52e 80bd 6eb5 8cbd c45c 853d 6c48 73bd
00000010: 6579 5c3d 372e d23c 8bf9 6b3d fbbb 643b
00000020: 48c1 263d 6cb3 bdbd 6c45 5b3b 0b80 523d
00000030: 1a23 61bd ad21 953b 7106 b7bc 0644 773c

main.0.running_mean f4 [16]
0.0 0.0 0.19999984 0.0073609557 0.010365623 0.0022882998 0.5465851 0.0073609557
0.020731246 0.0022882998 0.5465851 0.0073609557 0.031096883 0.0 0.19999984 0.0073609557
00000000: 0000 0000 0000 0000 c2cc 4c3e 2c34 f13b
00000010: 93d4 293c 4df7 153b 00ed 0b3f 2c34 f13b
00000020: 93d4 a93c 4df7 153b 00ed 0b3f 2c34 f13b
00000030: e4be fe3c 0000 0000 c2cc 4c3e 2c34 f13b

main.0.running_var f4 [16]
5.8805347e-15 5.8805347e-15 5.9216116e-15 0.002161354 1.648128e-05 0.00015520508 0.08368583 0.002161354
6.592512e-05 0.00015520508 0.08368583 0.002161354 0.00014833148 5.8805347e-15 5.9216116e-15 0.002161354
00000000: 5cde d327 5cde d327 3a59 d527 81a5 0d3b
00000010: 4841 8a37 8cbe 2239 7a63 ab3d 81a5 0d3b
00000020: 4841 8a38 8cbe 2239 7a63 ab3d 81a5 0d3b
00000030: 6e89 1b39 5cde d327 3a59 d527 81a5 0d3b

main.1.weight f4 [20, 16]
0.16391927 -0.123969465 0.118106894 0.024360923 0.024475649 0.25375468 0.11182885 0.06220667
0.07655353 0.21196732 -0.22713399 -0.07631332 -0.121599816 0.058470953 0.029405927 0.12514843
-0.07650871 -0.1798594 0.11483692 -0.048411585 -0.13327555 0.20795824 -0.21095282 -0.2510426
0.07654606 -0.038069785 -0.12648566 0.071883634 0.06737413 -0.1642684 0.13396797 0.087982774
0.071336694 0.012103725 0.25392166 -0.19067065 -0.24722567 0.02514417 0.19133805 0.058228474
-0.015973896 0.03658333 -0.17580508 -0.20560114 -0.103470065 0.068784915 0.09178571 -0.061870225
-0.2660401 -0.26914605 0.11332333 -0.15641963 0.23746276 0.18667258 0.1621874 0.1510517
-0.0019281703 -0.18579623 0.050560318 0.039190646 0.11341987 -0.06978223 -0.09208957 -0.04514937
0.29192752 0.28422114 -0.030309582 0.10209326 -0.052311473 0.029445438 0.16559678 0.21852222
-0.031548478 -0.03563263 0.039487075 0.18030173 -0.08439812 -0.072685845 -0.2606125 0.10812932
-0.2126158 -0.23783831 -0.017415734 0.01947272 0.26002362 0.124932066 -0.036463086 -0.16286168
0.23163103 -0.04865595 0.14649796 -0.05726599 -0.13212544 0.24583341 0.084177904 0.18900028
0.0727978 0.11098314 0.0017753904 -0.1843095 0.098037265 -0.24402858 -0.27663144 0.24113025
0.09971066 0.06510166 0.04692017 -0.031534445 -0.08339473 0.2928846 -0.04526247 -0.18998419
-0.28528616 -0.1070942 0.17815271 -0.16373727 -0.096958235 -0.21612847 0.15392785 0.01648356
0.20406042 -0.19376117 -0.2125137 0.15476163 0.06968062 0.18084206 0.28907573 -0.022505673
-0.3040169 -0.023994723 -0.014181895 0.1749183 0.23848192 0.22926126 0.04094874 0.21591802
0.14735498 -0.025494691 0.0681265 -0.11910417 0.12978105 -0.11582924 -0.13557316 -0.089775674
0.16508572 -0.13800535 0.019724844 -0.09980058 -0.094357796 0.20874292 0.017897941 0.16633399
-0.060463015 0.29661244 -0.026360743 0.094176784 -0.13213456 -0.1298567 0.2608071 -0.16823566
0.120746754 -0.11655636 0.07301646 0.006961883 0.12443372 -0.2473426 -0.18582185 -0.1771857
0.078948185 -0.13147818 0.04191868 0.026998745 -0.20776062 -0.068349935 -0.18161827 -0.20178041
0.11495785 0.17829487 -0.14019865 0.12648931 -0.084280625 0.047158215 -0.11748883 -0.14574596
0.21432795 -0.174518 0.18178515 -0.16620198 -0.10951454 0.07921014 -0.20373951 0.20520048
0.03801134 -0.20972764 -0.19804008 0.0020100886 0.007911045 -0.23089533 -0.13749892 0.20571089
0.10066612 -0.04934366 -0.19146287 -0.059824802 0.10933011 0.094728604 0.33103356 0.123090886
-0.10221661 -0.32385018 0.026925353 -0.22280435 0.16892128 -0.27633193 0.14597985 0.18134995
-0.26329115 0.06482635 0.26442266 0.22086161 -0.1995564 -0.12889671 -0.13469501 -0.027199676
-0.18595776 0.1404868 -0.14996515 -0.14814661 -0.13811956 0.18110473 0.029329538 -0.18858479
-0.14796086 -0.11557647 -0.18990692 0.05557216 -0.005834393 -0.22311282 -0.17766164 0.024833068
0.15809509 -0.22717555 0.22148862 0.1390727 -0.03708153 0.14756556 0.19621505 -0.13552889
0.064248085 -0.21532989 -0.02013164 0.1732701 -0.09549012 0.18300605 0.017489454 -0.13106672
00000000: 74da 273e b4e3 fdbd 07e2 f13d 8f90 c73c
00000010: 2881 c83c 22ec 813e 8606 e53d 6ccc 7e3d
00000020: 19c8 9c3d f60d 593e d095 68be 284a 9cbd
00000030: 5309 f9bd 3d7f 6f3d b3e4 f03c e926 003e
00000040: 99b0 9cbd 102d 38be 9e2f eb3d 3a4b 46bd
00000050: 6379 08be 01f3 543e 0404 58be a888 80be
00000060: 2ec4 9c3d 10ef 1bbd 7585 01be ba37 933d
00000070: 73fb 893d fa35 28be e62e 093e 5030 b43d
00000080: f918 923d b44e 463c 0502 823e 2b3f 43be
00000090: ba28 7dbe 25fb cd3c 1fee 433e fb80 6e3d
000000a0: b0db 82bc 67d8 153d 3f06 34be 1b89 52be
000000b0: 1de8 d3bd 1bdf 8c3d 25fa bb3d a26b 7dbd
000000c0: 6836 88be 83cd 89be 1016 e83d 782c 20be
000000d0: 7029 733e 1927 3f3e 7414 263e 4cad 1a3e
000000e0: a9ba fcba 5e41 3ebe 5618 4f3d 5f86 203d
000000f0: ad48 e83d fce9 8ebd 7599 bcbd 8cee 38bd
00000100: 8677 953e 6f85 913e cd4b f8bc 4516 d13d
00000110: 8e44 56bd 8f37 f13c 3492 293e 4ac4 5f3e
00000120: fa38 01bd 85f3 11bd 33bd 213d 04a1 383e
00000130: ecd8 acbd 51dc 94bd 006f 85be e872 dd3d
00000140: f5b7 59be e38b 73be 71ab 8ebc 4185 9f3c
00000150: d121 853e 62dc ff3d 515a 15bd 36c5 26be
00000160: af30 6d3e 764b 47bd 9003 163e be8f 6abd
00000170: e44b 07be c1bb 7b3e 7765 ac3d 4a89 413e
00000180: 0317 953d 214b e33d 37b4 e83a a1bb 3cbe
00000190: c3c7 c83d a1e2 79be a3a2 8dbe d9ea 763e
000001a0: 1a35 cc3d 0554 853d 5d2f 403d 432a 01bd
000001b0: dbca aabd f8f4 953e 2465 39bd 378b 42be
000001c0: 0711 92be 3454 dbbd aa6d 363e beaa 27be
000001d0: 0a92 c6bd c850 5dbe 439f 1d3e 8808 873c
000001e0: 37f5 503e 5469 46be 319d 59be d579 1e3e
000001f0: b7b4 8e3d a92e 393e bc01 943e d15d b8bc
00000200: 1aa8 9bbe 9590 c4bc 2e5b 68bc c81d 333e
00000210: 9b34 743e 77c3 6a3e deb9 273d 9d19 5d3e
00000220: 39e4 163e 3eda d0bc e885 8b3d e3ec f3bd
00000230: 53e5 043e e137 edbd b1d3 0abe 4fdc b7bd
00000240: 3b0c 293e 4651 0dbe ff95 a13c 3f64 ccbd
00000250: a93e c1bd b4c0 553e b49e 923c 7553 2a3e
00000260: 11a8 77bd 96dd 973e 7cf2 d7bc c2df c03d
00000270: 484e 07be 28f9 04be 8288 853e f845 2cbe
00000280: 134a f73d 1ab5 eebd a789 953d 8220 e43b
00000290: 1bd7 fe3d 6147 7dbe 1548 3ebe 2b70 35be
000002a0: 96af a13d 37a2 06be ecb2 2b3d 792c dd3c
000002b0: 33bf 54be 0dfb 8bbd 24fa 39be 869f 4ebe
000002c0: 056f eb3d ee92 363e 3c90 0fbe 6a86 013e
000002d0: 529b acbd f928 413d fc9d f0bd 6e3e 15be
000002e0: c978 5b3e d9b4 32be e325 3a3e da30 2abe
000002f0: 2949 e0bd ed38 a23d 17a1 50be 1320 523e
00000300: c7b1 1b3d d8c2 56be 05cb 4abe b1bb 033b
00000310: 549d 013c d36f 6cbe 84cc 0cbe e0a5 523e
00000320: 0a2a ce3d 941c 4abd d80e 44be da0a 75bd
00000330: 77e8 df3d 1201 c23d 3b7d a93e 1317 fc3d
00000340: f156 d1bd b1cf a5be 8f92 dc3c d326 64be
00000350: b3f9 2c3e 617b 8dbe be7b 153e cdb3 393e
00000360: 19ce 86be adc3 843d 6862 873e 8c29 623e
00000370: 8358 4cbe 80fd 03be 7ded 09be dbd1 debc
00000380: b66b 3ebe c6db 0f3e 7790 19be bfb3 17be
00000390: 376f 0dbe 8573 393e 8044 f03c 5f1c 41be
000003a0: 0d83 17be 5bb3 ecbd f676 42be a29f 633d
000003b0: 702e bfbb b077 64be efec 35be b86e cb3c
000003c0: aee3 213e b5a0 68be eacd 623e 1369 0e3e
000003d0: cde2 17bd 6d1b 173e 99ec 483e 16c8 0abe
000003e0: 8094 833d 707f 5cbe 1ceb a4bc b86d 313e
000003f0: 5390 c3bd f065 3b3e 0b46 8f3c 5b36 06be

main.1.bias f4 [20]
-0.18789673 0.10782577 -0.048915245 0.21460438 0.19242898 -0.1756141 0.037233807 0.031433273
0.25202924 0.24163328 -0.039053712 0.14275034 0.004846484 -0.106169365 0.004538522 0.08541974
-0.13461943 -0.23698696 -0.068835214 0.112421684
00000000: 0068 40be c2d3 dc3d 5a5b 48bd 40c1 5b3e
00000010: 1a0c 453e 2fd4 33be 7a82 183d 2dc0 003d
00000020: fa09 813e b76e 773e c9f6 1fbd 252d 123e
00000030: 41cf 9e3b 536f d9bd e2b7 943b 8bf0 ae3d
00000040: add9 09be b6ac 72be 7af9 8cbd 573d e63d

main.3.weight f4 [20]
0.90218616 0.98335785 0.93190247 0.9043849 0.94852847 0.99564034 0.9498914 0.9691926
0.99567634 0.95717055 0.93138945 0.939793 1.0076599 1.0060514 0.9696853 0.899321
1.0192393 0.91220653 0.9864839 0.98281074
00000000: acf5 663f 57bd 7b3f 2991 6e3f c585 673f
00000010: c3d2 723f 49e2 7e3f 152c 733f 021d 783f
00000020: a5e4 7e3f 2109 753f 8a6f 6e3f 4696 703f
00000030: 00fb 803f 4bc6 803f 4c3d 783f e739 663f
00000040: 6f76 823f 5e86 693f 358a 7c3f 7c99 7b3f

main.3.bias f4 [20]
-0.10219301 -0.11169733 0.07636628 0.11281852 0.15385643 -0.008105429 0.14785941 -0.10280572
-0.012726319 -0.15376863 -0.09031621 -0.13924333 -0.14355439 -0.08822532 -0.103864565 -0.10998421
-0.13349421 0.0500753 -0.06463299 0.0114255445
00000000: 924a d1bd 92c1 e4bd ed65 9c3d 650d e73d
00000010: 8a8c 1d3e a2cc 04bc 7568 173e ce8b d2bd
00000020: 0d82 50bc 8675 1dbe b5f7 b8bd ce95 0ebe
00000030: ecff 12be 7aaf b4bd f2b6 d4bd 673f e1bd
00000040: b5b2 08be c21b 4d3d 4d5e 84bd 3532 3b3c

main.3.running_mean f4 [20]
0.07855171 0.22892731 0.14074396 0.3438352 0.32520193 0.050990056 0.12334842 0.20830904
0.38100377 0.3369449 0.16623066 0.14008106 0.15327491 0.18095039 0.14634766 0.16792288
0.14873312 -0.05989185 0.03607258 0.1760088
00000000: b8df a03d ec6b 6a3e 2f1f 103e 2b0b b03e
00000010: de80 a63e f3da 503d 199e fc3d f74e 553e
00000020: ed12 c33e 0b84 ac3e 5f38 2a3e 6971 0f3e
00000030: 19f4 1c3e 0f4b 393e 29dc 153e faf3 2b3e
00000040: 7f4d 183e 2851 75bd d7c0 133d a73b 343e

main.3.running_var f4 [20]
0.067689136 0.089548446 0.108393304 0.10090741 0.23959097 0.02950025 0.04641928 0.093944386
0.17897825 0.16168636 0.10652774 0.023022886 0.094106376 0.15709752 0.074550316 0.033338897
0.11742382 0.00071577943 0.027188472 0.03574805
00000000: 9aa0 8a3d 2d65 b73d 4ffd dd3d 8ba8 ce3d
00000010: 5657 753e 82aa f13c 2522 3e3d ea65 c03d
00000020: 1346 373e 1c91 253e 372b da3d 7e9a bc3c
00000030: d8ba c03d 2cde 203e d6ad 983d 5e8e 083d
00000040: e67b f03d 25a3 3b3a 5cba de3c 8c6c 123d

main.4.weight f4 [2048, 20]
-0.1460437 0.12404364 -0.01885495 -0.024764944 0.14178081 0.24010788 0.086852044 -0.10566738
-0.0066111246 -0.13406846 0.007927621 -0.110111676 -0.17266102 0.025190825 0.013038907 -0.18576713
-0.113635 -0.08236364 -0.24401212 -0.08445296 0.10684178 -0.057056643 -0.19846877 -0.21651454
0.052726135 -0.2563577 0.015165876 0.1449893 -0.12127564 0.065359466 -0.04549462 -0.08170397
-0.20187423 -0.13883616 0.038297262 -0.10958471 0.18489455 0.1512966 -0.058141187 -0.028460715
0.04127187 -0.103655875 -0.10254938 -0.16529126 -0.14144644 -0.15782692 -0.07846502 0.13208047
-0.082943946 -0.15206702 -0.14678577 0.19996598 0.034174938 0.18115854 0.07349132 -0.12610604
0.087133534 0.23265955 0.09403947 0.21715975 -0.29350358 0.19520095 0.26777884 0.15427276
-0.24611892 -0.13849807 0.05462934 0.10736622 0.11280718 -0.02447043 0.1521667 -0.25193217
-0.24155767 -0.15960121 -0.07384233 -0.1460166 -0.17364153 0.16947086 0.06697137 0.14515857
-0.09074714 -0.07321369 0.040037222 0.10337499 0.029035015 -0.067005984 -0.18542263 0.10462619
0.005386459 0.12885688 -0.13280734 -0.20147134 0.071505986 -0.23779207 -0.31467396 -0.17139834
-0.2789656 -0.2646057 0.06471127 0.05927865 0.008415261 0.036508806 -0.038929988 0.19199814
0.16316983 0.064411834 -0.050899938 0.073798 -0.13226265 -0.10296366 -0.14804089 -0.16124453
0.13095272 -0.25109988 0.040522713 0.040393077 -0.20836411 -0.0871595 0.11228228 0.08712876
0.00824856 -0.06204255 -0.005108792 0.20990969 0.2209093 0.039772507 -0.16590849 -0.17350674
-0.0507332 0.15260796 -0.049736913 0.11722864 -0.08193046 -0.07593258 0.09345964 -0.23298489
-0.27719373 0.056537125 -0.23687014 0.13488963 0.043965638 -0.17976965 -0.15874438 -0.17769489
-0.17383529 0.022803575 -0.09896125 -0.22424021 -0.20889032 0.24015258 -0.19373992 -0.17385237
0.27959657 -0.16280453 -0.2864429 -0.27025753 0.14343305 0.05147358 -0.19457322 0.123656236
0.053420685 0.062092848 0.14415067 -0.16771261 -0.08195059 -0.010456225 -0.009764274 -0.08057714
-0.11922671 -0.088092804 0.09593164 -0.24917123 0.28682664 -0.24921478 0.1984833 -0.17042945
-0.16850993 0.00043845578 -0.026995929 -0.08408593 0.06725818 -0.14846537 -0.123981625 0.27855936
0.15295555 -0.15911274 0.07155443 -0.17932476 -0.17252493 0.028452443 -0.06591169 -0.15320334
0.098616205 0.12198557 -0.049194023 0.2177681 -0.12869398 -0.12953345 -0.06390546 -0.17394236
0.15877806 -0.2676326 -0.19044384 0.028083265 -0.0667865 0.08378138 -0.10232923 -0.07463481
0.07813147 -0.04574112 -0.25307503 0.17082366 0.2597815 0.18153775 -0.07011436 -0.13693748
-0.039166987 -0.14946796 0.12550114 -0.13365282 0.11219243 0.22006875 -0.22266938 -0.055917777
-0.10195143 -0.10584914 0.035469677 -0.118802115 0.21322541 0.08587997 0.15147616 -0.013580722
0.11447113 -0.20860589 -0.06667436 -0.1826061 0.0653709 0.01722827 0.056292493 0.006424292
0.0026342084 0.21058181 -0.28921318 0.28469336 0.13748343 -0.06588103 -0.22628501 -0.23945118
0.20808844 -0.11228997 -0.25205073 0.059640747 0.22812194 0.01774401 0.08728011 -0.22594196
00000000: 7b8c 15be 980a fe3d b275 9abc dadf cabc
00000010: fd2e 113e d7de 753e 7cdf b13d 2468 d8bd
00000020: 22a2 d8bb 3e49 09be dae2 013c 3b82 e1bd
00000030: 0dce 30be fd5c ce3c 24a1 553c bd39 3ebe
00000040: 78b9 e8bd 45ae a8bd 50de 79be acf5 acbd
00000050: ddcf da3d 3ab4 69bd 663b 4bbe fdb5 5dbe
00000060: 5cf7 573d 5141 83be 4b7a 783c 1378 143e
00000070: 5d5f f8bd 2fdb 853d 9158 3abd 6954 a7bd
00000080: 1eb8 4ebe 112b 0ebe 97dd 1c3d f36d e0bd
00000090: ff54 3d3e 7fed 1a3e 7425 6ebd 7226 e9bc
000000a0: b10c 293d 8849 d4bd 6905 d2bd 1d42 29be
000000b0: 56d7 10be 619d 21be 45b2 a0bd 1a40 073e
000000c0: 84de a9bd 75b7 1bbe 024f 16be e2c3 4c3e
000000d0: 05fb 0b3d a081 393e 9e82 963d f121 01be
000000e0: 1173 b23d 4e3e 6e3e c497 c03d 205f 5e3e
000000f0: 1a46 96be c2e2 473e 4f1a 893e aef9 1d3e
00000100: 9906 7cbe 70d2 0dbe 04c3 5f3d d2e2 db3d
00000110: 7307 e73d 3676 c8bc 96d1 1b3e 41fd 80be
00000120: e55a 77be 806e 23be a63a 97bd 6085 15be
00000130: 16cf 31be c589 2d3e 4928 893d 73a4 143e
00000140: a3d9 b9bd 0ff1 95bd 12fe 233d 44b6 d33d
00000150: d7da ed3c 6f3a 89bd 6edf 3dbe 4246 d63d
00000160: e580 b03b 0ff3 033e a6fe 07be 814e 4ebe
00000170: bb71 923d c47f 73be f21c a1be 0c83 2fbe
00000180: 94d4 8ebe 667a 87be 5887 843d 2bce 723d
00000190: 2ae0 093c 428a 153d 0d75 1fbd 299b 443e
000001a0: fe15 273e 5aea 833d 747c 50bd 6823 973d
000001b0: dc6f 07be 9dde d2bd 0898 17be 491d 25be
000001c0: 7818 063e 2a90 80be 25fb 253d 3673 253d
000001d0: 675d 55be ae80 b2bd 41f4 e53d 9070 b23d
000001e0: f824 073c 5420 7ebd a767 a7bb 91f2 563e
000001f0: 0c36 623e 7fe8 223d eae3 29be c0ab 31be
00000200: 9ecd 4fbd 4345 1c3e efb8 4bbd 9215 f03d
00000210: 28cb a7bd 8a82 9bbd c567 bf3d 9793 6ebe
00000220: 56ec 8dbe 7993 673d 168e 72be 8220 0a3e
00000230: 5015 343d 8915 38be e38d 22be a6f5 35be
00000240: e101 32be 90ce ba3c 32ac cabd 3a9f 65be
00000250: 58e7 55be 8fea 753e c263 46be 5b06 32be
00000260: 4827 8f3e 3bb6 26be a5a8 92be 325f 8abe
00000270: 1de0 123e f6d5 523d 343e 47be 7b3f fd3d
00000280: a6cf 5a3d 1255 7e3d 3c9c 133e dbbc 2bbe
00000290: b6d5 a7bd 9650 2bbc 55fa 1fbc a105 a5bd
000002a0: 222d f4bd 006a b4bd cf77 c43d be26 7fbe
000002b0: f1da 923e 2932 7fbe 353f 4b3e 0f85 2ebe
000002c0: de8d 2cbe 8ae0 e539 9126 ddbc 3e35 acbd
000002d0: a8be 893d 4e07 18be 14ea fdbd 559f 8e3e
000002e0: 61a0 1c3e 73ee 22be 218b 923d e9a0 37be
000002f0: 60aa 30be 1915 e93c b5fc 86bd 56e1 1cbe
00000300: 4bf7 c93d 92d3 f93d ac7f 49bd 9afe 5e3e
00000310: 5bc8 03be 6ba4 04be dee0 82bd f21d 32be
00000320: b796 223e 2407 89be b603 43be e00e e63c
00000330: 5cc7 88bd 9295 ab3d fd91 d1bd 23da 98bd
00000340: 6403 a03d 0a5b 3bbd 0d93 81be 66ec 2e3e
00000350: 1502 853e 08e5 393e 1e98 8fbd 5739 0cbe
00000360: 906d 20bd 210e 19be 5f83 003e 49dc 08be
00000370: 25c5 e53d b459 613e 7103 64be 0a0a 65bd
00000380: e9cb d0bd 6fc7 d8bd a748 113d 864e f3bd
00000390: c357 5a3e d6e1 af3d 911c 1b3e ad81 5ebc
000003a0: d76f ea3d c89c 55be 918c 88bd 18fd 3abe
000003b0: 2ee1 853d 4d22 8d3c f592 663d de82 d23b
000003c0: afa2 2c3b c2a2 573e c013 94be 54c3 913e
000003d0: 75c8 0c3e a2ec 86bd 42b7 67be b132 75be
000003e0: 2315 553e 49f8 e5bd cb0c 81be db49 743d
000003f0: cc98 693e e35b 913c eabf b23d 545d 67be

main.4.bias f4 [2048]
-0.09303698 -0.114293456 -0.15596654 -0.06872979 0.15804483 0.25375673 -0.16322464 -0.008642821
-0.14183497 -0.0035796098 0.14335527 0.11539441 -0.07427218 0.20029661 0.22935134 0.22517157
-0.09629942 -0.024942536 0.041993752 -3.3227367e-05 -0.036562376 0.22267681 0.029768039 -0.1067336
0.02316744 -0.028598841 0.21403505 0.18344393 0.1938306 0.18902948 0.19026995 0.04512638
0.16298172 -0.018363975 -0.066707775 -0.097495735 -0.13284174 0.23543388 -0.10926747 0.22151986
-0.081389904 0.20549707 0.03686625 -0.031468224 -0.10966521 0.27553508 -0.042509902 0.21149199
0.27471122 -0.08468963 0.05332364 0.11758548 0.05598315 -0.06745976 0.015372849 0.037336476
0.22600478 0.088784374 -0.037195973 0.307763 -0.061108086 0.2011352 -0.07541147 -0.022898253
-0.027488148 -0.091937825 0.1955216 0.22612971 -0.11932163 0.11541767 0.2352011 0.2955683
0.19378915 0.009371762 0.27173963 -0.08529765 -0.03251748 -0.08744859 0.26588342 0.19041157
-0.06433726 0.006631245 0.20992531 0.16369237 0.079326525 0.22942068 0.068623565 -0.028472101
-0.02971569 0.2965461 0.22410305 0.30156466 0.23799056 0.23348856 0.040205102 -0.105998166
0.26099285 0.15175378 0.20940234 -0.024847563 -0.002130809 0.06069227 0.1431624 -0.022698702
0.2565624 0.11265249 -0.11739311 -0.12785426 -0.07492784 0.028634522 -0.0029059665 -0.029159028
-0.025195306 -0.026053714 0.19800355 -0.018856067 0.18725722 0.22998443 0.0075341123 -0.06324783
-0.08787335 -0.05704092 0.07253654 0.19095375 -0.04552247 0.21410964 0.13206457 0.27497056
-0.07491551 0.17018735 -0.063269526 -0.09462495 -0.034788307 0.1380175 0.13934 0.18435845
0.05794192 0.020301072 -0.022508474 0.06419757 -0.006169647 0.116728 -0.100553475 0.2852533
0.17143168 0.1252814 -0.13967603 -0.11190067 0.14387317 0.16229625 -0.0024266855 0.059364326
-0.12549157 0.027075902 0.18279831 0.026047714 0.21215542 0.14552492 0.1867126 0.12861413
0.2517426 0.038607705 -0.11057134 0.15884365 0.14232776 -0.014462634 0.23213741 0.16354439
-0.10039257 0.19819665 0.14934227 -0.13041407 0.27305183 0.18373999 -0.03612235 0.097402915
-0.111120164 0.04343523 -0.09254804 0.11858433 0.15956685 -0.10198205 0.034864515 0.0010755192
-0.064885065 0.1141965 -0.003073862 0.06277292 0.10853795 0.10633091 0.08068138 -0.03923067
-0.066611014 0.07153972 -0.057377085 0.02367449 0.08153816 0.121824354 -0.13465437 -0.16790125
-0.1257183 -0.22283445 0.13801329 0.14483437 0.12721592 -0.2524991 -0.13113813 0.065582685
0.0693436 0.092660256 -0.2266392 -0.20823264 -0.08333939 -0.026659498 0.030684639 0.064918935
-0.1956251 -0.021331795 0.07138865 0.044710908 0.13481148 0.037311807 -0.22867256 0.010980554
0.17050909 -0.2798132 -0.026662298 -0.14830706 0.09298323 0.04586344 -0.062062405 -0.17506446
0.16488844 -0.18551266 -0.1690119 0.06760681 -0.03781896 -0.053447727 -0.087406166 0.025030045
-0.123408966 -0.1818127 -0.04328065 0.16235436 -0.07993366 0.057452645 -0.045326184 0.14381975
-0.25357136 -0.10041193 0.07425537 0.12372661 -0.08414752 0.04262849 0.06490026 0.060553744
00000000: 2c8a bebd b012 eabd b1b5 1fbe 34c2 8cbd
00000010: 81d6 213e 67ec 813e 5c24 27be 9e9a 0dbc
00000020: 303d 11be e397 6abb b9cb 123e e853 ec3d
00000030: 031c 98bd 8e1a 4d3e 14db 6a3e 6093 663e
00000040: a138 c5bd 4a54 ccbc a401 2c3d 9d5d 0bb8
00000050: 6ec2 15bd 6405 643e 1adc f33c 2597 dabd
00000060: a5c9 bd3c 1e48 eabc 012c 5b3e bad8 3b3e
00000070: 877b 463e f290 413e 20d6 423e 70d6 383d
00000080: aee4 263e 0c70 96bc 169e 88bd d8ab c7bd
00000090: aa07 08be 9415 713e a0c7 dfbd 1ad6 623e
000000a0: c0af a6bd d36d 523e 1101 173d d3e4 00bd
000000b0: 2798 e0bd ef12 8d3e dd1e 2ebd 5b91 583e
000000c0: f3a6 8c3e c271 adbd e469 5a3d a8d0 f03d
000000d0: 964e 653d 5828 8abd 67de 7b3c 22ee 183d
000000e0: cc6d 673e 95d4 b53d ce5a 18bd 1d93 9d3e
000000f0: 794c 7abd 63f6 4d3e 5471 9abd 1e95 bbbc
00000100: d32e e1bc e649 bcbd d036 483e 8c8e 673e
00000110: e65e f4bd 1960 ec3d 8fd8 703e ba54 973e
00000120: aa70 463e 058c 193c 7521 8b3e 89b0 aebd
00000130: 0d31 05bd 3f18 b3bd df21 883e 40fb 423e
00000140: 41c3 83bd ea4a d93b a9f6 563e f99e 273e
00000150: f275 a23d 41ed 6a3e 838a 8c3d 533e e9bc
00000160: 526e f3bc e4d4 973e 457b 653e af66 9a3e
00000170: ccb3 733e a017 6f3e 1bae 243d 9115 d9bd
00000180: dba0 853e 5865 1b3e 916d 563e 1e8d cbbc
00000190: 0ba5 0bbb 7598 783d 2a99 123e a1f2 b9bc
000001a0: 265c 833e 59b6 e63d cd6b f0bd 3aec 02be
000001b0: c473 99bd f292 ea3c 0772 3ebb eade eebc
000001c0: 6366 cebc 996e d5bc 71c1 4a3e 0a78 9abc
000001d0: 5bc0 3f3e 0a81 6b3e b7e0 f63b 1488 81bd
000001e0: f1f6 b3bd bda3 69bd 0a8e 943d 6189 433e
000001f0: c575 3abd 8f3f 5b3e ef3b 073e f1c8 8c3e
00000200: 4e6d 99bd 9845 2e3e 7493 81bd baca c1bd
00000210: 2f7e 0ebd 7654 0d3e 25af 0e3e 76c8 3c3e
00000220: 8254 6d3d 6f4e a63c b163 b8bc 047a 833d
00000230: c02a cabb 170f ef3d fbee cdbd b80c 923e
00000240: c98b 2f3e c449 003e 3c07 0fbe 2e2c e5bd
00000250: 7d53 133e fd30 263e 0709 1fbb 0228 733d
00000260: dd80 00be 48ce dd3c 7b2f 3b3e 0462 d53c
00000270: 453f 593e 7c04 153e 9631 3f3e 6cb3 033e
00000280: 68e4 803e 1d23 1e3d 3a73 e2bd e9a7 223e
00000290: 5ebe 113e aff4 6cbc 6eb5 6d3e 2e78 273e
000002a0: 9f9a cdbd 10f4 4a3e 2eed 183e 448b 05be
000002b0: 73cd 8b3e 5626 3c3e 07f5 13bd 2e7b c73d
000002c0: f892 e3bd 24e9 313d d489 bdbd 57dc f23d
000002d0: 7e65 233e f7db d0bd 18ce 0e3d 70f8 8c3a
000002e0: 76e2 84bd dbdf e93d d972 49bb 178f 803d
000002f0: 2549 de3d 05c4 d93d 483c a53d 57b0 20bd
00000300: 5b6b 88bd 6b83 923d 3c04 6bbd 01f1 c13c
00000310: 7bfd a63d 0c7f f93d d6e2 09be 4eee 2bbe
00000320: 4cbc 00be b72e 64be 5b53 0d3e 764f 143e
00000330: e444 023e 9047 81be 1349 06be 3750 863d
00000340: 0404 8e3d a9c4 bd3d 1b14 68be f03a 55be
00000350: d8ad aabd 0565 dabc 5a5e fb3c 38f4 843d
00000360: f251 48be 04c0 aebc 3634 923d c922 373d
00000370: 050c 0a3e 44d4 183d 2429 6abe c8e7 333c
00000380: ef99 2e3e ad43 8fbe e46a dabc cedd 17be
00000390: fe6d be3d 4ddb 3b3d 2635 7ebd 1944 33be
000003a0: 84d8 283e 08f7 3dbe 7511 2dbe 7075 8a3d
000003b0: 0ee8 1abd 01ec 5abd 0102 b3bd cf0b cd3c
000003c0: d7bd fcbd 1c2d 3abe 0d47 31bd 3940 263e
000003d0: 42b4 a3bd 7753 6b3d f3a7 39bd 7c45 133e
000003e0: 1bd4 81be c5a4 cdbd 3313 983d 6064 fd3d
000003f0: 8955 acbd 369b 2e3d 6dea 843d 3407 783d

conv.0.weight f4 [20, 1, 5, 5]
0.0912549 -0.063967936 0.097677216 -0.06631317 0.12339285 0.0933189 0.12487811 0.092709154
-0.026072802 -0.012487744 0.12394321 0.061884977 0.1126921 0.113059275 0.017598426 0.10214156
0.103934325 0.03649097 -0.14038649 0.020457821 0.16858926 0.1675754 0.21161054 0.14459284
0.109980956 0.17583184 0.09594644 0.102666646 -0.10636487 -0.044404235 0.02802068 -0.041136492
0.22533351 -0.055562656 0.009827523 0.007605579 -0.16557927 0.150859 0.14399244 -0.049416404
0.11423141 0.18314634 0.057717275 -0.091805965 -0.030500099 -0.015071503 0.09946553 0.0006407416
0.19913785 0.083504416 -0.13015726 0.1645622 -0.00019637114 0.010114018 -0.025914155 0.04596252
-0.21288419 0.09969767 -0.08977102 0.14861716 -0.1614424 0.0043717697 -0.07473946 0.020206714
0.27161485 -0.053459037 0.16599292 0.22445853 -0.0640507 0.16720264 0.0027535597 -0.083776794
0.0902259 0.067790486 -0.008883872 -0.16219348 0.021487676 -0.04475014 -0.10832824 0.057457723
-0.03521778 0.11191574 0.062199056 0.15068336 -0.027455421 -0.0693211 -0.115806736 0.14016008
-0.13312075 -0.028009547 0.07996111 -0.23789443 -0.19736283 -0.24624348 -0.14824142 0.0417383
-0.026163124 -0.10677367 -0.12412196 0.054722928 0.018828318 -0.1282786 0.016107459 -0.13053052
-0.18259996 -0.086308084 -0.21763052 0.060265154 -0.008411357 -0.07767935 -0.15187363 -0.08901889
-0.13482408 -0.26071754 -0.25207 -0.077488005 -0.05776114 -0.13155524 -0.060355857 -0.13789593
-0.121329464 -0.056425076 -0.037398305 -0.04379233 0.028415794 0.07850974 0.005829845 0.06323581
0.035029653 0.20333716 0.06972945 0.092482835 0.0857068 0.12268865 0.052411065 0.026660278
0.06097198 0.15156125 0.025833316 0.075051576 0.049230568 0.21832304 -0.056333113 0.19082582
-0.0069316574 0.20487949 0.01991828 0.13567562 0.040128216 0.13985018 0.08500796 -0.026005618
0.13621001 -0.01699455 0.11199582 0.2193045 -0.07219858 0.2508776 -0.054505672 0.23026289
-0.16881992 0.19365007 -0.072609164 -0.18366514 -0.093327396 -0.1900502 0.060434647 0.023834098
0.10899477 -0.11948717 0.11307606 -0.025571443 -0.020089937 0.022803998 -0.15225507 0.087078646
0.12931654 0.102053 0.1405347 0.08110768 -0.08337072 0.060341295 0.2061922 0.18870068
0.12269854 0.018374374 0.19507347 0.14592223 -0.075128905 0.19443749 0.13489442 0.018096594
0.09117006 -0.07126461 0.1300188 0.1398751 0.06989282 0.18279985 0.040061295 0.12080709
-0.28695682 -0.12992659 -0.0902071 -0.1507335 0.09845772 0.031316467 0.114713445 0.24505752
0.24001463 -0.16354921 0.1293488 0.08165684 0.24231188 0.13372295 -0.22410217 -0.1429842
0.022621231 0.21670704 -0.028448772 -0.16609682 -0.017138688 0.105192125 0.085820846 -0.10992603
-0.112302184 -0.11995321 0.03963013 0.09815824 -0.053811383 0.09249377 -0.03709263 0.09185374
0.19635613 0.084741645 0.07769888 0.2104899 0.029009322 0.14150076 0.10867801 0.1110606
0.18219705 0.08032519 0.15596037 0.13833378 0.07260047 -0.03854509 -0.078764856 -0.04931909
-0.040539514 -0.03550647 -0.1678868 0.08728786 0.09541304 -0.18337047 -0.07304467 -0.19805308
00000000: d9e3 ba3d 9f01 83bd fe0a c83d 33cf 87bd
00000010: 64b5 fc3d fb1d bf3d 18c0 ff3d 4cde bd3d
00000020: a196 d5bc 6599 4cbc f0d5 fd3d 1a7b 7d3d
00000030: 1ecb e63d 9f8b e73d 932a 903c 982f d13d
00000040: 85db d43d 8e77 153d 7ac1 0fbe 2997 a73c
00000050: aaa2 2c3e e398 2b3e 6fb0 583e 2510 143e
00000060: b23d e13d 430d 343e 917f c43d e442 d23d
00000070: d3d5 d9bd 37e1 35bd a08b e53c bd7e 28bd
00000080: d4bd 663e ab95 63bd 9e03 213c 3938 f93b
00000090: 9d8d 29be c87a 1a3e c172 133e db68 4abd
000000a0: 28f2 e93d b78a 3b3e f368 6c3d c404 bcbd
000000b0: 58db f9bc 77ee 76bc 95b4 cb3d 71f7 273a
000000c0: cbea 4b3e 5d04 ab3d f247 05be fe82 283e
000000d0: fae8 4db9 44b5 253c ec49 d4bc 3243 3c3d
000000e0: 50fe 59be 4b2e cc3d ded9 b7bd 192f 183e
000000f0: 2851 25be 1041 8f3b 0111 99bd 8d88 a53c
00000100: 1a11 8b3e ddf7 5abd 0cfa 293e 75d8 653e
00000110: 032d 83bd 2b37 2b3e 1175 343b 2b93 abbd
00000120: 5bc8 b83d bdd5 8a3d a98d 11bc 0c16 26be
00000130: ec06 b03c ec4b 37bd 32db ddbd ca58 6b3d
00000140: 8540 10bd 1434 e53d 70c4 7e3d bd4c 1a3e
00000150: 31ea e0bc 39f8 8dbd 152c edbd 2086 0f3e
00000160: ce50 08be 4774 e5bc a7c2 a33d 999a 73be
00000170: 7b19 4abe 4027 7cbe 99cc 17be c8f5 2a3d
00000180: 0c54 d6bc 27ac dabd a733 febd 2625 603d
00000190: d83d 9a3c 775b 03be caf3 833c cba9 05be
000001a0: 7cfb 3abe 4bc2 b0bd 89da 5ebe 98d8 763d
000001b0: cacf 09bc 5a16 9fbd c384 1bbe 894f b6bd
000001c0: 530f 0abe c57c 85be 520f 81be 08b2 9ebd
000001d0: f296 6cbd 6bb6 06be b437 77bd 9734 0dbe
000001e0: 957b f8bd fb1d 67bd f72e 19bd 965f 33bd
000001f0: 3dc8 e83c b7c9 a03d 4908 bf3b c781 813d
00000200: 417b 0f3d 9e37 503e 50ce 8e3d a467 bd3d
00000210: 0c87 af3d 3044 fb3d fcac 563d a866 da3c
00000220: c1bd 793d df32 1b3e 64a0 d33c a4b4 993d
00000230: fea5 493d 1390 5f3e 8dbd 66bd d867 433e
00000240: f522 e3bb eecb 513e a92b a33c 8dee 0a3e
00000250: 7c5d 243d e334 0f3e a718 ae3d bc09 d5bc
00000260: a37a 0b3e 2838 8bbc 115e e53d 5c91 603e
00000270: d9dc 93bd 0773 803e 5741 5fbd 09ca 6b3e
00000280: 21df 2cbe 344c 463e 1db4 94bd b712 3cbe
00000290: 6f22 bfbd 859c 42be 528a 773d ba3f c33c
000002a0: a638 df3d b0b5 f4bd 6c94 e73d 347b d1bc
000002b0: a793 a4bc 73cf ba3c c1e8 1bbe 4a56 b23d
000002c0: 8e6b 043e 2a01 d13d 54e8 0f3e c91b a63d
000002d0: 45be aabd 6f28 773d 0c24 533e c03a 413e
000002e0: 5f49 fb3d db85 963c 57c1 473e a36c 153e
000002f0: 2fdd 99bd 9f1a 473e c321 0a3e 4f3f 943c
00000300: 5eb7 ba3d 2ef3 91bd a623 053e 6b3b 0f3e
00000310: f823 8f3d e22f 3b3e 5017 243d b569 f73d
00000320: 01ec 92be 7a0b 05be 80be b8bd e259 1abe
00000330: 33a4 c93d b245 003d e2ee ea3d 5cf0 7a3e
00000340: 65c6 753e 7279 27be 0374 043e b43b a73d
00000350: 9b20 783e abee 083e 0a7b 65be 736a 12be
00000360: 2950 b93c 73e8 5d3e 660d e9bc 4915 2abe
00000370: 6f66 8cbc f86e d73d d7c2 af3d e620 e1bd
00000380: b0fe e5bd 07aa f5bd 3453 223d 3007 c93d
00000390: 5369 5cbd 606d bd3d 71ee 17bd d01d bc3d
000003a0: 9511 493e 078d ad3d 9720 9f3d aa8a 573e
000003b0: f5a4 ed3c 93e5 103e 9492 de3d bd73 e33d
000003c0: dd91 3a3e 8981 a43d 13b4 1f3e 5fa7 0d3e
000003d0: 8eaf 943d 75e1 1dbd 784f a1bd d002 4abd
000003e0: c30c 26bd 3b6f 11bd 84ea 2bbe fac3 b23d
000003f0: e967 c33d 78c5 3bbe 7298 95bd 6dce 4abe

conv.0.bias f4 [20]
-0.024899011 0.25484967 0.12842728 0.25063795 0.14409003 -0.08550522 0.19306548 0.002697983
-0.062329426 -0.2377975 0.08784122 -0.031092575 0.093951225 0.09888899 -0.032989413 -0.04914411
0.17144236 0.14598598 0.17903425 0.2251046
00000000: 03f9 cbbc a87b 823e 7182 033e 9e53 803e
00000010: 568c 133e 5c1d afbd f5b2 453e a5d0 303b
00000020: 244d 7fbd 3081 73be 19e6 b33d dbb5 febc
00000030: 8069 c03d 5086 ca3d e81f 07bd 564b 49bd
00000040: 968e 2f3e 597d 153e c154 373e d281 663e

conv.2.weight f4 [20]
1.0980436 0.988396 0.9542373 0.9836128 1.1413302 1.1734856 0.9352071 1.145962
0.97424006 1.0935119 1.0151616 1.036911 1.0229423 1.0500563 0.95033455 1.0317246
1.0688072 1.0674672 1.1837547 1.0386049
00000000: b18c 8c3f 8507 7d3f e548 743f 0cce 7b3f
00000010: 1c17 923f c734 963f bc69 6f3f e2ae 923f
00000020: cc67 793f 33f8 8b3f d1f0 813f 80b9 843f
00000030: c6ef 823f 3f68 863f 2049 733f 8d0f 843f
00000040: adce 883f c4a2 883f 4685 973f 01f1 843f

conv.2.bias f4 [20]
-0.13885367 0.10457785 0.114304535 0.15755536 -0.11975121 -0.13830693 0.12210044 -0.12973721
0.15378457 -0.11686225 0.1473207 -0.120070495 0.113708735 -0.12602915 0.1124044 0.10928284
-0.11714867 -0.114365086 -0.13942167 -0.13478239
00000000: a82f 0ebe e92c d63d 7f18 ea3d 3156 213e
00000010: 1f40 f5bd 55a0 0dbe cc0f fa3d d5d9 04be
00000020: b479 1d3e 7a55 efbd 3ddb 163e 85e7 f5bd
00000030: 20e0 e83d c90d 01be 4734 e63d aecf df3d
00000040: a4eb efbd 3e38 eabd 8ec4 0ebe 6504 0abe

conv.2.running_mean f4 [20]
0.33385205 0.46932176 0.25573 0.09843328 -0.054051403 0.3348698 0.28394607 0.47767136
0.074680455 0.10467585 0.18494418 0.078575775 0.2865442 0.06352543 0.01834417 0.28289783
0.23183347 -0.05615747 -0.045781948 0.32246047
00000000: a8ee aa3e f14a f03e 0bef 823e 6397 c93d
00000010: 0165 5dbd 0e74 ab3e 6161 913e 5791 f43e
00000020: 11f2 983d 4b60 d63d 0262 3d3e 56ec a03d
00000030: ecb5 923e 9f19 823d 8346 963c fcd7 903e
00000040: c165 6d3e 6005 66bd da85 3bbd 8a19 a53e

conv.2.running_var f4 [20]
0.05075558 0.051868733 0.048587423 0.02388948 0.006981766 0.052840665 0.05685612 0.072149776
0.03326462 0.027413433 0.041658793 0.028837865 0.049668457 0.01919444 0.0134657435 0.07008225
0.042515844 0.0077900435 0.0077081462 0.04378311
00000000: 15e5 4f3d 4f74 543d 9b03 473d dfb3 c33c
00000010: 4cc7 e43b 746f 583d f6e1 683d 43c3 933d
00000020: 7b40 083d 2392 e03c 69a2 2a3d 633d ec3c
00000030: 2771 4b3d a93d 9d3c 6c9f 5c3c 4887 8f3d
00000040: 1825 2e3d 9f43 ff3b 9e94 fc3b eb55 333d

conv.3.weight f4 [1, 20, 5, 5]
0.03113258 0.056230407 0.05754212 0.10699539 0.025226895 0.045571774 0.13206352 0.11968945
0.10386153 0.078903444 0.055932272 0.10511169 0.0864726 0.16389813 0.15748127 0.12050486
0.1373794 0.13161416 0.13493207 0.10117191 0.050075747 0.13396911 0.11930622 0.07009764
0.058497105 -0.12166348 -0.091329314 -0.08289161 -0.09969425 -0.120228626 -0.06122493 -0.10624682
-0.09692326 -0.11486724 -0.10516039 -0.12691717 -0.12096744 -0.057018887 -0.12673706 -0.09965358
-0.07893606 -0.1201895 -0.09876597 -0.117204234 -0.0776118 -0.12952644 -0.102176175 -0.13610765
-0.16138089 -0.07156027 -0.083956204 -0.120116286 -0.08461281 -0.113728516 -0.102286205 -0.096729614
-0.12994818 -0.13005936 -0.114075854 -0.10279716 -0.110595495 -0.058618497 -0.107362896 -0.14198343
-0.06428623 -0.11604519 -0.121084556 -0.11794888 -0.075722866 -0.080332965 -0.10234751 -0.12495556
-0.08961764 -0.12706938 -0.08961725 -0.033392414 -0.046620417 -0.051616948 -0.01952912 0.008967968
-0.06573135 -0.100185074 -0.1705167 -0.09915789 -0.053440157 -0.15048574 -0.104466446 -0.15945788
-0.14253482 -0.1059146 -0.07554751 -0.15444918 -0.080157705 -0.10608568 -0.13271065 -0.054610603
-0.11850114 -0.14137743 -0.10492666 -0.13753918 0.08261699 0.10296496 0.1403232 0.12166635
0.15005755 0.1499397 0.10821658 0.06347341 0.070116915 0.13759984 0.15160522 0.08717047
0.11754134 0.10469156 0.13037945 0.10150181 0.12830125 0.09169665 0.06700243 0.1530353
0.12279702 0.067514054 0.055039186 0.14337952 0.13702612 0.013822234 0.04709652 0.10640499
0.046761457 0.04696025 0.049471486 0.1194134 0.114520274 0.12425747 0.12019203 0.13030633
0.15344068 0.13811319 0.17870584 0.15692203 0.08958594 0.07797708 0.122240566 0.07529318
0.111047566 0.101688884 0.13701048 0.13119441 0.058452625 0.062021036 -0.122625545 -0.08815474
-0.081937425 -0.07268675 -0.11770331 -0.10106351 -0.11188559 -0.13264255 -0.117210634 -0.14380427
-0.11448956 -0.08289521 -0.12730385 -0.1169389 -0.10810147 -0.10924926 -0.086262286 -0.13055265
-0.110825576 -0.08652977 -0.13740852 -0.15710048 -0.1038562 -0.12415452 -0.1212293 0.06949086
0.046621256 0.09430504 0.026781486 -0.05283666 0.024802363 0.039017536 0.13507818 0.12839545
0.036406923 0.100713424 0.145683 0.11216555 0.16224709 0.13940586 0.078041516 0.118174575
0.14855382 0.0667537 0.033038065 0.031185638 0.11671152 0.1317054 0.10678735 0.066367835
-0.11878228 -0.106780484 -0.07444034 -0.07549209 -0.088390015 -0.123778015 -0.1147985 -0.085608505
-0.07366097 -0.13828781 -0.10916139 -0.06819983 -0.07463734 -0.0712825 -0.13248307 -0.1250874
-0.120532535 -0.08869066 -0.1311781 -0.08154893 -0.07723774 -0.12550011 -0.1380657 -0.09752491
-0.13255848 0.0772341 0.07413653 0.17174792 0.12357671 0.10818245 0.10004694 0.103497565
0.13958141 0.082770936 0.08509722 0.08871826 0.11703916 0.11365997 0.12783565 0.15785031
0.073163316 0.08554928 0.09623385 0.11224264 0.06649367 0.1166404 0.09169705 0.09579808
0.09884098 0.119891524 -0.09742709 -0.08445655 -0.15477182 -0.105854474 -0.09363169 -0.14428583
00000000: c109 ff3c db51 663d 49b1 6b3d 6620 db3d
00000010: a2a8 ce3c 78a9 3a3d a93b 073e be1f f53d
00000020: 5bb5 d43d 2198 a13d 3d19 653d cc44 d73d
00000030: 8c18 b13d e9d4 273e c542 213e 41cb f63d
00000040: 2fad 0c3e ddc5 063e a22b 0a3e 3833 cf3d
00000050: 3a1c 4d3d 332f 093e d256 f43d 5a8f 8f3d
00000060: a99a 6f3d b42a f9bd dd0a bbbd 14c3 a9bd
00000070: 802c ccbd 6d3a f6bd fec6 7abd ef97 d9bd
00000080: b47f c6bd 843f ebbd 555e d7bd 93f6 01be
00000090: c7bd f7bd a38c 69bd 5cc7 01be 2d17 ccbd
000000a0: 3ba9 a1bd ea25 f6bd d045 cabd c608 f0bd
000000b0: eff2 9ebd 94a2 04be be41 d1bd ce5f 0bbe
000000c0: 0841 25be 318e 92bd 3bf1 abbd 87ff f5bd
000000d0: 7b49 adbd 7fea e8bd 6e7b d1bd 2d1a c6bd
000000e0: 2311 05be 482e 05be 9aa0 e9bd 5187 d2bd
000000f0: e47f e2bd f319 70bd 14e1 dbbd 1b64 11be
00000100: 80a8 83bd 1aa9 edbd 2efb f7bd 2f8f f1bd
00000110: 9714 9bbd 9c85 a4bd 929b d1bd b3e8 ffbd
00000120: 7489 b7bd 7a1e 02be 4089 b7bd 7cc6 08bd
00000130: 0df5 3ebd 4b6c 53bd 88fb 9fbc 62ee 123c
00000140: 289e 86bd d52d cdbd ee9b 2ebe 4b13 cbbd
00000150: 11e4 5abd ef18 1abe 81f2 d5bd ed48 23be
00000160: a6f4 11be c1e9 d8bd a7b8 9abd ed27 1ebe
00000170: b929 a4bd 7343 d9bd 4de5 07be 5eaf 5fbd
00000180: bab0 f2bd 3fc5 10be cae3 d6bd 12d7 0cbe
00000190: 1933 a93d 4bdf d23d e3b0 0f3e 352c f93d
000001a0: b0a8 193e cb89 193e a7a0 dd3d 59fe 813d
000001b0: 7599 8f3d f9e6 0c3e 663e 1b3e 6e86 b23d
000001c0: 84b9 f03d 8768 d63d 3182 053e 2ee0 cf3d
000001d0: 6761 033e 74cb bb3d 9238 893d 49b5 1c3e
000001e0: 017d fb3d cf44 8a3d c570 613d 15d2 123e
000001f0: 9350 0c3e a776 623c 48e8 403d dcea d93d
00000200: f188 3f3d 6459 403d 9da2 4a3d 038f f43d
00000210: 9b89 ea3d b37a fe3d 3d27 f63d 066f 053e
00000220: 8e1f 1d3e 8b6d 0d3e aafe 363e 2bb0 203e
00000230: d578 b73d 73b2 9f3d 4359 fa3d 5033 9a3d
00000240: e86c e33d 4342 d03d 7a4c 0c3e d457 063e
00000250: 056c 6f3d c509 7e3d 1a23 fbbd 798a b4bd
00000260: cfce a7bd cadc 94bd 6f0e f1bd 63fa cebd
00000270: 4624 e5bd 73d3 07be 210c f0bd 6d41 13be
00000280: 8179 eabd f7c4 a9bd f15b 02be a97d efbd
00000290: 4e64 ddbd 13be dfbd 48aa b0bd 98af 05be
000002a0: 85f8 e2bd 8536 b1bd d2b4 0cbe f3de 20be
000002b0: 8fb2 d4bd ba44 febd 1147 f8bd 3951 8e3d
000002c0: eef5 3e3d 0023 c13d d964 db3c 416b 58bd
000002d0: 532e cb3c dad0 1f3d ef51 0a3e 197a 033e
000002e0: 6d1f 153d d742 ce3d ed2d 153e 0db7 e53d
000002f0: 1a24 263e 69c0 0e3e 3bd4 9f3d 8305 f23d
00000300: 7e1e 183e 2ab6 883d ec52 073d 0679 ff3c
00000310: 7306 ef3d c8dd 063e 53b3 da3d dceb 873d
00000320: 2044 f3bd baaf dabd 2d74 98bd 999b 9abd
00000330: d305 b5bd 547f fdbd 7a1b ebbd 8353 afbd
00000340: 90db 96bd 529b 0dbe 0290 dfbd 5aac 8bbd
00000350: 76db 98bd 8ffc 91bd a4a9 07be e916 00be
00000360: c3d9 f6bd 73a3 b5bd 8d53 06be 2003 a7bd
00000370: d22e 9ebd 1a83 00be 1861 0dbe 24bb c7bd
00000380: 69bd 07be e92c 9e3d e5d4 973d b0de 2f3e
00000390: c915 fd3d c38e dd3d 69e5 cc3d 88f6 d33d
000003a0: 6eee 0e3e cf83 a93d 7447 ae3d ebb1 b53d
000003b0: 3ab2 ef3d 8fc6 e83d 59e7 023e 83a3 213e
000003c0: a6d6 953d 7634 af3d 4116 c53d 78df e53d
000003d0: d52d 883d 29e1 ee3d aacb bb3d c931 c43d
000003e0: 246d ca3d b089 f53d db87 c7bd 8ef7 acbd
000003f0: 817c 1ebe 3bca d8bd f9c1 bfbd aabf 13be
