caches/cache_11_14_big/param2img3.pt (torch, 185131 bytes, 19 tensors)

main.0.weight f4 [16]
0	0x3f800000	1.0
1	0x3f800000	1.0
2	0x3f800000	1.0
3	0x3f6dc9b2	0.9288589
4	0x3f89869e	1.0744207
5	0x3f707144	0.9392283
6	0x3f7badf3	0.983123
7	0x3f7af5f7	0.9803156
8	0x3f726ff3	0.9470207
9	0x3f83ac5f	1.0286978
10	0x3f82d775	1.0222002
11	0x3f8d3738	1.1032476
12	0x3f759f80	0.959465
13	0x3f800000	1.0
14	0x3f800000	1.0
15	0x3f5f9f01	0.87351996

main.0.bias f4 [16]
0	0x3e2f18a9	0.17099251
1	0x3db63760	0.08897281
2	0xbe3993e6	-0.18122825
3	0xbdf1023f	-0.117680065
4	0xbdd187fd	-0.10231016
5	0x3da8e6a8	0.08247119
6	0xbe059bf3	-0.13047771
7	0xbdbaccf1	-0.09121121
8	0x3d88346d	0.066506244
9	0x3d659533	0.05605049
10	0xbe02cfe1	-0.12774612
11	0x3ce8c8a9	0.028415995
12	0x3d81571a	0.063154414
13	0xbe163c9c	-0.14671558
14	0xbd8a799c	-0.067614764
15	0xbd9dc23f	-0.07703065

main.0.running_mean f4 [16]
0	0x00000000	0.0
1	0x00000000	0.0
2	0x3e4cccc2	0.19999984
3	0x3bf1342c	0.0073609557
4	0x3c29d493	0.010365623
5	0x3b15f74d	0.0022882998
6	0x3f0bed00	0.5465851
7	0x3bf1342c	0.0073609557
8	0x3ca9d493	0.020731246
9	0x3b15f74d	0.0022882998
10	0x3f0bed00	0.5465851
11	0x3bf1342c	0.0073609557
12	0x3cfebee4	0.031096883
13	0x00000000	0.0
14	0x3e4cccc2	0.19999984
15	0x3bf1342c	0.0073609557

main.0.running_var f4 [16]
0	0x110bb0ac	1.1019608e-28
1	0x110bb0ac	1.1019608e-28
2	0x243d713c	4.1078755e-17
3	0x3b0da581	0.002161354
4	0x378a4148	1.648128e-05
5	0x3922be8c	0.00015520508
6	0x3dab637a	0.08368583
7	0x3b0da581	0.002161354
8	0x388a4148	6.592512e-05
9	0x3922be8c	0.00015520508
10	0x3dab637a	0.08368583
11	0x3b0da581	0.002161354
12	0x391b896e	0.00014833148
13	0x110bb0ac	1.1019608e-28
14	0x243d713c	4.1078755e-17
15	0x3b0da581	0.002161354

main.1.weight f4 [20, 16]
0	0xbe2919eb	-0.16513793
1	0xbd81a230	-0.06329763
2	0xbd76c926	-0.060250424
3	0xbc853218	-0.016259238
4	0xbe5dc36f	-0.21656583
5	0x3dc09ac4	0.09404519
6	0x3e442259	0.19153728
7	0x3c1c6348	0.009545155
8	0xbe7a0421	-0.24415638
9	0x3d577f0c	0.052611396
10	0x3e920a5f	0.28523538
11	0x3e947682	0.28996664
12	0x3e08da04	0.13364416
13	0x3d587841	0.052849058
14	0x3e4b1f44	0.19836146
15	0xbe01a6d0	-0.1266129
16	0xbeb50c59	-0.35360983
17	0xbdd71342	-0.1050172
18	0x3ea1d9f7	0.31611606
19	0x3db84470	0.089974284
20	0x3d1c3477	0.038135972
21	0x3bf9a987	0.007619086
22	0x3e126be8	0.14298975
23	0x3e7839ae	0.24240753
24	0xbdb270c6	-0.08712916
25	0x3d10b27e	0.035326473
26	0x3dce5e12	0.10076536
27	0x3cecd5de	0.028910574
28	0xbe10724b	-0.141061
29	0x3e8f3bf9	0.27975443
30	0x3e977e03	0.29588327
31	0xbe05e6d3	-0.13076334
32	0xbd818d91	-0.0632583
33	0x3e238cda	0.159717
34	0x3df1448c	0.117806524
35	0xbd0e5aa2	-0.034754403
36	0x3d5df218	0.054185957
37	0x3df68483	0.12036993
38	0xbdcf5514	-0.10123649
39	0x3debdd86	0.115168616
40	0xbe476450	-0.1947186
41	0xbe13265d	-0.14370103
42	0xbe3e2f12	-0.18572643
43	0xbe123891	-0.14279391
44	0x3d320c05	0.043468494
45	0x3e1c61c2	0.15271667
46	0x3e1cc622	0.15309957
47	0xbe039675	-0.12850364
48	0x3d912f7d	0.07089136
49	0xbdf35d02	-0.11882974
50	0x3e5c7b3a	0.21531382
51	0x3d98522c	0.07437548
52	0x3e8d30c8	0.2757628
53	0x3c9f5911	0.01945165
54	0x3e1e0dd4	0.15434963
55	0x3dc634e2	0.09678055
56	0x3e63080e	0.22171041
57	0x3e20a7f3	0.15689068
58	0xbe1169b0	-0.14200473
59	0xbe061a39	-0.1309594
60	0x3e40b33b	0.18818371
61	0x3d93f300	0.07224083
62	0xbe59a0d3	-0.21252756
63	0xbe46bb5c	-0.1940741
64	0x3e353019	0.17694129
65	0x3bbe597e	0.005809008
66	0xbd94c54a	-0.072641924
67	0x3d4969b1	0.04917306
68	0xbe190671	-0.14943863
69	0xbc7e7aa8	-0.015532173
70	0xbdafce0d	-0.08584223
71	0x3e6df51c	0.23238033
72	0xbe595f41	-0.21227743
73	0xbd9289c3	-0.07155182
74	0xbc1cba83	-0.009565952
75	0xbe5f8bc2	-0.21830657
76	0x3e71e95a	0.23624173
77	0xbcac9160	-0.021065414
78	0x3e17fa30	0.14841533
79	0x3c351522	0.011052402
80	0xbd60532f	-0.05476683
81	0x3d018a1c	0.031625852
82	0x3e09d4b4	0.13460046
83	0x3e9e7928	0.3095181
84	0xbd618b49	-0.055064473
85	0xbdee8344	-0.11646131
86	0x3e1ef669	0.15523686
87	0x3e83cef2	0.25743824
88	0x3d9799a2	0.0740235
89	0x3d1b3f6f	0.037902292
90	0x3e6b0f5f	0.22955082
91	0x3e51f780	0.2050457
92	0x3e0fba07	0.14035808
93	0x3e27eba7	0.16398488
94	0xbd5ca7ef	-0.05387109
95	0xbd8b758a	-0.06809528
96	0xbcc9222b	-0.024552425
97	0xbe08ac84	-0.1334706
98	0x3e0abd94	0.13548881
99	0xbe440e8c	-0.19146174
100	0xbe30869e	-0.17238852
101	0xbd98f715	-0.07469002
102	0xbd0eab60	-0.034831405
103	0x3e856a6e	0.26057762
104	0x3e4edc82	0.20201305
105	0x3de39d33	0.11113968
106	0x3e321cd3	0.17393808
107	0xbde08dff	-0.109645836
108	0xbdf49fc3	-0.11944535
109	0x3dfdfd21	0.12401796
110	0xbbeb9a77	-0.0071900445
111	0x3e657711	0.22408701
112	0xbe4bffc5	-0.19921787
113	0xbe569080	-0.2095356
114	0x3e83065b	0.25590786
115	0x3e1e4d7c	0.15459245
116	0x3d9dd85e	0.077072844
117	0xbde58fe2	-0.11209084
118	0x3e309a01	0.17246248
119	0xbda840c0	-0.08215475
120	0x3c30bc73	0.010787117
121	0xbdd93663	-0.106060766
122	0xbd08250c	-0.033238456
123	0xbe3fdda9	-0.187369
124	0x3bee7e1e	0.007278218
125	0x3e992aee	0.29915565
126	0xbc654392	-0.013993161
127	0x3e853b1b	0.26021656
128	0xbe1bae28	-0.15203154
129	0x3e0baed2	0.13640907
130	0xbe41f5d2	-0.1894143
131	0xbd819343	-0.06326916
132	0x3e91a598	0.2844665
133	0x3db36630	0.08759725
134	0xbdeb3cd9	-0.11486215
135	0xbe068bc9	-0.13139261
136	0x3e895aa3	0.26826963
137	0x3e0d9f67	0.13830338
138	0xbe3f91fd	-0.18708034
139	0x3dc20ae6	0.09474735
140	0x3c01451d	0.007890013
141	0x3d875b2e	0.06609188
142	0xbdd2910d	-0.102815725
143	0x3e2ef1ea	0.1708447
144	0x3eb466b5	0.3523461
145	0xbe4af343	-0.1981936
146	0xbe4a1b2e	-0.1973693
147	0xbcf3b689	-0.029750125
148	0xbe4456b1	-0.19173695
149	0x3cf710a9	0.030159311
150	0xbe663aff	-0.22483443
151	0x3da03c63	0.07824018
152	0xbde849ee	-0.11342226
153	0xbe0390ce	-0.12848207
154	0x3d868b2e	0.06569515
155	0xbe4daa12	-0.20084408
156	0xbe4fa7b5	-0.20278819
157	0xbec9bb62	-0.39400774
158	0xbe697122	-0.22797063
159	0x3ddf1d1a	0.108942226
160	0xbec88eec	-0.3917154
161	0xbe2bc9f2	-0.16776255
162	0x3cb841ff	0.022492407
163	0x3e58e3af	0.21180604
164	0x3e4e8a2d	0.20169897
165	0x3df4eca0	0.11959195
166	0x3e172296	0.14759287
167	0x3da1ccf0	0.07900417
168	0xbe06df87	-0.13171206
169	0xbbdf1e36	-0.0068090213
170	0x3db8a8bf	0.09016561
171	0xbe464365	-0.19361646
172	0xbd84a92a	-0.06477578
173	0xbc14f530	-0.00909166
174	0x3de672c4	0.112523586
175	0x3e44a48b	0.19203393
176	0xbe28e135	-0.1649216
177	0xbde980c9	-0.11401517
178	0x3de5f7db	0.11228915
179	0x3e40a859	0.1881422
180	0x3dd507fe	0.10401915
181	0xbd85e603	-0.06538012
182	0x3d290e9b	0.041273694
183	0x3d0dc1a1	0.034608487
184	0xbdee13a3	-0.11624839
185	0x3dd8fd86	0.10595231
186	0x3db69270	0.089146495
187	0xbdda4ef4	-0.1065959
188	0x3c940904	0.018070705
189	0xbdf0d77d	-0.11759851
190	0x3e670572	0.22560671
191	0x3dcc6c29	0.099815674
192	0x3d3da636	0.04630109
193	0xbeaebb97	-0.34127495
194	0xbd03d020	-0.032180905
195	0x3de54935	0.11195604
196	0xbd4fd7bf	-0.05074286
197	0xbe8927c4	-0.2678815
198	0xbe09d03d	-0.13458343
199	0x3db2c466	0.08728866
200	0x3df5aa61	0.11995388
201	0xbe588506	-0.21144494
202	0xbe43eeb8	-0.19134033
203	0xbe826c46	-0.2547323
204	0xbcbf7a1f	-0.023373662
205	0xbde399ae	-0.111132964
206	0x3d9ade04	0.07561877
207	0x3e1d275a	0.15347043
208	0x3e23b149	0.15985598
209	0xbea28e5d	-0.3174924
210	0x3d49e602	0.04929162
211	0x3d089053	0.033340763
212	0x3d879cf3	0.066217326
213	0x3e45dd12	0.19322613
214	0x3d8b3cd4	0.067987114
215	0x3e050dc0	0.12993526
216	0x3cc75319	0.024331616
217	0x3e4edba3	0.20200972
218	0xbe280ebc	-0.1641187
219	0xbdb0ed49	-0.086390086
220	0xbc97366d	-0.01845857
221	0xbe8b9c6b	-0.27267775
222	0xbde6ad7d	-0.11263559
223	0xbe185eac	-0.14879864
224	0x3d931517	0.07181757
225	0xbdba11ca	-0.09085424
226	0xbdf001e5	-0.11719111
227	0xbdb12744	-0.086500674
228	0xbe08e6dd	-0.13369317
229	0x3d72eaa9	0.05930582
230	0x3e46434a	0.19361606
231	0x3e7b25b2	0.24526098
232	0xbe232e52	-0.15935639
233	0xbd42652d	-0.04745977
234	0x3d6c4565	0.057683367
235	0x3e56b533	0.2096756
236	0x3e1a09f8	0.15042865
237	0x3ebc8caa	0.36826068
238	0x3d3983d8	0.04529175
239	0xbdc0f231	-0.09421194
240	0xbd914f52	-0.07095207
241	0x3e109b23	0.1412168
242	0x3ebc1417	0.36734077
243	0x3e25d2ce	0.16193697
244	0x3d39c4f5	0.04535385
245	0x3db02df8	0.08602518
246	0x3e4d07d0	0.20022511
247	0x3df8c2b5	0.121465124
248	0xbc9efce1	-0.019407691
249	0xbe55f9e2	-0.20896104
250	0x3a89db5d	0.0010517646
251	0xbd42c49b	-0.04755078
252	0xbe701733	-0.2344635
253	0x3d252b37	0.040324416
254	0x3e5f4bc9	0.21806253
255	0xbc25db4d	-0.010123086

main.1.bias f4 [20]
0	0x3e0654a3	0.13118224
1	0xbe425a8e	-0.18979856
2	0xbe4e5281	-0.2014866
3	0x3e2d63ce	0.16932604
4	0x3e101172	0.14069155
5	0xbe135a97	-0.14390026
6	0xbdcae036	-0.09906046
7	0xbe8c557a	-0.27408963
8	0x3e3b623e	0.18299195
9	0x3e90b1ea	0.28260738
10	0xbdd5760b	-0.104229055
11	0xbe31afec	-0.17352265
12	0xbd8bd15d	-0.06827042
13	0x3e53f032	0.20697096
14	0xbea2b394	-0.31777632
15	0xbe8ed84e	-0.27899402
16	0x3e56f778	0.2099284
17	0xbd84eb28	-0.06490165
18	0xbe770755	-0.2412389
19	0xbe6a1d23	-0.22862677

main.3.weight f4 [20]
0	0x3f7cf8f4	0.9881737
1	0x3f83544d	1.0260102
2	0x3f6aec9f	0.91767305
3	0x3f73af74	0.95189595
4	0x3f7d8bcc	0.9904144
5	0x3f879cce	1.0594728
6	0x3f76a358	0.9634299
7	0x3f870f9e	1.0551641
8	0x3f79f653	0.97641486
9	0x3f74e1be	0.95656955
10	0x3f6cfc7a	0.9257275
11	0x3f8346ba	1.0255959
12	0x3f74d86d	0.9564274
13	0x3f8996e6	1.0749176
14	0x3f6f6af0	0.9352255
15	0x3f822f34	1.0170655
16	0x3f7a0316	0.9766096
17	0x3f6177be	0.8807334
18	0x3f760fbc	0.9611776
19	0x3f5ea317	0.86967605

main.3.bias f4 [20]
0	0x3db780e1	0.089601286
1	0x3cbe39a6	0.023220848
2	0xbe13c050	-0.1442883
3	0xbe14e54f	-0.145406
4	0xbd7795b4	-0.060445502
5	0xbd1889e5	-0.03724088
6	0xbdf62792	-0.12019266
7	0x3d44c4d1	0.04803926
8	0xbe805d7c	-0.25071323
9	0xbe19b6ac	-0.1501109
10	0xbe526d77	-0.2054957
11	0xbdc3049d	-0.09522364
12	0xbe12cc23	-0.14335684
13	0xbda4c50a	-0.08045395
14	0xbe33ab52	-0.17545822
15	0xbe641bb3	-0.22276191
16	0xbde8d868	-0.11369401
17	0xbe7c7d9b	-0.2465729
18	0xbe4752f2	-0.19465235
19	0xbe38d09c	-0.18048328

main.3.running_mean f4 [20]
0	0x3e6d3ad3	0.23166971
1	0xbd8117fb	-0.06303402
2	0x3bc7b377	0.006094392
3	0x3ea34579	0.3188894
4	0x3e32e3c8	0.17469704
5	0x3e02b98b	0.12766092
6	0xbbdf246f	-0.006809763
7	0xbdbb6013	-0.09149184
8	0x3ec2c3e8	0.3804009
9	0x3eefd55f	0.46842477
10	0xbd045ead	-0.032316852
11	0xbd54d789	-0.051963363
12	0x3de583d5	0.112067856
13	0x3ea9f101	0.33191684
14	0xbce56019	-0.027999924
15	0xbd83299a	-0.06404419
16	0x3ec216ad	0.37907925
17	0xbd0b7952	-0.034051247
18	0xbc8c22ab	-0.017106375
19	0xbd92a621	-0.07160593

main.3.running_var f4 [20]
0	0x3e32aae1	0.17447998
1	0x3ca8141b	0.0205174
2	0x3cf2262c	0.029559217
3	0x3e4b70b7	0.19867216
4	0x3cab2994	0.02089385
5	0x3e6346d6	0.2219499
6	0x3c345f8f	0.011009111
7	0x3bd1acd3	0.006398776
8	0x3e768d64	0.24077374
9	0x3e53b8c5	0.20675953
10	0x3c89e314	0.016831912
11	0x3b8a7586	0.0042254357
12	0x3db72204	0.08942035
13	0x3df56e2f	0.119839065
14	0x3d0631d2	0.032762356
15	0x3c9a2c8b	0.018820068
16	0x3e181e94	0.14855415
17	0x3ba33e3f	0.0049817855
18	0x3ccbcc7d	0.024877781
19	0x3be51106	0.0069905547

main.4.weight f4 [2048, 20]
0	0x3ee37ed9	0.44432715
1	0x3e1f1918	0.15536916
2	0xbeaa1a71	-0.33223298
3	0xbde815d4	-0.113322884
4	0x3c53c875	0.012926211
5	0x3e035104	0.12823874
6	0x3e06c8fe	0.1316261
7	0x3e2f445b	0.1711592
8	0x3dfa7f62	0.122313276
9	0x3d12c2c0	0.03583026
10	0xbc8b26bd	-0.016986245
11	0xbe831b32	-0.25606686
12	0xbea196d0	-0.31560373
13	0x3e15f536	0.14644322
14	0x3d3f3351	0.0466798
15	0xbdf48068	-0.11938554
16	0x3d970932	0.07374801
17	0x3d45f479	0.04832885
18	0xbea56450	-0.32303095
19	0x3cacc699	0.021090792
20	0xbdcfb3d1	-0.10141719
21	0xbda54a90	-0.08070862
22	0x3dfa9a64	0.12236479
23	0x3dc2966a	0.095013455
24	0xbd58fb7e	-0.052974217
25	0xbe0a6b1b	-0.1351742
26	0x3d537826	0.051628254
27	0xbe6d8590	-0.23195481
28	0xbd13f1e7	-0.036119368
29	0x3d179a56	0.03701242
30	0x3d54fac3	0.051996958
31	0xbe58214c	-0.21106452
32	0x3e249436	0.16072163
33	0x3de33f4c	0.11096057
34	0xbd8d33f6	-0.068946764
35	0xbd9dded9	-0.077085204
36	0x3d2e3cd3	0.042538475
37	0xbe170dfc	-0.14751428
38	0x3d8bca56	0.06825702
39	0xbe80533e	-0.2506351
40	0x3dd593dd	0.10428593
41	0x3dca06a6	0.09864549
42	0xbe92efbc	-0.28698528
43	0xbde268cf	-0.11055147
44	0xbdc2d292	-0.09512819
45	0x3d55c748	0.052192003
46	0xbe69a7da	-0.22817937
47	0x3cb86710	0.022510082
48	0xbdbe136a	-0.09281047
49	0xbd6b2316	-0.057406507
50	0x3af92bf1	0.0019010288
51	0xbdd3c830	-0.10340917
52	0xbd0b5083	-0.03401233
53	0x3b4616d9	0.003022602
54	0x3c3ffcb4	0.011717964
55	0x3d8765ab	0.066111885
56	0xbdcf5539	-0.10123677
57	0xbd5da90e	-0.0541163
58	0xbeaca61a	-0.33720475
59	0xbe2c1bc4	-0.16807467
60	0x3dd25222	0.10269572
61	0x3e5a8ec2	0.2134352
62	0xbe7c6389	-0.24647345
63	0xbdd43c98	-0.1036312
64	0x3e733cff	0.23753737
65	0xbe075323	-0.13215308
66	0x3d88824c	0.06665477
67	0xbe6c66bb	-0.23086064
68	0xbe7fb1b2	-0.24970129
69	0x3e4f34d7	0.20235
70	0x3e34603f	0.1761484
71	0x3d521b72	0.051295705
72	0x3e2dc431	0.16969372
73	0xbd8d24e3	-0.06891801
74	0x3c9573c5	0.01824368
75	0xbde1d5c7	-0.11027103
76	0xbe55d5f9	-0.20882405
77	0xbdd6a1bc	-0.10480067
78	0x3e281467	0.16414033
79	0xbd46a13c	-0.04849361
80	0x3e8ff78f	0.2811856
81	0xbd2e8b41	-0.04261327
82	0x3dcec1a8	0.10095531
83	0xbe6a9399	-0.22907867
84	0x3ca8d26e	0.020608153
85	0xbb766631	-0.0037597532
86	0xbe4f7dee	-0.20262882
87	0xbc03be0f	-0.008040919
88	0x3d524992	0.051339693
89	0xbb992e60	-0.004674718
90	0x3b0206f3	0.0019840568
91	0xbdb407f3	-0.08790579
92	0xbd17347a	-0.03691528
93	0x3e1d8c26	0.15385494
94	0x3e67e6d9	0.22646655
95	0xbe077f61	-0.13232185
96	0xbe41c96a	-0.1892449
97	0x3e267141	0.1625414
98	0x3e2a2262	0.16614679
99	0x3e33ea74	0.17569906
100	0x3e4ad9ea	0.1980969
101	0xbd00ec69	-0.03147546
102	0xbc60db17	-0.01372411
103	0xbdf01d17	-0.117242984
104	0x3e56d442	0.20979407
105	0xbdf2af3b	-0.11849829
106	0xbd5ad9bc	-0.053430304
107	0x3d690a42	0.05689455
108	0x3e711980	0.23544884
109	0xbe66dda7	-0.22545491
110	0xbe281c7b	-0.16417114
111	0xbd92381d	-0.07139609
112	0x3e440a67	0.19144593
113	0xbd626fb0	-0.055282295
114	0xbdcb7f04	-0.09936336
115	0xbe9138ae	-0.28363556
116	0xbc3d292c	-0.011545461
117	0xbe4efe92	-0.20214298
118	0xbde9484c	-0.11390743
119	0xbe310d7b	-0.17290299
120	0x3a9f22dd	0.0012141127
121	0x3dfcf4c1	0.123513706
122	0x3e05291c	0.13003963
123	0xbd3405d4	-0.04395087
124	0xbe255e53	-0.16149263
125	0xbe252f8c	-0.16131419
126	0x3dfcbaa3	0.12340286
127	0xbe699cc5	-0.22813709
128	0x3e85b802	0.2611695
129	0xbe3be15b	-0.18347685
130	0x3d8f3f40	0.06994486
131	0x3dc57365	0.096411504
132	0x3bd7fdd3	0.0065915375
133	0xbbd08cf2	-0.0063644582
134	0xbab08401	-0.0013467075
135	0xbdbe5af2	-0.0929469
136	0x3d1167a8	0.035499245
137	0xbe57a60d	-0.21059437
138	0xbd63487a	-0.05548904
139	0xbe43e0fa	-0.1912879
140	0xbd48527f	-0.0489068
141	0xbe372310	-0.17884469
142	0x3d4d2d76	0.050092183
143	0x3e176c17	0.14787327
144	0x3e85c07f	0.26123425
145	0xbe65c359	-0.224378
146	0xbe811084	-0.25207913
147	0xbe286b09	-0.1644708
148	0x3e1ddf47	0.15417205
149	0xbe4a94a7	-0.19783269
150	0x3d864e9c	0.06557962
151	0xbe12bb72	-0.14329317
152	0x3e6df601	0.23238374
153	0x3d8ee16f	0.06976592
154	0xbe3dac7c	-0.18522829
155	0x3d112c60	0.03544271
156	0x3a579250	0.00082234014
157	0x3db972e5	0.090551175
158	0x3d02b30d	0.031909037
159	0xbe823a27	-0.25434992
160	0x3dcb89b5	0.09938375
161	0x3e2d0166	0.16895065
162	0xbde73ff0	-0.11291492
163	0xbe347408	-0.17622387
164	0x3d95548f	0.07291519
165	0x3e1420a4	0.14465576
166	0x3e137ff8	0.14404285
167	0xbdfecfd2	-0.12441982
168	0x3df01b58	0.117239654
169	0x3dbe7452	0.0929953
170	0x3e264681	0.16237833
171	0xbe784c1a	-0.2424778
172	0xbe78dc80	-0.24302864
173	0x3d4136df	0.04717147
174	0x3dfc676a	0.12324412
175	0xbe647fc7	-0.22314368
176	0x3dd7c261	0.10535122
177	0x3be56c53	0.0070014386
178	0x3dea9088	0.114533484
179	0xbd362ad6	-0.044474445
180	0x3d8e6acd	0.069539644
181	0xbdf0a4c0	-0.117501736
182	0x3e2c8f38	0.16851509
183	0x3d5fdb8d	0.05465274
184	0xbe4c7e73	-0.19970112
185	0x3de61cb5	0.11235944
186	0xbd4e9a0d	-0.050439883
187	0x3cd3d4bb	0.025858274
188	0xbd18de84	-0.037321582
189	0xbd60d064	-0.054886237
190	0xbe88a7aa	-0.26690418
191	0x3de0c5dd	0.109752394
192	0xbd2a3cd4	-0.041561916
193	0xbddf3167	-0.108980946
194	0xbe777c94	-0.24168617
195	0x3cf8985e	0.030346092
196	0xbda6ddde	-0.081477866
197	0xbe176d55	-0.147878
198	0xbc6065b3	-0.013696122
199	0xbe671d41	-0.22569753
200	0x3e8f4e8a	0.27989608
201	0x3e341c15	0.17588837
202	0xbd2c7485	-0.04210331
203	0xbcaf25a5	-0.021380255
204	0xbdd14a99	-0.102193065
205	0x3e0aa7b5	0.13540538
206	0x3a9bb2b3	0.0011878818
207	0xbd997e26	-0.07494764
208	0xbe800753	-0.25005588
209	0x3dff49ba	0.12465234
210	0x3e7434e6	0.23848304
211	0x3d747038	0.059677333
212	0x3e4e6b7e	0.20158193
213	0xbe280e9a	-0.1641182
214	0xbca6139f	-0.020273028
215	0x3dfb6565	0.12275199
216	0x3d494b02	0.0491438
217	0x3e1655c3	0.14681153
218	0xbdccdc5a	-0.10002966
219	0x3e299d9c	0.1656403
220	0xbd7de3af	-0.061984714
221	0xbdc2d745	-0.09513716
222	0x3e520550	0.20509839
223	0x3e417c82	0.18895152
224	0x3e642237	0.22278677
225	0x3cb7d63c	0.022441022
226	0xbe712a98	-0.23551404
227	0xbce66583	-0.028124576
228	0x3cacfab7	0.021115644
229	0xbc2c1c5e	-0.01050481
230	0xbe78ee83	-0.24309735
231	0xbe510619	-0.20412482
232	0x3d5367f1	0.051612798
233	0xbe5a9be6	-0.21348533
234	0x3dde9d9d	0.10869906
235	0xbe797d1b	-0.2436413
236	0x3e3c82a5	0.18409212
237	0xbe13b38f	-0.14423965
238	0xbd49eb95	-0.049296934
239	0xbdbf22d9	-0.093328185
240	0x3deed515	0.11661736
241	0x3da8d218	0.08243197
242	0x3dd79a83	0.10527518
243	0xbe132512	-0.1436961
244	0x3d9ea488	0.077462256
245	0xbe701b99	-0.23448028
246	0xbe5fb2e2	-0.21845582
247	0x3e01c5d0	0.12673116
248	0xbe17e201	-0.14832307
249	0x3df6b5a9	0.12046368
250	0x3e547b76	0.20750222
251	0x3db640d4	0.08899084
252	0x3e098e20	0.13433123
253	0x3cda6fd3	0.02666465
254	0xbe4f9cda	-0.20274678
255	0xbdb7c3c4	-0.08972886

main.4.bias f4 [2048]
0	0x3d9d3315	0.07675759
1	0xbd633241	-0.055467848
2	0x3e9026e6	0.28154677
3	0x3ea1c6f5	0.31597105
4	0x3e6be107	0.2303506
5	0x3e2ec287	0.17066394
6	0xbe4b8d5d	-0.19878145
7	0x3df0f55f	0.11765551
8	0x3e8515a7	0.25993082
9	0xbdbac628	-0.091198266
10	0x3eab64fd	0.33475485
11	0x3e902c9b	0.2815903
12	0x3e94ea7d	0.2908515
13	0xbe4280f4	-0.18994504
14	0xbd03f162	-0.032212622
15	0x3e15504f	0.14581417
16	0x3e7cf0fa	0.247013
17	0x3e172a0f	0.14762138
18	0x3d96131a	0.07327862
19	0x3cb13df1	0.021635981
20	0x3c05fe61	0.008178324
21	0x3da36304	0.0797787
22	0x3e80f17e	0.25184244
23	0x3d270e22	0.040784962
24	0xbcdacd61	-0.02670926
25	0x3e2245bc	0.15846914
26	0x3df26ea4	0.11837509
27	0x3e6affd4	0.22949153
28	0x3d2f5bf0	0.042812288
29	0x3ebc32c6	0.36757487
30	0xbdab8ae0	-0.08376098
31	0x3d2d98e0	0.04238212
32	0xbdf821d7	-0.121158294
33	0x3e067bcf	0.13133167
34	0x3e445a56	0.19175085
35	0x3eb454dc	0.35220993
36	0x3de65e1d	0.112484194
37	0x3e5d171a	0.21590844
38	0x3e8f1644	0.27946675
39	0x3dbc3eab	0.091916405
40	0x3d1e97d5	0.038719017
41	0xbe07595f	-0.13217686
42	0x3e51a98d	0.20474835
43	0x3e207b7f	0.1567211
44	0xbd9c1d26	-0.07622747
45	0x3cc4c0e1	0.024017753
46	0x3e065b57	0.13120781
47	0x3e9d7ecb	0.30760798
48	0x3cdff226	0.027337145
49	0xbd283415	-0.041065294
50	0x3e8d2389	0.27566174
51	0xbd490bb3	-0.049083423
52	0xbc35767b	-0.011075611
53	0x3e6b3edf	0.22973202
54	0x3e938755	0.28814188
55	0xbe143703	-0.1447411
56	0x3da283eb	0.079353176
57	0xbc0b025a	-0.008484447
58	0x3cbb4eae	0.022864666
59	0xbdef7533	-0.11692276
60	0x3de608cc	0.112321466
61	0x3e0d90c3	0.13824753
62	0x3e83eafb	0.25765213
63	0xbd48cee8	-0.049025446
64	0xbd4351fd	-0.047685612
65	0x3e6ff700	0.23434067
66	0x3cb68ddd	0.022284443
67	0x3e17157d	0.14754291
68	0x3e9e9310	0.30971575
69	0x3e5f684b	0.21817128
70	0x3ea4e50d	0.32206002
71	0x3ea92dea	0.33042842
72	0x3ea0bd62	0.31394488
73	0xbd0199dd	-0.031640876
74	0xbdcbdacd	-0.09953842
75	0xbd93ffc2	-0.07226516
76	0x3eac2654	0.33622992
77	0xbd4811ce	-0.048845105
78	0x3dbd2432	0.09235419
79	0x3e9eba48	0.31001496
80	0x3e1cfe39	0.15331353
81	0x3e47b92c	0.19504231
82	0x3ea4f476	0.3221776
83	0x3eb47146	0.3524267
84	0xbd9b09c5	-0.07570223
85	0xbb99eecf	-0.0046976577
86	0x3e469d1f	0.19395874
87	0x3d149967	0.03627911
88	0xbda61b82	-0.081107154
89	0x3e7af241	0.24506475
90	0x3d440ffb	0.047866803
91	0x3e1428a7	0.14468633
92	0x3e548559	0.20753993
93	0x3d11ec2f	0.035625633
94	0x3e355ec0	0.17711926
95	0x3e6faecd	0.23406525
96	0xbd8247c7	-0.06361347
97	0xbcff58ad	-0.031170214
98	0x3d06a406	0.03287127
99	0x3e6beaba	0.2303876
100	0x3d75e341	0.06003118
101	0x3e73d27a	0.23810759
102	0x3d6180d6	0.05505451
103	0x3d11429d	0.035463918
104	0x3daa29dc	0.08308765
105	0x3e582193	0.21106558
106	0x3e427093	0.18988256
107	0x3e147f45	0.14501674
108	0x3e16b189	0.14716162
109	0x3e4b23b1	0.19837834
110	0x3dc13db1	0.09435595
111	0xbcea2dc9	-0.028586285
112	0x3e9e2a63	0.30891714
113	0x3dd0ecc7	0.10201412
114	0xbd93da84	-0.07219413
115	0x3e95d14c	0.29261243
116	0x3e0df0f7	0.13861452
117	0xbcaabded	-0.020842517
118	0xbd5213e9	-0.05128852
119	0x3e9b1de3	0.3029624
120	0x3e5d73db	0.21626227
121	0x3d7f3fd6	0.062316738
122	0x3d3c31be	0.045945875
123	0x3e6546e7	0.22390328
124	0x3dfee722	0.12446429
125	0xbd39f19c	-0.045396432
126	0x3e95a5ce	0.2922806
127	0x3dce855a	0.100840285
128	0x3c261950	0.010137871
129	0xbd55cda0	-0.052198052
130	0xbd588e76	-0.052870236
131	0x3e0a3c7d	0.13499637
132	0x3dc41959	0.09575147
133	0x3db13ee5	0.08654574
134	0x3e2845c0	0.16432858
135	0x3d0f084f	0.034920033
136	0xbdb4dd52	-0.08831276
137	0xbde94a62	-0.113911405
138	0xbd0e676c	-0.0347666
139	0x3e83a3b8	0.25710845
140	0x3d44f0e9	0.048081312
141	0xbe21f5c3	-0.15816407
142	0x3e7adb88	0.24497807
143	0x3e368b0d	0.17826481
144	0x3e29bd68	0.16576159
145	0x3e0cb796	0.13741907
146	0x3d8a59e0	0.067554235
147	0x3e63b22a	0.22235933
148	0x3de3af39	0.111174054
149	0x3e590393	0.2119277
150	0x3e310cc5	0.17290027
151	0x3dbe276e	0.09284864
152	0x3dda764e	0.10667096
153	0x3e8ae7c8	0.2712996
154	0x3e73989f	0.23788689
155	0x3d7ba9ae	0.061441116
156	0x3e31ec8a	0.17375389
157	0xbd070219	-0.032960985
158	0x3e3bcea1	0.18340541
159	0x3e887d3b	0.26658043
160	0xbdd53851	-0.10411132
161	0x3e95cfd3	0.2926012
162	0x3e578d93	0.210501
163	0x3e99641d	0.29959193
164	0x3cab6aef	0.020925013
165	0x3e23fa0c	0.16013354
166	0xbd8b991d	-0.068163134
167	0xbda32865	-0.07966689
168	0x3c2ed389	0.010670551
169	0x3e90646d	0.2820162
170	0x3e789ee3	0.2427936
171	0x3e12be2a	0.14330354
172	0x3e47dcd8	0.19517839
173	0x3dbb012c	0.09131083
174	0x3db46128	0.088075936
175	0xbd8b08dd	-0.067888
176	0xbdc06268	-0.093937695
177	0x3d428e65	0.04749908
178	0x3cda144d	0.026621008
179	0xbd354f1d	-0.0442649
180	0x3d536561	0.051610354
181	0xbdc8cf94	-0.098052174
182	0xbe007be3	-0.12547259
183	0xbda23bd0	-0.079215646
184	0x3d833e84	0.06408408
185	0x3e2f3410	0.17109704
186	0x3ce74eb0	0.028235763
187	0x3e868a47	0.26277372
188	0x3e3e3176	0.18573555
189	0xbcebe35e	-0.02879494
190	0x3e72325d	0.23652025
191	0xbdf8f35f	-0.12155794
192	0x3e389c00	0.1802826
193	0xbd4f345d	-0.050587047
194	0xbddfe5c0	-0.10932493
195	0xbdb1fb41	-0.08690501
196	0x3e077b3f	0.13230608
197	0x3ddc2678	0.10749525
198	0x3e1b72d4	0.15180522
199	0xbde4cc61	-0.11171795
200	0x3dbb7727	0.09153586
201	0xbdf3c82b	-0.119034134
202	0xbe19b3f3	-0.15010051
203	0x3d54649c	0.05185376
204	0x3e2ba796	0.16763148
205	0x3dc1638b	0.094428144
206	0x3c901f15	0.017592946
207	0xbd10e3c4	-0.035373464
208	0x3debef42	0.11520244
209	0x3e15f461	0.14644004
210	0xbdb2f326	-0.08737783
211	0xbe0cba24	-0.13742882
212	0x3e512e74	0.20427877
213	0xbd24276e	-0.040076666
214	0x3c952d88	0.018210188
215	0x3e34663b	0.17617123
216	0x3dd5fd91	0.104487546
217	0xbe4422c7	-0.19153892
218	0x3e3fd22f	0.18732522
219	0xbe2b22d5	-0.16712506
220	0x3e0528d2	0.13003853
221	0x3e592278	0.21204555
222	0x3d2e68e9	0.04258052
223	0x3db0dafe	0.086355194
224	0x3b279f82	0.0025577252
225	0xbdae96e4	-0.08524874
226	0xbdced016	-0.10098283
227	0x3d13f14b	0.036118787
228	0xbb2d4145	-0.0026436609
229	0x3e1fe3a3	0.1561418
230	0x3e62a6aa	0.2213389
231	0x3e0a44d6	0.13502821
232	0xbb8221b2	-0.003971302
233	0x3b344e4a	0.0027512484
234	0xbe52dc43	-0.20591836
235	0x3e4d4992	0.20047596
236	0x3e18951e	0.14900634
237	0x3dad7f21	0.084715135
238	0xbe2b9110	-0.16754556
239	0xbd6abadf	-0.05730712
240	0x3e34927c	0.17634004
241	0xbd998cd7	-0.07497566
242	0xbe310ce6	-0.17290077
243	0xbd1010bf	-0.03517222
244	0xbb0321e6	-0.0020009219
245	0xbd88bf0b	-0.066770636
246	0xbe300c9f	-0.17192315
247	0xbce94829	-0.028476791
248	0xbda92df8	-0.08260721
249	0xbe4cd94b	-0.20004766
250	0x3e4a9b61	0.19785835
251	0x3baa7da3	0.0052029653
252	0x3e79b33f	0.24384783
253	0x3d1b8da4	0.037976876
254	0x3db38656	0.08765857
255	0x3d871d89	0.0659743

conv.0.weight f4 [20, 1, 5, 5]
0	0xbcb39114	-0.021919765
1	0x3e09c7e0	0.13455153
2	0x3e2846a6	0.164332
3	0x3d2ca777	0.042151894
4	0x3e1874dd	0.1488833
5	0x3e2c8f14	0.16851455
6	0x3e4b1cca	0.19835201
7	0xbdda38a5	-0.10655335
8	0xbddba35f	-0.1072452
9	0xbdad9b15	-0.08476845
10	0xbe185c14	-0.14878875
11	0xbd0c214f	-0.034211453
12	0x3e10f434	0.14155656
13	0x3ce336e9	0.027736144
14	0x3e0827c8	0.13296425
15	0xbcf86f32	-0.03032646
16	0x3e22f7a8	0.15914786
17	0xbd2db6bf	-0.04241061
18	0x3e34eda5	0.17668779
19	0x3b4c8d42	0.0031212126
20	0x3c986fd8	0.018608019
21	0x3bec420a	0.007210021
22	0xb9bdd317	-0.00036206163
23	0x3c35c7a0	0.011094958
24	0x3cf0b8ee	0.029385056
25	0xbe2d608c	-0.16931361
26	0x3d5f4880	0.0545125
27	0xbe65d92c	-0.22446126
28	0xbe4e33f3	-0.20137005
29	0xbd051967	-0.03249493
30	0xbd04dbd0	-0.032436192
31	0xbe363fd6	-0.17797789
32	0x396c9471	0.00022562013
33	0xbde7295f	-0.11287188
34	0x3d687ff2	0.056762643
35	0x3dabc2ce	0.083867654
36	0xbdf5d3a9	-0.120032616
37	0xbe1a2aef	-0.1505544
38	0xbe153525	-0.14571054
39	0xbce3321e	-0.027733859
40	0xbdc4043a	-0.09571119
41	0xbdb718cf	-0.08940279
42	0xbda2b3ab	-0.07944425
43	0x3e18ee3c	0.14934629
44	0xbd9c9a18	-0.076465786
45	0xbd8f1749	-0.06986863
46	0x3e5d0eb6	0.21587643
47	0x3e3b00b1	0.18261983
48	0x3e59454b	0.2121784
49	0x3e336fcd	0.17523117
50	0xbc893244	-0.016747601
51	0xbdbb97c2	-0.09159805
52	0xbc8e36ae	-0.017360058
53	0x3e042991	0.12906481
54	0xbdc0f1c6	-0.094211146
55	0xbdf93ed1	-0.121701844
56	0x3e0be212	0.13660458
57	0xbd40cd64	-0.047070876
58	0xbd6f0e8c	-0.058363482
59	0x3e296bf3	0.16545086
60	0xbe60c10d	-0.21948643
61	0xbd8f747d	-0.0700464
62	0x3d9c00d2	0.07617344
63	0x3e23d25a	0.15998212
64	0xbd039f5a	-0.03213439
65	0xbd209e80	-0.039213657
66	0x3b66d927	0.0035224648
67	0x3e83277d	0.25616065
68	0x3e4c849e	0.19972464
69	0x3dea7e8b	0.114499174
70	0xbd69c2ac	-0.05707042
71	0xbdfecd1b	-0.124414645
72	0xbd3859ae	-0.0450074
73	0x3dde1421	0.10843683
74	0xbe0b9fe0	-0.13635206
75	0x3e2778c6	0.16354665
76	0x3d56896d	0.052377153
77	0x3dc9bd71	0.09850586
78	0x3e122107	0.14270411
79	0x3e155de4	0.14586598
80	0x3d74f3e7	0.059802916
81	0x3e1f82b9	0.1557721
82	0x3da1a60b	0.07892998
83	0x3d2f61d6	0.042817913
84	0x3d6d72ec	0.057970926
85	0x3df969fd	0.12178419
86	0x3e03b737	0.1286286
87	0x3e2c3ba4	0.16819626
88	0xbde2ff26	-0.11083822
89	0xbdbb21ec	-0.091373295
90	0xbe050aa6	-0.12992343
91	0xbe392a69	-0.18082584
92	0xbcbb1438	-0.02283679
93	0x3dd02ae1	0.101644285
94	0xbd592034	-0.053009227
95	0xbe3d874b	-0.18508641
96	0x3d168d0e	0.036755614
97	0xbaca3943	-0.0015428442
98	0xbe5a01d7	-0.21289764
99	0xbd8640c2	-0.0655532
100	0xbd48aed8	-0.04899487
101	0x3dcdf3f0	0.10056293
102	0x3e0ea942	0.13931754
103	0xbe36562a	-0.17806306
104	0xbd059936	-0.032616816
105	0xbd8cdc7c	-0.068779916
106	0x3d2f1687	0.042746093
107	0x3ea4e7a8	0.3220799
108	0x3dd71b60	0.10503268
109	0xbc570713	-0.013124245
110	0x3e540124	0.2070356
111	0x3e0a5a31	0.13510968
112	0x3e1ac513	0.1511424
113	0x3ea2f02b	0.3182386
114	0xbd4ff00a	-0.05076603
115	0xbd91d9e8	-0.071216404
116	0xbcbb4d09	-0.022863882
117	0xbe1d4840	-0.15359592
118	0xbe099473	-0.13435535
119	0xbddae7d9	-0.10688753
120	0xbcaebcf2	-0.02133033
121	0x3e228d6a	0.15874258
122	0xbd698643	-0.057012808
123	0xbd057df8	-0.032590836
124	0xbd6d7662	-0.057974227
125	0xbdf612ac	-0.1201528
126	0xbe1c9a65	-0.15293272
127	0xbd113f16	-0.035460554
128	0xbe02c993	-0.12772207
129	0xbdfb37a7	-0.12266474
130	0xbe348e4d	-0.17632408
131	0xbe5da948	-0.21646607
132	0xbddb68f1	-0.10713375
133	0xbe3f105a	-0.18658581
134	0xbe28671b	-0.16445582
135	0xbde8309f	-0.11337399
136	0xbe02168b	-0.12703912
137	0xbe3f9bda	-0.18711796
138	0xbe1cfc8a	-0.15330711
139	0xbe3934db	-0.18086569
140	0xbd880d71	-0.06643189
141	0xbdb4beea	-0.088254765
142	0x3d0c4a38	0.034250468
143	0x3cf3d420	0.029764235
144	0x3b8d7854	0.0043173227
145	0xbab921a4	-0.0014124406
146	0x3d2734fe	0.04082202
147	0x3db74b7f	0.089499466
148	0x3d5d6fad	0.05406158
149	0xbd645bb4	-0.055751517
150	0x3b0d59db	0.002156845
151	0xbe749ddc	-0.23888344
152	0xbe4aab6b	-0.19791953
153	0xbdab78f4	-0.08372679
154	0xb9855c64	-0.00025436573
155	0xbe0ff044	-0.14056498
156	0xbe94cebc	-0.29063976
157	0x3da18b75	0.078879274
158	0xbd3e2009	-0.04641727
159	0xbcdbefc9	-0.026847737
160	0xbe805201	-0.25062564
161	0xbe693891	-0.22775485
162	0xbe129dba	-0.1431798
163	0x3da1bac0	0.07896948
164	0x3c0918a4	0.008367691
165	0xbdb54a1d	-0.088520266
166	0xbbf54da8	-0.007486064
167	0xbd2714e2	-0.0407914
168	0xbd9b7a97	-0.075917415
169	0xbc417b13	-0.011809128
170	0xbe302a68	-0.17203677
171	0x3e5fc23b	0.21851437
172	0x3e4ed52e	0.20198509
173	0x3e763f35	0.24047549
174	0xbd568458	-0.052372307
175	0x3e0585bc	0.13039297
176	0xbdeb6776	-0.11494343
177	0xbe44799d	-0.19187017
178	0xbe47caa0	-0.19510889
179	0x3d3963c8	0.045261174
180	0xbd506e4d	-0.05088644
181	0x3cb01cc6	0.021498095
182	0xbe2610d5	-0.16217358
183	0x3cd9b431	0.02657518
184	0xbce1923c	-0.02753555
185	0xbc90a506	-0.017656814
186	0xbdb90993	-0.09035029
187	0x3ca75dae	0.020430412
188	0xbe4437fd	-0.19161983
189	0xbd146edc	-0.036238536
190	0x3da6e558	0.081492126
191	0xbe3f99b7	-0.18710981
192	0x3de09795	0.10966412
193	0xba3faa07	-0.0007311408
194	0x3e5e552e	0.21712181
195	0x3e4c874a	0.19973484
196	0xbcecc7b7	-0.028903825
197	0x3e003215	0.12519105
198	0xbc415e04	-0.0118022
199	0x3dd93cdf	0.10607313
200	0xbd504bbe	-0.050853483
201	0xbe3a3fa0	-0.18188334
202	0xbda492cc	-0.08035812
203	0xbe5e49c6	-0.2170783
204	0x3dd99499	0.10624046
205	0xbdc0467c	-0.09388444
206	0x3dcf232f	0.101141326
207	0xbe8cceb5	-0.27501455
208	0xba98ac10	-0.0011647958
209	0x3d69eff3	0.0571136
210	0x3da91a57	0.08256977
211	0x3dee5472	0.116372004
212	0x3d46945b	0.048481327
213	0xbe25377e	-0.1613445
214	0x3dfbf560	0.12302661
215	0x3c4995c0	0.01230377
216	0x3d431bb2	0.047633834
217	0xbe47f451	-0.19526793
218	0xbd94e880	-0.07270908
219	0x3da8762c	0.082256645
220	0x3af1a2e2	0.0018435384
221	0xbcabe16a	-0.02098151
222	0xbe1b20b7	-0.15149198
223	0x3e529140	0.20563221
224	0x3e39a60b	0.18129747
225	0xbe437e6b	-0.19091193
226	0xbe826e98	-0.25475
227	0xbd8d640a	-0.069038466
228	0xbd7ea8c8	-0.06217268
229	0x3c72bec5	0.014815991
230	0xbe2828e8	-0.16421854
231	0x3d69dc91	0.057095114
232	0xbcd8ec43	-0.026479846
233	0xbdf1b1f5	-0.11801521
234	0xbe67d092	-0.22638157
235	0xbb3891b4	-0.0028163018
236	0xbcb2298d	-0.021748329
237	0xbc0c00bb	-0.008545096
238	0xbd5ad4e6	-0.053425692
239	0x3caec0e9	0.021332221
240	0xbd07e1c8	-0.033174306
241	0x3d87a06e	0.066223964
242	0xbd5b04a3	-0.05347122
243	0xbd637c76	-0.055538617
244	0x3d1c61dd	0.038179267
245	0x3df4fa17	0.11961763
246	0x3e0a2ff5	0.13494857
247	0x3e2d181b	0.16903727
248	0x3de91d78	0.11382574
249	0x3e1858c2	0.14877608
250	0x3e193416	0.14961275
251	0x3d93f197	0.07223814
252	0xbd5224bc	-0.051304564
253	0x3db4b163	0.08822896
254	0xbd1c9738	-0.03823015
255	0xbc96d7b0	-0.018413395

conv.0.bias f4 [20]
0	0xbe46f2a1	-0.19428493
1	0xbe2c2640	-0.16811466
2	0x3ddca641	0.10773898
3	0x3d53886c	0.051643774
4	0xbda2f5a9	-0.07957012
5	0x3df02922	0.117265955
6	0xbdf355ac	-0.11881575
7	0x3c9bb475	0.019006947
8	0x3c21a0ee	0.009865029
9	0xbd81bc8a	-0.06334789
10	0xbd939c07	-0.07207494
11	0x3d046726	0.032324933
12	0x3e77ef6c	0.24212426
13	0x3cc1cc6e	0.02365705
14	0x3c679b80	0.014136195
15	0xbe1e6ca4	-0.1547113
16	0x3d7e6f11	0.06211764
17	0x3d193bec	0.03741066
18	0xbdb26c43	-0.087120555
19	0x3df4c687	0.119519286

conv.2.weight f4 [20]
0	0x3f8d36f0	1.103239
1	0x3f8c69e5	1.0969816
2	0x3f66cfc4	0.90160775
3	0x3f94b53d	1.161781
4	0x3f7f70d8	0.9978156
5	0x3f927b81	1.144394
6	0x3f8d6dd1	1.1049138
7	0x3f8e58cc	1.1120849
8	0x3f8dc77f	1.1076506
9	0x3f8f354c	1.118814
10	0x3f917b55	1.1365763
11	0x3f93d00e	1.1547868
12	0x3f761dc3	0.9613916
13	0x3f74660e	0.95468223
14	0x3f8be150	1.0928135
15	0x3f6c6965	0.9234832
16	0x3f6b729a	0.91971743
17	0x3f9041f9	1.1270133
18	0x3f95fc92	1.1717703
19	0x3f8e963f	1.1139601

conv.2.bias f4 [20]
0	0xbe0853c0	-0.13313198
1	0xbdecbc57	-0.115593605
2	0x3e09d5fc	0.13460535
3	0xbe134046	-0.14379987
4	0x3e299c51	0.16563536
5	0xbdf9cf79	-0.121977754
6	0xbdfe9404	-0.124305755
7	0xbe31db63	-0.17368846
8	0xbdf2bb88	-0.11852175
9	0xbe0bfb0f	-0.1366999
10	0xbe18afb7	-0.1491078
11	0xbe400deb	-0.1875531
12	0x3e2fb9d3	0.1716073
13	0x3e1d0b0a	0.15336242
14	0xbe12e9e7	-0.14347039
15	0x3e11834d	0.14210244
16	0x3df885c6	0.1213489
17	0xbdef43ba	-0.1168284
18	0x3e99e30d	0.30056038
19	0xbdd9dc4f	-0.10637724

conv.2.running_mean f4 [20]
0	0x3d85548d	0.065102674
1	0xbd54e565	-0.05197658
2	0x3e2f3d2b	0.17113177
3	0x3e3d4301	0.18482591
4	0x3de08800	0.1096344
5	0xbd451d98	-0.048123926
6	0xbd865952	-0.06560005
7	0x3d4dd7b2	0.05025453
8	0x3d2e02c7	0.042483117
9	0xbc4e652a	-0.012597362
10	0x3e13b8d5	0.14425977
11	0x3e9afc5d	0.30270663
12	0x3ed22dd3	0.41050586
13	0x3ddd7b70	0.108145595
14	0x3e9a6041	0.3015156
15	0xbd45ef2d	-0.0483238
16	0x3e65b7b4	0.22433358
17	0xbd39daec	-0.045374796
18	0xbd12c21c	-0.03582965
19	0xbd35a769	-0.044349108

conv.2.running_var f4 [20]
0	0x3d0f8aff	0.035044666
1	0x3c2afbe1	0.010436029
2	0x3d278d0d	0.040906
3	0x3d3cb117	0.046067324
4	0x3d4ddd78	0.050260037
5	0x3c08a8f6	0.008341065
6	0x3c18983f	0.009313642
7	0x3cce2528	0.025164202
8	0x3cc55198	0.024086758
9	0x3c4252d4	0.011860568
10	0x3d45c099	0.04827938
11	0x3da9c37e	0.0828924
12	0x3d7b814e	0.06140261
13	0x3d12c481	0.035831932
14	0x3da61655	0.08109728
15	0x3bbc5a85	0.0057480955
16	0x3d7bead4	0.061503246
17	0x3bcf0879	0.0063181487
18	0x3c14e4ab	0.009087722
19	0x3c23c0bf	0.009994685

conv.3.weight f4 [1, 20, 5, 5]
0	0x3e0b550b	0.1360666
1	0x3dcb1ffa	0.099182084
2	0x3e1b7b80	0.1518383
3	0x3d82ed27	0.063928895
4	0x3e177175	0.14789374
5	0x3da4c495	0.080453075
6	0x3e1f68ea	0.15567365
7	0x3dd0eebe	0.102017865
8	0x3d90f2cd	0.070775606
9	0x3dffe220	0.12494302
10	0x3dca24fb	0.09870335
11	0x3e03e3fd	0.1287994
12	0x3dc72012	0.09722914
13	0x3e00182c	0.12509221
14	0x3dfb4328	0.122686684
15	0x3db2d787	0.08732515
16	0x3e0f96f6	0.14022431
17	0x3e0a85fe	0.13527676
18	0x3e045ba7	0.12925588
19	0x3d8d053b	0.06885763
20	0x3db2ce66	0.08730774
21	0x3d9997d8	0.07499665
22	0x3dfe35ce	0.12412606
23	0x3e00a3b1	0.12562443
24	0x3dd21f58	0.102598846
25	0x3d94a55e	0.07258104
26	0x3d87d20e	0.066318616
27	0x3d9c7e1e	0.076412424
28	0x3d45ff75	0.048339326
29	0x3de524d5	0.11188666
30	0x3daa2c08	0.083091795
31	0x3dd3f04e	0.10348569
32	0x3dbed709	0.093183585
33	0x3ddb2a61	0.107014425
34	0x3d701762	0.05861605
35	0x3d58852e	0.052861385
36	0x3e02b08e	0.12762663
37	0x3d4f4c0e	0.05060964
38	0x3dc9640a	0.09833534
39	0x3de03de9	0.109493084
40	0x3dfe14c8	0.124063075
41	0x3e0ff938	0.14059913
42	0x3e1afaaf	0.1513469
43	0x3d9ac9c6	0.075580165
44	0x3dbf89df	0.09352469
45	0x3e10a1f7	0.14124285
46	0x3e142cfe	0.14470288
47	0x3e14f27b	0.14545624
48	0x3de30cb9	0.11086411
49	0x3d950ceb	0.072778545
50	0xbdb61d6e	-0.08892332
51	0xbe25815f	-0.16162632
52	0xbe1bb7d5	-0.15206845
53	0xbde1a56f	-0.11017882
54	0xbdeb5d3c	-0.114923924
55	0xbdef7904	-0.11693004
56	0xbdeb5054	-0.11489931
57	0xbe360af2	-0.17777613
58	0xbe0d81c9	-0.1381904
59	0xbe05b2db	-0.13056509
60	0xbe42b2bb	-0.19013493
61	0xbe4765fb	-0.19472496
62	0xbe302e62	-0.17205194
63	0xbe2be7e8	-0.16787684
64	0xbe260cf3	-0.16215877
65	0xbe068a18	-0.13138616
66	0xbe3696ba	-0.17830935
67	0xbdd18a0c	-0.102314085
68	0xbe0ffa8d	-0.14060421
69	0xbe57e1b8	-0.21082199
70	0xbd6e39fd	-0.05816077
71	0xbe23d38d	-0.15998669
72	0xbde20b5b	-0.11037322
73	0xbdf5bb0e	-0.119985685
74	0xbe2ef566	-0.170858
75	0x3db996f5	0.09061996
76	0x3db9c055	0.090698875
77	0x3dff6f0b	0.12472352
78	0x3e1566bb	0.1458997
79	0x3e18e5eb	0.14931457
80	0x3e26deb5	0.16295893
81	0x3df869a7	0.121295266
82	0x3e14aaca	0.14518276
83	0x3dea9899	0.11454887
84	0x3e18e2d4	0.14930278
85	0x3e1b985a	0.15194836
86	0x3db8415f	0.089968435
87	0x3e06349d	0.13106008
88	0x3e110636	0.14162526
89	0x3dd7caf8	0.1053676
90	0x3e0b438e	0.13599989
91	0x3e0c58c9	0.13705744
92	0x3e0f009c	0.13965076
93	0x3e27b2ca	0.16376796
94	0x3deb3876	0.114853784
95	0x3d4d2457	0.050083485
96	0x3dc16d80	0.094447136
97	0x3d9f2e4b	0.077725016
98	0x3d35b8aa	0.044365562
99	0x3d5b8a12	0.05359847
100	0xbda71cbe	-0.08159779
101	0xbdc46185	-0.09588913
102	0xbd9d56da	-0.07682581
103	0xbdbf7d68	-0.09350091
104	0xbd86208e	-0.06549178
105	0xbe01d64e	-0.12679407
106	0xbe036249	-0.12830462
107	0xbd73ffaa	-0.059569992
108	0xbe3266ec	-0.17422074
109	0xbdcea68a	-0.100903586
110	0xbda0bdb5	-0.07848684
111	0xbdce36c9	-0.10069043
112	0x3d82d773	0.0638875
113	0xbe152b76	-0.1456736
114	0xbda0ec64	-0.07857588
115	0xbdeec296	-0.11658208
116	0xbddb89f5	-0.107196726
117	0xbdca8f46	-0.098906085
118	0xbe4eb7ea	-0.20187345
119	0xbe264f37	-0.16241156
120	0xbe3d72d5	-0.18500836
121	0xbe33706a	-0.17523351
122	0xbdf53fd0	-0.11975062
123	0xbe129b8a	-0.14317146
124	0xbe315c8f	-0.17320465
125	0x3d5c9c61	0.053860072
126	0x3d76ddce	0.060270123
127	0x3d3944bb	0.045231562
128	0x3d5b871a	0.05359564
129	0x3db14137	0.08655017
130	0x3de12a9c	0.10994455
131	0x3df49eec	0.119443744
132	0x3da35d0c	0.07976732
133	0x3ddcdcd5	0.10784308
134	0x3dad4d35	0.08461992
135	0x3e1607fd	0.14651485
136	0x3dab5059	0.083649345
137	0x3df14030	0.11779821
138	0x3dfdb343	0.12387707
139	0x3db4951b	0.08817502
140	0x3e03b46f	0.12861799
141	0x3e0c5840	0.1370554
142	0x3e262e2f	0.16228555
143	0x3e024f96	0.12725672
144	0x3dd3324c	0.10312328
145	0x3dd3cb48	0.10341507
146	0x3dc65bb4	0.0968546
147	0x3dc43cf2	0.09581937
148	0x3e049fbd	0.1295156
149	0x3e0017cd	0.1250908
150	0x3db18858	0.08668584
151	0x3de3bd90	0.111201406
152	0x3d1e1063	0.038589846
153	0x3dd3c3e2	0.10340096
154	0x3e033449	0.12812914
155	0x3d6d31c2	0.05790878
156	0x3de1da1f	0.110279314
157	0x3da200fd	0.07910345
158	0x3d30f0ce	0.0431984
159	0x3d817a77	0.063221864
160	0x3dda3a72	0.10655679
161	0x3db7f426	0.089821145
162	0x3da598ef	0.080858104
163	0x3d94ffa2	0.072753206
164	0x3e04c881	0.12967111
165	0x3d9713a0	0.0737679
166	0x3dfa210b	0.12213334
167	0x3d9f146a	0.077675655
168	0x3df72604	0.12067798
169	0x3e1c7347	0.1527835
170	0x3dfe6053	0.12420716
171	0x3dc55a29	0.09636337
172	0x3e0508a0	0.12991571
173	0x3d9de3ec	0.07709488
174	0x3de19cc4	0.11016229
175	0x3da84d72	0.082178965
176	0x3def571c	0.11686537
177	0x3dc14eda	0.09438868
178	0x3dda2a65	0.10652617
179	0x3e165bee	0.14683506
180	0x3e231336	0.15925297
181	0x3da2c2f9	0.07947344
182	0x3e125d4a	0.142934
183	0x3dd334f9	0.10312838
184	0x3d82ed85	0.063929595
185	0x3e11701a	0.1420292
186	0x3df4b650	0.11948836
187	0x3e1b5fbf	0.15173243
188	0x3df015d7	0.117229156
189	0x3dde6564	0.108591825
190	0x3daa5334	0.08316651
191	0x3e1f901a	0.15582314
192	0x3dd91df2	0.10601415
193	0x3de4d831	0.11174048
194	0x3dd0dab8	0.10197967
195	0x3e0a780d	0.13522358
196	0x3e19106f	0.14947675
197	0x3e186ecf	0.1488602
198	0x3decadbe	0.11556576
199	0x3e0152c7	0.12629233
200	0x3e16bb25	0.14719827
201	0x3e2087c5	0.15676792
202	0x3e1cf142	0.15326408
203	0x3da177cc	0.078841776
204	0x3dd5d5c9	0.10441167
205	0x3dc0c972	0.09413423
206	0x3e17a726	0.14809856
207	0x3e1f11c7	0.15534125
208	0x3e0e48d3	0.13894968
209	0x3daa58ad	0.08317695
210	0x3ddc30df	0.10751509
211	0x3dea432c	0.11438593
212	0x3d91ed35	0.07125322
213	0x3ddb294f	0.10701238
214	0x3ded8559	0.115977
215	0x3db7e8be	0.08979939
216	0x3db4df74	0.08831683
217	0x3e15737d	0.14594837
218	0x3d5bb72f	0.053641494
219	0x3de7524b	0.11294993
220	0x3e06b92e	0.13156578
221	0x3dc517ea	0.09623702
222	0x3e239ed4	0.15978557
223	0x3e16e9f9	0.14737691
224	0x3e0ee3ce	0.13954088
225	0x3d285b8d	0.041102935
226	0x3dc9d3c8	0.09854847
227	0x3d9076ee	0.07053934
228	0x3d89aa08	0.06721884
229	0x3c96eb9c	0.018422894
230	0x3d51ced1	0.051222626
231	0x3da66df6	0.08126442
232	0x3dc9d2be	0.09854649
233	0x3df87d1a	0.12133236
234	0x3e0c254f	0.13686107
235	0x3d553522	0.052052625
236	0x3da326f4	0.07966414
237	0x3deaff11	0.11474431
238	0x3d63a0ea	0.05557338
239	0x3d3c7508	0.046010047
240	0x3e05f76c	0.13082665
241	0x3dd2dbd2	0.10295834
242	0x3d88f203	0.06686785
243	0x3df20be9	0.11818678
244	0x3e146147	0.14490233
245	0x3e1e28f0	0.15445304
246	0x3e00fd26	0.12596568
247	0x3e0f7b94	0.14011985
248	0x3db2f28a	0.08737667
249	0x3e1636f2	0.14669397
250	0x3db9eb2b	0.09078058
251	0x3dcd39fb	0.100208245
252	0x3e40111a	0.18756524
253	0x3e22ca5b	0.15897505
254	0x3e0ea870	0.13931441
255	0x3d9dea44	0.07710698
